Weights/forestfires/1/bweights.npz (npz, 2346 bytes, 2 tensors)

arr_0 f8 [10, 1, 22]
000000 8f b1 55 b1 70 8c f2 3f 7f 50 12 45 72 a4 0a c0
       1.1592871596468262 -3.330296077367222
000010 62 0f 8f 07 d0 f3 cc 3f e4 e0 32 62 bb 12 e0 3f
       0.22619057053645536 0.5022866170829983
000020 17 c7 1b d1 91 b0 0a c0 c7 8d a7 a0 27 93 ee 3f
       -3.33621562353154 0.9554632318290083
000030 e6 92 c1 df 33 b9 01 40 6a 87 0f ba 1b 25 12 c0
       2.2154309731434862 -4.536238581846058
000040 c0 bf 2a aa 7c be 14 c0 5f 72 ac 9a c8 cb fe 3f
       -5.186022433146661 1.9247518579424179
000050 bc 69 b8 90 6e d0 0d c0 a5 60 a8 a0 86 94 e9 3f
       -3.7267733866003407 0.7993806016775308
000060 4b 94 28 31 d9 c3 10 40 32 52 cd 5c c6 31 10 40
       4.1912582093255635 4.048608255416683
000070 0a f9 1f 8e 32 7e e5 3f ab f1 39 c7 e2 82 ca bf
       0.6716549659611541 -0.2071193192276842
000080 8e c8 33 c0 fa 09 ec 3f c7 ca 7f 7e d0 b1 01 c0
       0.8762182001066934 -2.21182345225802
000090 90 83 56 82 de a4 d3 bf 17 c4 5d d2 bc d6 f7 3f
       -0.30693781593623104 1.4899261681969216
0000a0 76 90 e6 bf 4c c2 f4 3f aa 14 ca bd 77 61 f8 3f
       1.297436475383646 1.5237958348891802
0000b0 3f 71 2b d4 4f 9d f3 bf 96 a5 d4 d6 52 3e 19 c0
       -1.225906208789709 -6.310862881401951
0000c0 a5 65 bb dd e5 4e 00 40 dc 8f 2e f4 c7 65 f2 3f
       2.038524372369198 1.1498488939623632
0000d0 eb 23 77 5c af 7d 1c c0 63 e0 51 d5 d2 c8 16 40
       -7.122739262363193 5.696116765138956
0000e0 31 c7 e9 3c 93 4e ef 3f 2a 81 d6 5f d7 4f 11 40
       0.9783416928969243 4.327970025508231
0000f0 58 04 4a a6 d4 5a 06 40 27 63 48 00 44 8b 17 40
       2.7943509093607126 5.886001591127559
000100 d8 33 70 18 92 04 20 40 2e 8d a2 47 f1 fb 1e c0
       8.008927119919392 -7.746037596985202
000110 a8 95 a9 6f f9 34 04 40 6d 68 64 e5 37 3b f0 3f
       2.525866386759578 1.0144576035150081
000120 38 74 6e 3b 13 03 a4 3f 54 17 14 d4 72 e2 01 40
       0.03908596134645176 2.235570580351956
000130 bc 81 7b df 5f 1e cc bf fa 1c 44 bd ea 0b f1 3f
       -0.2196769562933819 1.0654094117360828
000140 3a 79 e6 a4 cf f6 f3 3f 57 7b ab c4 0c d1 cc 3f
       1.2477566186349365 0.2251296959211355
000150 0d 47 78 74 80 f4 06 40 b1 c7 54 2e 49 e2 f1 3f
       2.8693856333928864 1.1177455720721634
000160 af fd e0 f6 9e 11 10 c0 56 ab 75 79 e9 82 fa 3f
       -4.0172079634498195 1.6569609398381622
000170 7b 92 99 7d 68 2a 10 40 d1 0e d8 95 d3 53 f1 3f
       4.041414225099852 1.082965455368072
000180 18 de 69 f1 5b 9c ca 3f b3 90 66 44 0e d7 12 c0
       0.20789670264979132 -4.710015362510762
000190 fc a7 36 a4 ff 8f ed 3f 2f 3d 10 1f 5c 16 0f c0
       0.9238279540343224 -3.8859178950148343
0001a0 4c 9b 1c 35 e1 e1 e8 3f 7d 52 a2 2f 5f 01 f0 3f
       0.7775732076014292 1.0003349171358018
0001b0 bd dd 3a 99 78 b8 0d c0 98 32 59 42 5f fe fa 3f
       -3.7150737734879997 1.6871025649772147
0001c0 f8 f2 04 c0 2b 0b 00 40 4d d3 a2 c9 bd c0 f3 3f
       2.005454540396723 1.234555995598572
0001d0 e0 f5 c0 a0 9e 96 f0 3f 33 3b 54 6c 2c 84 97 bf
       1.036772373146384 -0.022965139495734376
0001e0 24 72 0f d9 30 43 f2 3f 25 28 c8 ca e2 96 f4 3f
       1.1414040068549491 1.286837379566813
0001f0 7b 20 62 bf fa fe fb 3f 5b d5 62 81 e2 ec 00 c0
       1.7497508502874826 -2.1156663997923437
000200 b9 d5 66 f7 c2 35 fd 3f e7 3a d8 c5 2a 57 ec bf
       1.8256253875855306 -0.8856405128625199
000210 90 6a 9e 12 c2 a9 15 c0 d2 15 88 14 d4 1d f0 3f
       -5.415779391211473 1.007282333566185
000220 a2 7b 25 9f 98 b6 c3 bf 95 cb 9e c3 21 3e ee 3f
       -0.15400989313908747 0.9450844593724123
000230 ef 56 10 81 4d 9e e1 3f 70 b8 6c 18 92 0f 14 40
       0.550574066236292 5.0152057472570135
000240 b7 fb 51 6d 74 af 08 c0 da e1 f1 81 9c 2f ee 3f
       -3.0856712856907182 0.9433119333253288
000250 fd a5 00 d0 fb 0d 12 40 84 d5 02 54 fc cf d3 3f
       4.513655900992942 0.30956943706709006
000260 cf d3 4e 16 15 b2 01 40 25 10 97 5b c0 97 12 c0
       2.211954283028241 -4.648194724173696
000270 a1 1c 9c fa 9f 1b d3 bf 1c 17 d4 d1 c7 df d7 bf
       -0.29856109117140234 -0.3730334805589892
000280 c9 cb 10 d0 a9 f0 f7 bf e4 c5 f9 f7 9d b7 e6 3f
       -1.4962556960642692 0.7099141925120276
000290 85 23 35 03 22 cf 0d c0 c4 df 26 c9 f6 f4 ef 3f
       -3.7261390925017985 0.9986528328654392
0002a0 49 95 27 fe 9c 9a eb 3f 78 b9 6c 8f 76 22 c7 bf
       0.8626236881215529 -0.18073923113974977
0002b0 47 c6 0d 2b b7 48 e6 3f e7 d9 4e b8 22 d7 e2 3f
       0.6963764038939154 0.5887616729513042
0002c0 09 80 a2 79 25 5c 00 c0 25 de 07 59 ea 6d 13 c0
       -2.0449933531490427 -4.857339278321466
0002d0 32 27 68 e2 c6 10 eb 3f 57 38 a3 bc 50 12 00 40
       0.8457979604729415 2.0089430558501067
0002e0 7c ca 1c 10 75 24 03 40 7c b8 ec 85 68 74 05 40
       2.3928014048372557 2.6818399870745093
0002f0 e5 85 06 ac a0 46 ec 3f 3b 04 27 19 bd 3e ed 3f
       0.8836215362427394 0.9139085284479117
000300 ef e1 d7 96 65 25 1e 40 c0 b3 c2 c4 ec f2 f7 3f
       7.536520344664026 1.4968078313788595
000310 46 d5 cb c3 f9 08 ec 3f d7 a4 9a 4f 16 53 f4 3f
       0.8760956596512777 1.2702849492582595
000320 8a d0 07 f8 fe 80 c9 bf a2 63 c0 da 50 a7 da 3f
       -0.19924914465775984 0.4164621483083072
000330 10 ca db a6 79 61 f3 bf 72 67 98 90 0c c9 12 c0
       -1.21129765681383 -4.696336993505485
000340 55 07 e2 b3 42 58 23 c0 84 fa ae 04 46 f5 e7 3f
       -9.672383900967967 0.7486906138872915
000350 e1 72 3c f3 35 41 f4 3f 88 ba 6b a6 2e 6f d2 3f
       1.265920591488957 0.28803602458985056
000360 a9 66 a9 63 ac ce e5 3f e1 96 35 ca f5 cb f1 3f
       0.6814786860006353 1.1122949503709878
000370 6e 9f c9 20 00 41 f1 3f 5c b3 bb dc 84 90 eb 3f
       1.078369262768287 0.8613914786525174
000380 4d 14 2d 26 a2 82 e7 3f f7 82 b9 c3 24 97 f6 3f
       0.7346964593531397 1.4119002957815476
000390 04 0e e1 17 f2 b4 db 3f 97 73 12 d1 e9 dc e1 bf
       0.4329190476603062 -0.55821696123495
0003a0 6f be af 5f 67 c5 f0 3f 60 73 e5 58 6e 4e 08 40
       1.0481942880395783 3.0382964081785957
0003b0 dc 44 18 da 3f ed 16 c0 ac e7 db bc 1b 52 ed 3f
       -5.731688888293515 0.9162729920055788
0003c0 93 47 85 1c bd cb 17 c0 f6 5a 34 bf dd 31 02 c0
       -5.9489635902736095 -2.274348729882486
0003d0 dd a1 27 44 f7 59 05 40 d9 30 d4 8b 48 c4 07 40
       2.6689286541552364 2.970841495907831
0003e0 0e c2 db ab 4e eb 22 c0 45 de 18 a4 32 51 e1 3f
       -9.459584589553767 0.5411618428251549
0003f0 8c c2 b0 8f 63 54 7b bf fb b7 84 20 7a 48 05 40
       -0.00667227641228919 2.660389188814404
000400 f9 b7 b7 3b d8 b3 19 40 aa e7 ea f8 50 45 d3 3f
       6.425629551971718 0.3011057310901558
000410 1e 09 d4 03 f9 82 d9 3f a9 d7 13 f4 f7 63 21 c0
       0.3986189401040451 -8.695251109525843
000420 a8 c9 d5 a8 6e 86 f1 3f b6 6e f1 09 6a dd 06 40
       1.0953203768845956 2.858112409286913
000430 0e 9a e6 de af ad 10 40 9a f4 a7 ff ee 5c 09 40
       4.169616206002059 3.1703777287608093
000440 87 e9 2e 4e 6b fa 1d 40 e3 fb b0 a6 9b d2 f1 bf
       7.494549962628645 -1.1139179717426877
000450 ae 66 67 78 62 33 f6 3f de 62 ef 94 f2 15 1b c0
       1.3875450804975276 -6.771433188544249
000460 39 b3 27 a9 0a e2 0e 40 e5 13 ba be c3 08 10 40
       3.8603718962898736 4.008559208018572
000470 e7 ab ce 76 46 68 ed 3f e1 eb 73 88 56 f4 bd 3f
       0.9189789123969349 0.11700955230109812
000480 d0 8e 41 77 15 d9 f4 3f c6 01 d0 84 f5 bc f9 3f
       1.3029989870491825 1.608632582472738
000490 43 7a 13 95 f8 30 01 40 51 de 17 8f b6 47 17 c0
       2.1489116331643188 -5.82003234465772
0004a0 95 ac bd 03 fe 03 ff bf 3b 55 e8 69 3e 84 eb 3f
       -1.9384746690873602 0.8598930424219938
0004b0 ee 53 82 32 ce 3d 0a 40 51 64 48 90 6e 1b f5 3f
       3.280178446390429 1.319197238545048
0004c0 75 ce da 71 0f 45 f3 3f 64 69 a1 0c 91 7a d1 3f
       1.204360432381603 0.2731058715195529
0004d0 8f a4 b7 b4 bf 5c f9 3f e5 a1 36 17 09 14 f0 3f
       1.5851437625190419 1.0048914820455306
0004e0 70 e0 ec 01 b7 6c 0d c0 93 ee 3d a5 58 96 01 c0
       -3.678083434144405 -2.1984112653279424
0004f0 3a 5b cc 73 f2 d4 dc bf a2 f9 c8 89 ed c6 06 c0
       -0.45049725826668274 -2.8471327557046644
000500 7a 32 b3 88 a2 9a f4 bf 34 d7 78 c9 10 e2 19 c0
       -1.2877526607364005 -6.470767162323501
000510 04 03 e7 6c 0d 84 e2 3f a7 59 aa 28 08 e3 fc bf
       0.5786196829795647 -1.805427702760065
000520 a0 3c 0b 40 6f 8a 04 c0 0c 3e 9a 77 4b 18 f5 bf
       -2.567595005362435 -1.3184313461277979
000530 a3 91 c5 78 2b 29 c9 3f 35 26 54 9f 15 1e f0 bf
       0.19656890294130588 -1.0073448394563347
000540 cc df e4 40 27 0d c4 3f d4 a1 68 5f 2e a7 f5 bf
       0.15665140789655962 -1.353315708818731
000550 ab 33 6c 26 8a 68 03 40 f0 c1 75 f9 b9 7a ee 3f
       2.4260447503824785 0.9524812576547088
000560 6d 63 63 09 e8 ca f0 3f 46 ab 89 7e 98 3c 00 c0
       1.0495376936653102 -2.029587734772039
000570 ee 73 f8 7e d8 74 ed 3f a7 90 92 a5 a2 fb 08 c0
       0.9205133895771931 -3.1228688178399184
000580 ad 17 3d a4 d4 36 23 c0 f2 37 91 1e 7c b1 f9 bf
       -9.607091076333598 -1.6058312601121512
000590 6b ce 4e 11 60 94 e2 bf fe 9b 51 23 b6 fc f7 3f
       -0.5806122148555465 1.4991971377983186
0005a0 a7 5d 80 46 58 8e 19 40 e2 b1 cc e8 7f 67 e1 bf
       6.389008618912533 -0.5438842341296175
0005b0 a2 19 71 56 ec 03 ed 3f fe 65 a1 cc 18 2a f5 3f
       0.9067289055172305 1.3227775567414706
0005c0 a2 36 1e 7b 8f 34 ea 3f c3 bd a3 ee be 81 fd 3f
       0.8189160732888079 1.844176227746957
0005d0 57 26 4d ef d0 3b e4 3f 1f 6c 8b 7d a8 3e e0 bf
       0.6323017762999353 -0.5076487018626529
0005e0 91 b0 6d 79 af 92 c3 bf c4 e3 ac ce 11 2c d8 3f
       -0.15291398457646158 0.3776897924722642
0005f0 10 fb 22 a8 cd 66 f9 3f 12 72 e7 7e eb 05 1c 40
       1.5875984733426698 7.005781157375639
000600 9b 01 4d 3d 85 f0 ef 3f 79 89 b5 f3 8e a1 07 c0
       0.9981104085236895 -2.9538859405303666
000610 65 74 23 39 d4 78 02 40 88 1a a4 3b 84 1c 20 c0
       2.308998533625117 -8.055696357519324
000620 16 78 7f e5 47 bf 86 3f 47 27 8a a1 24 74 0e 40
       0.011107026759358301 3.8067104931150513
000630 29 19 f7 5e f3 2d ea 3f bd e6 90 c0 9e 65 e7 bf
       0.818109212378464 -0.7311548005156606
000640 29 c0 5a 44 dc 73 f1 3f 58 02 8e 21 47 1f 0b c0
       1.090786234864945 -3.3902723905050998
000650 49 9f b3 e9 3d 16 10 c0 3c ab 55 4d 40 e4 ed 3f
       -4.02172055395915 0.9341126928751247
000660 04 4b 88 d0 f4 a0 09 40 85 06 fc 39 ce d6 ee 3f
       3.2035919467538196 0.96372138333409
000670 0d 93 64 fc 57 70 ef 3f 25 09 72 9b 4e c4 cb bf
       0.9824638299511165 -0.21692831602201426
000680 e8 8d 0b b9 16 e1 0a c0 92 03 d0 cf 95 23 e1 bf
       -3.3599066216136073 -0.5355938967551188
000690 46 09 66 ca b0 ad 1d 40 7f 27 b4 d0 01 10 ed 3f
       7.419619715192601 0.9082039905781442
0006a0 4c d3 e7 40 7e 8a da bf 22 38 fb a8 84 ee ec 3f
       -0.4147029527514874 0.9041159916321286
0006b0 9f ae b3 58 0d 71 05 c0 5d 11 94 f9 55 8b e7 3f
       -2.680201237662757 0.7357587694719246
0006c0 1c 45 39 af ef e3 e9 3f 77 68 85 3f ef 5f 11 c0
       0.8090742513979055 -4.343686096685011
0006d0 6d 08 7b f6 91 a3 ec 3f 8c dd 13 0f 42 a8 f2 3f
       0.8949670614313284 1.1660786236733172

arr_1 f8 [10, 1, 1]
000000 89 f9 71 61 d3 50 06 40 0d 56 08 42 81 6d 0e 40
       2.789465676584943 3.8034691962045657
000010 70 7a c4 61 7a a0 15 40 02 6b 8e 7b 24 95 08 40
       5.406716849915583 3.072823491367104
000020 f9 85 5e 3b 82 92 0b 40 b3 46 de 68 32 52 f5 3f
       3.446537460157512 1.3325676056305553
000030 1d 7b fe 49 fa b3 e8 3f 85 d3 5b bd 18 de 1e 40
       0.771969933051739 7.716891249398832
000040 11 47 c6 30 fa 02 09 40 8b 43 1a fa d1 7a 13 40
       3.1264537630567095 4.869941623547571
