Weights/forestfires/1/weights.npz (npz, 53306 bytes, 2 tensors)

arr_0 f8 [10, 29, 22]
000000 08 48 bb 0b a4 00 14 40 07 b6 13 b7 fb 5c 23 40
       5.000625785165546 9.681607934147008
000010 38 33 76 06 ba 15 26 40 67 f7 f1 29 70 89 19 40
       11.042434884957046 6.384216933625658
000020 eb ba a5 75 7b 97 32 40 36 4a a5 94 e0 58 12 40
       18.591727593385183 4.586794207180494
000030 0c 27 e8 7d e1 10 16 40 85 58 1f fb c2 b5 05 c0
       5.51648518304297 -2.7137508028927777
000040 b9 71 4e 09 aa 58 11 40 4e e1 0b b9 fa 0e f6 3f
       4.336586137211662 1.378657076680685
000050 fc 6a 55 8b 3c db 10 c0 d2 ba 50 2f e9 26 02 40
       -4.21409814556932 2.268999452258279
000060 25 b4 ea 8b 6e c3 10 40 fa 76 5a 7b 6d 1c 12 40
       4.1908513891221775 4.527761390110522
000070 84 a0 1a 61 61 a0 fd 3f 00 01 a3 7a 2f c6 1a 40
       1.8516553681493244 6.693540493201226
000080 2b 61 8a 84 4a 6d 28 40 94 f6 93 1f 79 af e8 3f
       12.213459150211369 0.7714200608022161
000090 c5 bb 90 dc b8 28 24 40 3a e8 06 50 24 76 13 40
       10.07953538195387 4.865372896596506
0000a0 6d 10 0d 45 39 64 18 40 b9 34 f5 a5 46 39 14 40
       6.097874716684697 5.055933564273055
0000b0 fc 0b e2 9d 4d df 01 40 8e 5b 8b 76 44 03 07 40
       2.2340347609147084 2.8765954266813827
0000c0 14 ca 5d 80 65 71 05 c0 58 25 0b c8 b1 c3 0a 40
       -2.6803693798658603 3.345553934898515
0000d0 c0 23 3f 73 0d 34 23 40 90 1a 35 1e a5 98 04 40
       9.601665116746403 2.574533687587355
0000e0 41 e3 33 be 1a a7 04 40 84 14 03 df ce e6 02 c0
       2.5815939769348977 -2.3626992628874763
0000f0 26 92 dd ca 7a b7 e8 bf 78 f5 2f 54 ed f7 00 40
       -0.7723974191872613 2.1210581376205333
000100 b9 4a 38 b8 f0 46 e4 bf 66 55 c8 a6 95 24 f1 3f
       -0.6336597059292536 1.0714317812865715
000110 7f fb ed a9 a7 44 00 40 b9 3c 3a 83 25 b1 06 40
       2.033522918296 2.836497330870398
000120 64 e6 5d 12 50 cd f1 3f 0f 43 19 e9 75 d8 0b 40
       1.1126251904919622 3.4806936465105376
000130 c9 b0 e0 f6 21 50 17 40 ba 23 76 d3 7e 96 a3 3f
       5.828254563774132 0.038257563889664906
000140 c2 3f b0 dd ec 29 06 40 70 84 12 63 c6 2b 05 40
       2.7704713172351783 2.6463744869257013
000150 21 71 01 76 1c e4 04 40 73 c1 ae 76 c4 7a 04 40
       2.6113824099721943 2.559945037086601
000160 70 99 c0 db 62 3d 06 40 3f ba 58 2f da ba 15 c0
       2.7799737136985456 -5.432472934523104
000170 15 95 21 12 08 04 0e 40 03 3a ea ed 73 99 fa 3f
       3.7519685188768883 1.6624640744736332
000180 28 6f 9e 21 7b bb 10 c0 05 a0 8e 0f 8f e9 00 40
       -4.183086896224076 2.114042398014137
000190 b0 48 e9 78 bd b1 14 40 35 0e 13 bf b2 7c 1c c0
       5.173574342001459 -7.121775613344245
0001a0 53 ce 2c f3 ca fd 21 c0 44 73 91 ce 46 a1 0c 40
       -8.995689009875752 3.5787483347070594
0001b0 28 67 b9 c6 37 a3 18 c0 75 0e 25 3f 8f 05 fe 3f
       -6.159392457071398 1.8763573137847775
0001c0 ab 87 48 0c 7a e0 21 40 37 69 c3 9e ad 16 21 40
       8.938431152204279 8.544293366769677
0001d0 65 da a6 c0 6a 74 f7 3f e9 65 60 cb e2 7a e3 3f
       1.4659221196613086 0.6087507221411076
0001e0 ec 66 32 59 ad 0a 0f 40 48 da 4f 16 14 64 0b c0
       3.880213448382042 -3.4238664382094477
0001f0 c2 28 6d 78 34 61 f2 3f 04 97 ea 5b bc 71 0e 40
       1.1487316803127645 3.805535047623268
000200 46 9c f0 45 ca 74 0a 40 44 cf f8 9b 1d 04 12 40
       3.307026430516575 4.504019200383315
000210 1f f9 38 2f 55 b4 0a 40 5e 2a d3 bb 47 3d 13 40
       3.3380531014692134 4.809843954814452
000220 f0 f9 f9 75 8f 4e 21 40 d0 6a d7 c1 3e 59 10 40
       8.653438269390762 4.087153462193513
000230 bb 1a 25 48 fa cd 2a 40 72 67 01 a2 18 67 0c 40
       13.402300123719547 3.5503399521521084
000240 cb fa 9b 5e c4 15 13 40 f8 41 4b 79 0b 58 11 40
       4.771256902952426 4.3359812690910005
000250 30 de 91 9e 33 9c 03 40 aa 6f 4b 17 18 47 ce 3f
       2.451270331217323 0.23654461991725145
000260 f5 ce 8c 9f 73 33 05 40 9a 9d 70 17 93 90 01 40
       2.650122877583153 2.1955930548899234
000270 df bc ca 02 41 57 1b 40 53 31 e0 ef bd 92 17 40
       6.83520893442548 5.8933026772104595
000280 87 e3 b9 f1 4e 83 f1 3f 27 ac ee 34 98 4d fb 3f
       1.0945577089716794 1.7064439838093308
000290 dc 5a a0 be b5 f9 1f 40 5b 4b 99 03 b3 32 f4 3f
       7.99385736325959 1.262377752359234
0002a0 7b 29 80 78 1f 6d 20 40 55 e6 88 95 c2 15 17 40
       8.21313072742918 5.7712500920111625
0002b0 50 d8 17 47 0d bc 18 40 3a 35 a2 a2 18 4b 0f 40
       6.183644400434858 3.911668081832116
0002c0 ff 12 39 dc 1a 0e 0b 40 fd e6 93 af 31 42 ad bf
       3.3818871693532624 -0.057145645792798995
0002d0 2e dc f0 3d 15 37 f1 3f a5 fe 4b 53 5e 30 01 40
       1.0759479922833282 2.148617411381411
0002e0 33 ce 06 3f 33 1d 0c 40 9e cf f5 9c 36 6a 0a 40
       3.514257900614916 3.301861978770787
0002f0 ac 43 63 99 b1 be 14 40 83 ba ee 80 d4 39 0c c0
       5.1862243620716235 -3.5282373497823882
000300 d4 bb 29 cb d8 98 f0 bf ae 95 23 c1 0d 5b 08 40
       -1.0373161254935797 3.0444598282799324
000310 9c a5 99 d1 24 12 07 c0 e7 90 f9 96 ec 9f 06 40
       -2.8838592886938397 2.8280879778777606
000320 db 98 3e 60 37 c5 21 40 28 4c b4 2a 38 52 22 40
       8.885188110009429 9.16058476878068
000330 09 28 7f f1 1e df f6 3f 4b ac f2 45 2a 68 06 40
       1.429472869249823 2.8008618797953537
000340 e9 7a 78 c7 04 7f 15 40 05 cf 16 51 90 f2 dc bf
       5.374041668633006 -0.4523049156079966
000350 0f 60 93 b3 cb 68 1e 40 66 82 cd aa 45 b4 11 40
       7.602339559431143 4.426047009270951
000360 c6 3d a4 a3 06 6f 12 40 36 eb 5c ca e1 00 0b 40
       4.60842376413297 3.375430661163956
000370 51 4d d2 68 75 3f d9 3f 94 dc 57 22 b0 4b f7 bf
       0.3944982074401269 -1.4559785214931127
000380 c1 50 6a 67 df 47 09 40 a1 85 10 2a cb 90 e4 3f
       3.1600940779991054 0.6426750012944248
000390 04 e1 34 d9 2e 8e 08 c0 24 00 20 40 3e 73 da 3f
       -3.0694252938520794 0.4132838846417164
0003a0 7d 23 60 ee 45 45 e6 3f 84 d2 8f b3 7d 5d f2 bf
       0.6959561973354621 -1.1478249563344045
0003b0 8d 72 0a 88 14 c7 fd bf b2 4d 3b 0e f2 67 a4 3f
       -1.8611035646528393 0.039855541455519186
0003c0 c2 2b d0 f3 4d 76 f5 bf f9 99 73 13 95 b3 dc 3f
       -1.3413829349471915 0.4484608354527207
0003d0 c0 60 28 bc 83 b6 f2 3f b5 7b 5a 95 be 8d f3 3f
       1.1695592260276015 1.222105582630076
0003e0 e1 e3 1a 69 59 fc c6 3f 85 87 51 d3 48 5b d9 3f
       0.1795760882576181 0.3961965621621107
0003f0 f0 23 a7 62 88 7d d6 bf 52 e6 c0 09 17 ce dc bf
       -0.3514119113356733 -0.4500787348984875
000400 e1 f1 45 5f 57 e0 d1 bf 77 be 93 01 17 34 e3 3f
       -0.27931770614648427 0.6001086264422629
000410 04 ab d4 6b 85 f7 f0 3f 64 67 93 b5 5f 50 e4 3f
       1.060429974759871 0.6348112627413056
000420 28 a4 cc af 48 99 12 40 18 ee 5f d6 91 9f 10 40
       4.649691340318022 4.155829763035875
000430 90 be f6 42 a3 6d e0 bf f7 41 b6 b4 50 7b 0e 40
       -0.5133835132491686 3.810212528049529
000440 86 ca e7 0d 69 6b 2d 40 0e c5 3b 2e e6 f6 0d 40
       14.709785875840009 3.745556222151783
000450 4e 6a f2 4e d0 60 1c 40 c1 a7 fd bf 31 0b f6 3f
       7.094544633432248 1.3777329921381212
000460 37 db d9 1f 2a ac f5 3f e1 49 c6 2c 20 a8 02 40
       1.3545323604755148 2.3320926187527538
000470 7d 73 64 01 b1 3e ac 3f ca 38 fe bc dc f0 02 40
       0.05516579763409533 2.3676085248072
000480 c4 47 c8 2a 89 76 24 40 c4 41 b8 b3 dd 03 23 40
       10.231515252064021 9.50755082725744
000490 dd 50 5e 84 93 59 fd 3f 68 19 38 f4 f0 da 15 40
       1.8343691988603077 5.463809791492487
0004a0 d0 42 56 02 92 af 26 40 68 9c 14 fd 90 a8 c8 bf
       11.342910836248308 -0.19264423711249212
0004b0 d4 8c ab 6a 85 18 20 40 f5 a4 94 33 e3 64 1e 40
       8.04789288848989 7.5985229548907585
0004c0 de a6 f0 0c 5b c0 17 40 ea 77 ce 01 ce 38 15 40
       5.937847330272886 5.305473354555923
0004d0 45 58 72 5b 4e bc fe bf 11 8f cc f1 6b 7f 20 c0
       -1.9209731647620327 -8.248870426388324
0004e0 9b ac 73 b6 6c ac 19 c0 c2 c3 17 6d 4c d6 05 c0
       -6.418383456049152 -2.729637958801022
0004f0 ab 10 59 99 52 5b 2c c0 e8 1f 2a 45 1d 6f f2 bf
       -14.178364555475431 -1.1521275235882005
000500 89 7b 67 b7 f1 c8 0a c0 6b f0 c3 f9 68 02 24 c0
       -3.348117287488496 -10.004707150619842
000510 f7 10 1f c6 7b 61 1f c0 3d a2 34 fe b2 58 e8 bf
       -7.845198722501883 -0.760827538008989
000520 74 cd c4 b8 9e 00 17 c0 59 d9 47 76 dc 2c c5 bf
       -5.750605475437045 -0.16543155455992567
000530 6d b5 ce 64 69 4e 02 c0 f4 42 a2 fc a4 26 f9 bf
       -2.28828696018052 -1.571934687472262
000540 09 a6 98 9c ac f9 dd bf 28 82 cc 2a e5 17 16 c0
       -0.4683639077435094 -5.523335140926555
000550 e2 cf 19 05 b7 b0 21 c0 a4 2e 2e 5e d0 69 06 c0
       -8.845146331215748 -2.8016669614642797
000560 c7 c1 7d e7 cd b1 0d c0 9a 0b 3f 55 6b c7 0b c0
       -3.711818512463853 -3.472372690187922
000570 77 bb e0 a1 47 2d 07 c0 89 39 eb 2e 87 37 13 c0
       -2.897109284086976 -4.804226620776157
000580 06 0f 99 7b b2 bf 03 40 c7 d3 89 ea d6 83 11 40
       2.468602147682648 4.378749527609165
000590 73 cd 8d 78 e4 be ea bf cf 51 0a ff d1 ef 01 40
       -0.8358023027962375 2.242099754812649
0005a0 bf 50 4d 6f c0 ca 23 40 fc 38 ea 02 d4 ad fe 3f
       9.895999410808484 1.917438517939046
0005b0 7e 37 35 72 39 30 fa 3f 3e af b4 e5 52 7f f4 bf
       1.636773534893535 -1.2810849163897298
0005c0 2a 06 1b 06 6e cb fc 3f 64 9b be bd 55 70 ed bf
       1.7996654737947986 -0.9199627595852289
0005d0 96 32 cf 9b 99 5a f7 bf d2 a1 10 6b 09 e3 eb 3f
       -1.4596191488555283 0.8714644518959693
0005e0 17 da 65 66 36 6b 08 40 2b b1 a1 43 d9 29 08 40
       3.0523498534996736 3.0204339297980787
0005f0 e2 d5 b3 75 72 c2 ed 3f 2a 10 f6 eb 87 32 03 40
       0.9299862192989929 2.39967331261325
000600 7d fb f6 20 27 20 1e 40 d1 f0 30 1d 88 1b df bf
       7.531399264406784 -0.48605540133190767
000610 cd 69 5a ba 0f f6 14 40 3b 36 63 09 49 bc 03 40
       5.240294372337712 2.466936181392865
000620 7c bd f7 f7 fd 47 04 40 7c fe dc bf 53 8a 00 40
       2.535152375457697 2.0675425519291917
000630 7c af fe 04 ec a9 be bf 12 e4 b6 4e f4 3e d7 bf
       -0.11978030321068717 -0.3632174271293148
000640 11 de 01 64 cf 7d 97 3f ad 6d ba af de a8 c2 bf
       0.02294086501976095 -0.14577849941711687
000650 f6 ae 21 0e bc 6d ef bf d0 b8 cd 23 32 50 b9 bf
       -0.9821453357703536 -0.0988799416934143
000660 91 d2 09 48 ed 8c a9 bf 54 db b2 24 86 bf ae bf
       -0.04990331177115082 -0.06005496213895492
000670 ed b8 0c 14 5b 8d d5 bf 8e a0 e2 41 ce 01 a8 3f
       -0.33675267179468343 0.04688877634299714
000680 9b 3e a2 a9 b4 0f c4 bf f3 fb 8e 27 4c 17 79 bf
       -0.15672930033587282 -0.00612573383199243
000690 a6 51 31 a3 f1 44 ad bf 1e 38 89 62 5f 92 93 bf
       -0.05716662518594555 -0.01911305464664547
0006a0 7d 35 03 af 36 eb 88 bf b2 5c 8c 83 7d e4 ba bf
       -0.012167384353598315 -0.10504898511531982
0006b0 68 6b 62 7c d7 1d e2 bf 4a 0b ef 94 30 e4 a3 bf
       -0.5661427907356087 -0.03885032480277191
0006c0 d2 b0 b7 eb 63 01 d1 bf c6 f2 16 e3 db 96 b8 bf
       -0.265709858124649 -0.09605192465000831
0006d0 67 e8 7a e2 63 8e 95 bf bf 1b a0 e3 88 68 94 bf
       -0.02105098790955431 -0.019930018323090822
0006e0 e1 98 83 a1 04 6b d8 bf 52 ef 59 6a ea f7 e7 bf
       -0.3815318658147487 -0.7490131451772675
0006f0 5e 04 b8 cd 52 27 f6 3f 6e 37 fc 5d 52 54 b7 3f
       1.3846004520312571 0.09113039774476103
000700 a7 51 21 e9 8f b0 f0 bf b2 54 cb 28 32 bb e0 bf
       -1.0431059939047402 -0.5228510662806427
000710 07 41 03 e1 c2 b4 e2 bf 50 20 05 99 7d c6 f6 bf
       -0.584565581777526 -1.4234596230835628
000720 46 60 1f dd 25 e4 a0 bf ac 87 3b ea be e2 92 bf
       -0.03299063038110765 -0.018443091436786282
000730 3e 63 c4 43 50 f2 db bf cd ba 0d 74 79 8a cc bf
       -0.4366646444118948 -0.22297590414696913
000740 06 f3 a2 b4 1c 8f d9 bf 44 a6 4f d8 d8 85 d8 bf
       -0.3993598712948344 -0.38316937564977516
000750 2f 48 58 d5 2e 5d a1 bf 26 fe 49 6b a2 9d ca 3f
       -0.033914054434845624 0.20793562163088203
000760 07 61 b0 03 bf 09 ef bf 37 21 97 e1 a0 be d6 bf
       -0.9699397155809785 -0.35538503675754235
000770 ac 31 51 7c 82 36 e0 bf fb 90 08 55 15 57 dc bf
       -0.5066540172643292 -0.4428151445774941
000780 01 56 b1 88 05 4e d0 bf e7 96 07 c5 fc 41 e2 bf
       -0.2547620615854101 -0.5705551002726822
000790 e4 d8 f9 28 9c fd 01 c0 f9 1d 42 7e 5d 13 13 c0
       -2.248833007931454 -4.768911335740534
0007a0 87 ea 1f ed b9 c6 c1 bf d2 3a fa f1 2b e7 f1 3f
       -0.13887714460709707 1.1189383938068898
0007b0 da aa f7 f5 ed b4 ee 3f ff e8 23 91 62 77 ea 3f
       0.9595861248065731 0.8270733675738312
0007c0 d5 6b a2 a6 88 86 0b c0 6e 5b 8c 8e b1 3b 11 c0
       -3.440690328437521 -4.308294513050766
0007d0 7b e3 90 77 e3 a8 17 c0 d0 b2 33 93 62 05 06 c0
       -5.914930217951105 -2.7526294231559874
0007e0 cb 09 31 10 ec 4d 10 c0 dc a5 75 ad 20 bc e0 3f
       -4.076095822327669 0.5229648006326744
0007f0 3a 62 fe 3d c8 86 07 c0 3d 5d ac c5 6a 6b 0b c0
       -2.940811619115519 -3.4274497454859145

arr_1 f8 [10, 22, 1]
000000 8f 1a df 68 5d 96 09 40 b7 75 78 0b 90 2f 17 40
       3.198420352276407 5.796447924830708
000010 2b 43 16 f0 ec 6b 2a c0 be 7b 8b f5 db 40 16 40
       -13.21079206725843 5.563339077604665
000020 14 90 99 4c 07 57 0f 40 8a 38 0e 11 57 f0 06 40
       3.917494390903821 2.867353566404806
000030 b0 a3 ee cb d7 11 29 40 0a a4 e6 6e 74 57 2d 40
       12.534849522476947 14.670810189871208
000040 28 d8 5e fc 2c ce 34 40 b0 3d 12 c9 da 16 0f c0
       20.805373929171907 -3.886159487599535
000050 9f c3 44 93 5b 09 30 40 79 e0 f5 9d a7 8d 03 40
       16.03655357769787 2.4441673603687915
000060 7a 57 e5 6e fc 39 23 40 84 73 4b 68 f1 ad 2e 40
       9.613254037376226 15.33973241730724
000070 32 18 65 53 2d 40 03 40 4e 13 ca ae 4b 80 18 c0
       2.4063364520289037 -6.1252887068593065
000080 c6 ea b2 64 b9 25 1f 40 be 4a 8b e8 fb e5 09 40
       7.786840032024605 3.237296883345464
000090 fa da f1 77 9f 04 1e 40 25 c6 ca de 33 1d 16 40
       7.504514574181252 5.528518181921332
0000a0 72 1d 8e 82 bf 05 0d 40 81 87 b8 28 ba e4 1b 40
       3.6278066825504363 6.973366390478874
0000b0 b8 c0 fd 06 76 2e 13 40 82 3b ea 6c 79 0b 37 40
       4.795372113454668 23.04482155531469
0000c0 5a 39 e3 38 1b 29 31 40 a0 a8 20 85 1b d7 1b 40
       17.160571628069512 6.960065918081597
0000d0 1c 02 77 47 97 42 16 40 57 96 ad c7 69 cb 2e 40
       5.565030209196745 15.397291412296154
0000e0 62 d5 31 17 c3 0d 03 40 b7 6d 99 6d 0b fd 34 c0
       2.3817197620470987 -20.98845562930884
0000f0 f7 af 17 b4 42 69 18 40 2a d5 9f c1 a2 f6 2c 40
       6.102793516107332 14.481710482369255
000100 0b 76 df 61 d6 de 42 c0 c7 31 ee 61 01 e7 3c 40
       -37.74091742907702 28.90236484589857
000110 a1 0f 18 ef 3b 34 31 40 fc ab 6b d2 3b 7b 28 40
       17.20403951966694 12.240690780299694
000120 d6 55 4c 87 55 c2 16 c0 45 57 a2 56 40 42 20 40
       -5.689779390367638 8.129397113148693
000130 43 d3 f0 bd 1c 9f 22 40 6e 07 ff f5 bc d6 12 40
       9.310766158721554 4.709705203715073
000140 4e fc 7f e4 8d 65 09 40 e1 8a 1c 16 13 82 2c c0
       3.174587044864473 -14.25405186746997
000150 36 1d e0 fb 1d 07 23 40 3c 75 7a 99 e1 ff 1c 40
       9.513900633914641 7.249884031390419
000160 1d 70 aa e1 5b 1a 12 40 9c c7 84 18 06 97 29 40
       4.5257411251332345 12.79496838208052
000170 9a 9d 03 f4 32 35 2c 40 c8 7c e2 f7 44 6a 20 40
       14.10390436691414 8.207557436368361
000180 a3 6d 5c e2 eb 56 0f 40 29 fe 29 05 64 d5 26 40
       3.9174421009499425 11.416778718353344
000190 a3 75 4b 75 90 c9 16 40 8f 0c aa 88 2c b0 2f 40
       5.696840126734432 15.844089766271535
0001a0 55 c2 bb f6 83 26 13 40 74 f5 e7 ab cc 5f 23 40
       4.787612776956469 9.687108394685062
0001b0 19 0a 2a c5 56 da 21 40 a5 bb be 6c 84 5e 1c 40
       8.926443253881233 7.092302035466592
0001c0 67 46 55 ee df 50 1a 40 84 95 75 da c1 9b 1a 40
       6.578979228930257 6.652106679369698
0001d0 d0 bd 1b a4 15 0e 1c 40 65 b2 02 44 80 3a 0c c0
       7.013754429047779 -3.5285649598429694
0001e0 ab 53 04 57 eb 6f 1a 40 ef 1a cc 6f 2b 8c 1b 40
       6.6092961880103 6.886884447891801
0001f0 f1 a1 f5 87 79 fa 0d 40 2f 89 1c 2d 3e 1e 53 40
       3.7473021146618 76.47254493509966
000200 a8 ec f9 5c 63 aa 1a 40 f8 6e 9d 9f 18 59 27 c0
       6.666394665483644 -11.674015987365678
000210 34 2f 6e 4e 76 b4 30 40 b1 98 5b 24 01 c4 f6 3f
       16.70493021192597 1.422852651617671
000220 e4 77 56 19 cc 4c 1d c0 85 46 e6 64 da 43 06 40
       -7.324997325804336 2.783131397511911
000230 76 f1 5f c7 85 f1 36 c0 4d 95 88 cd 74 6c 25 40
       -22.94344755260814 10.711828635142092
000240 35 74 a6 e1 3b ce 13 40 1c e1 59 d7 4c 53 19 40
       4.951400304588835 6.33134781347351
000250 78 1d 53 68 4f 1a 41 c0 83 df ad 65 58 ca 1a 40
       -34.20554832514148 6.697602833497402
000260 3d 16 7b 11 47 8d 24 40 25 83 1e 9b a6 fd 22 40
       10.275932832980397 9.495411727404255
000270 41 c9 db c2 90 d5 27 c0 ce 83 a9 5e b9 1b 0e c0
       -11.917120065049518 -3.7635371585351782
000280 15 30 7f 26 3c c2 20 40 87 de 06 db d6 d2 b4 3f
       8.379365160966737 0.08134215209326544
000290 ba c0 f0 90 11 1d 28 40 1e a5 ea 0c ca 59 06 40
       12.056774644268774 2.7938424119098633
0002a0 61 32 d7 e5 1f c2 0b 40 78 fd ba 90 11 55 1f 40
       3.469787402753625 7.833074819004985
0002b0 9f ab f2 91 5a 95 ed 3f 3a b1 ab cc ae 3a 19 40
       0.9244816637559444 6.307307432154909
0002c0 b4 23 14 ec 21 ee 14 40 b3 92 93 02 0d ec 0f c0
       5.2325512778560785 -3.9902591897283286
0002d0 86 06 9d 4f 70 e1 0a 40 79 1c bd 7f c7 73 21 40
       3.360077497462785 8.726131431422106
0002e0 42 b4 99 57 e7 27 24 40 db be bf 43 54 89 26 40
       10.077936875832282 11.268221013218342
0002f0 5c 89 1b bb 0e 10 fd 3f cb 19 3d d9 e4 76 04 40
       1.8164202984704252 2.5580536815425368
000300 a8 d7 07 d5 ce 1b 44 c0 c8 5d 82 bd 9e d8 18 40
       -40.21724951632433 6.211543046075754
000310 f6 75 c2 a5 21 aa f5 3f 9e 82 67 26 a4 b6 33 c0
       1.3540359950051175 -19.713442230483103
000320 f1 88 c2 31 1c 89 31 40 75 3e 38 b7 2d 5c f3 3f
       17.535586462015036 1.2100045353908204
000330 af ad 04 c4 78 01 2a 40 9a a2 66 0e c6 b3 34 40
       13.002874494143581 20.702240848596013
000340 39 af 04 df 75 e5 2a 40 86 f6 0b 74 e5 14 01 40
       13.448164910623392 2.135203272452432
000350 2b 8a e2 ee f5 46 0f 40 93 d6 86 ca aa cd fa 3f
       3.9096487677463947 1.6752117072295831
000360 5e 92 c5 09 33 10 f1 3f f0 f6 c3 55 af d6 08 40
       1.0664549237927967 3.1048266125134134
000370 52 2e b5 43 bf eb 17 40 67 b4 f0 cc 98 e3 16 40
       5.980221803601653 5.722262575332116
000380 54 76 30 77 41 6d 12 40 3e 4c 99 ff 1d e7 1c 40
       4.60669504388132 7.225700372439915
000390 3b d3 dc f0 f3 aa 32 c0 a1 c9 08 01 18 34 16 40
       -18.667784742271788 5.550872818147043
0003a0 e5 5c 7c da 9e af fa 3f b7 4a 3f f4 8f 30 1d 40
       1.6678761038399952 7.2974241412763865
0003b0 df 1d 12 42 ae 35 3d 40 1f 86 b4 88 3f 48 26 40
       29.20969021742155 11.141109725987063
0003c0 d3 f3 6d 86 26 89 26 40 5a ad 9e 4e 1a 17 24 40
       11.267872048303536 10.04512258231141
0003d0 d2 f2 06 ae 57 ab 19 40 97 36 6d 06 86 08 22 40
       6.417326659368614 9.016647530395216
0003e0 75 4e 00 ef e0 b9 25 40 2a 79 99 b3 4d 2d e3 3f
       10.863044232165729 0.5992802150538286
0003f0 30 27 84 fd 6a 6d 2c c0 55 9c 1c 9e 0b 31 22 40
       -14.21370689619252 9.095791760437502
000400 d1 e3 d6 28 7d 3d 35 40 e5 d9 4f 4f 3d 51 14 c0
       21.24019103285156 -5.079335440872886
000410 0e 1f 4b 1c 0e 66 2b 40 69 7c 05 c1 74 41 36 40
       13.699326404733736 22.255687774504995
000420 89 23 27 78 ea a2 05 c0 f8 83 40 f0 ab cf 31 c0
       -2.704548777288839 -17.81121732306562
000430 e8 f7 cf 33 a6 36 1a 40 60 a6 78 a9 71 e6 2d 40
       6.553368386810668 14.950085922220012
000440 7b d8 c6 b0 91 b0 27 40 aa fa 1f 33 a2 dd 2b 40
       11.84486153056445 13.932878110555368
000450 dc 34 90 4c 82 cf 05 c0 45 3f 3a 4e c8 42 3a 40
       -2.726322744513352 26.260868920536513
000460 1c e2 c2 3d 76 5b 31 40 fe 52 53 a7 d6 a5 16 c0
       17.357272968367496 -5.661951651058869
000470 1d 36 e4 1e 22 b5 05 c0 a7 bc 9f 33 5d 4b 36 c0
       -2.713443986262759 -22.294390894411347
000480 b5 fd a3 d0 6c 08 33 c0 18 fa 18 a0 da 4f 21 40
       -19.032910385167003 8.655964854287092
000490 05 b9 0d da 72 0c 35 40 53 d5 5b e9 54 9d 31 40
       21.04862749896076 17.61457689754509
0004a0 71 27 81 0e eb bc 25 40 4f 60 b4 b8 5e 54 d6 bf
       10.86898083998287 -0.3488995364909941
0004b0 d8 2b 1e cb b1 db 23 40 58 55 86 01 09 b8 f8 bf
       9.929090831215873 -1.5449304637489458
0004c0 c7 38 a4 5f 1a 7b 0b c0 69 17 88 97 39 60 35 40
       -3.435108897399093 21.375878782964183
0004d0 00 e1 c0 74 a8 c8 29 40 3a d2 13 60 6c 43 24 40
       12.891910217804707 10.131686212939815
0004e0 4b fa c1 c7 dc e1 3c 40 cf c1 57 2c ee 1c 32 c0
       28.882275090082015 -18.11300923483378
0004f0 6a 6d 7f 94 6c 2e 32 40 7a 35 da af 38 b5 37 c0
       18.18134430037518 -23.707896223806053
000500 e1 05 a0 c2 58 f0 34 40 ac a6 00 48 4c 36 31 40
       20.938854373996836 17.21210145965476
000510 9b 6f 35 02 a2 03 22 40 0f 47 84 13 fa f9 3e c0
       9.007095402739472 -30.976472110552148
000520 88 f0 fc 89 e8 11 26 40 c7 0e d7 78 a8 ab 39 40
       11.03497725689546 25.6705394291919
000530 78 6f 31 e0 c3 19 2c 40 d2 a2 9e 66 1c 6a 2c 40
       14.05032253840885 14.207247931351421
000540 d5 30 36 aa 27 bc 28 40 16 98 08 30 ad e1 31 c0
       12.367490119090158 -17.881548883531728
000550 ee 8b 93 ab 13 04 24 40 4f 48 a2 70 58 81 2a 40
       10.007962571869907 13.252627868471022
000560 61 9e 08 01 f7 ed 29 40 25 03 ba 05 5b 56 3d 40
       12.964775116254886 29.33732639113727
000570 3d 5d 8c 44 ce 1d 2a 40 c2 58 8a 55 df 7e 27 c0
       13.058214323171905 -11.747797654283548
000580 44 df d6 c5 9b a5 29 40 c7 53 da d3 6a 0f 25 40
       12.823454077224262 10.530111904526974
000590 f5 3e c8 c3 ca 45 27 c0 14 c9 14 a2 bd ba 23 40
       -11.636312597459872 9.86472803596238
0005a0 68 f0 3f e7 cd 88 4e c0 20 3b e3 a6 84 07 09 40
       -61.06878367063547 3.1286709821792016
0005b0 92 33 9d 33 0a 70 21 40 e9 c3 58 e0 c7 25 18 40
       8.718827832164411 6.036895280282786
0005c0 95 da 95 52 ef bb 01 40 91 ee bb 33 e8 96 24 40
       2.2167650653821718 10.294740311327844
0005d0 5f 15 a5 5c 73 a9 f2 3f 05 17 a7 42 9a a7 2d 40
       1.166369783300375 14.827348788162917
0005e0 f1 45 1f 64 73 f3 0d 40 53 97 de 1d 54 f5 36 40
       3.7438724348110033 22.95831476864198
0005f0 41 f0 17 11 42 ac 23 40 3d 1a ff d6 4b ab 39 40
       9.83644154946535 25.669125973969347
000600 7c b9 b1 96 03 66 11 40 65 3a de d5 23 4f 23 c0
       4.349623064610906 -9.654570277574019
000610 e5 11 97 62 75 7a 31 40 73 9f 15 21 0c b7 33 40
       17.478353654749203 19.71502882745649
000620 35 6d ae f8 ca 88 30 c0 d1 3e 68 c9 b9 6a 38 c0
       -16.534347097954385 -24.41689738078168
000630 40 48 f4 69 aa 64 15 40 b8 4e ff e9 66 ad 31 40
       5.348306327376179 17.677351593810016
000640 80 4e 64 b3 04 73 1a 40 c5 9a 89 bd db 63 13 40
       6.612322619435531 4.847517930530278
000650 c1 bc f9 ed 25 e7 2b 40 6f 7a cb 90 0c 9b 1c 40
       13.951461254821313 7.151415121478393
000660 46 58 c5 6d 24 19 1e 40 e8 6c e8 c0 96 21 13 40
       7.524553027315113 4.782801641641733
000670 8f 8e 28 52 46 bd 0e 40 d8 b3 1b e1 ac e5 32 40
       3.842419282782266 18.89716917921382
000680 6c 13 8a 86 df 3c 12 40 e1 1f ba 96 ca 62 38 c0
       4.559446432282908 -24.385903759422835
000690 dc 17 52 1b 94 3e 50 c0 22 2e 06 37 19 2b 0f 40
       -64.97778971688189 3.896044187427621
0006a0 a4 63 f4 ef f2 bc 24 40 ed c0 f6 56 dd 1a 14 40
       10.369040964682263 5.026234968958517
0006b0 5c 02 49 51 c7 75 1c c0 c0 fa 43 59 e6 77 10 40
       -7.115018148499612 4.117089648031367
0006c0 19 85 0f 00 61 fa 10 40 6b 64 e0 67 02 47 20 40
       4.244510651538143 8.138690229550965
0006d0 aa b4 4e 71 ea a4 19 40 ca af 60 f9 77 f2 16 40
       6.411050577572647 5.736785789991652
