Weights/abalone/2/bweights.npz (npz, 1868 bytes, 3 tensors)

arr_0 f8 [10, 1, 8]
000000 42 11 20 a8 60 8e d5 bf 94 5e 1c e7 38 24 e0 3f
       -0.33681503694994686 0.5044216646083037
000010 6d 56 3d b7 61 c8 e5 bf 48 6a 7b 0d 0f 1c c1 bf
       -0.6807106570146978 -0.13366878660493087
000020 9d 30 5c 4a a3 ef e2 bf 6f 73 db ae 10 cd b5 3f
       -0.5917526676507979 0.08516029614425034
000030 af 7d e6 d8 02 9b 86 bf ee 49 bb bb e2 aa cb 3f
       -0.011037847751878297 0.21615251700002552
000040 33 23 20 fe 9c e8 c8 bf 6b 27 89 f8 5c 0a da 3f
       -0.19459879311059466 0.4068825175387391
000050 3f b5 47 96 10 fd e5 bf c0 a2 64 b2 7c fb b9 bf
       -0.687141698375548 -0.1014936385660219
000060 9e 86 4c 0e e8 20 e7 bf cb 5e 62 92 1b 17 ae 3f
       -0.722766902854534 0.05877004777829383
000070 4d f2 1f 1f 0f 53 71 bf e4 a0 d8 f6 73 bc c9 3f
       -0.004229601925541515 0.20106362870251993
000080 9e 1c ba 39 44 53 cc bf e3 d2 cf ec e8 a3 dc 3f
       -0.2212910920972932 0.44750426412728767
000090 33 95 d8 95 c0 3e e4 bf 0c 7d 08 16 06 c7 b1 bf
       -0.6326601912193496 -0.06944311178130053
0000a0 09 19 75 9c ae 56 e6 bf 07 74 49 bf a8 a8 b1 3f
       -0.6980813079651692 0.06897978468028053
0000b0 3b 0a fe 35 64 e4 85 bf 0a 8b c5 a7 31 d4 cc 3f
       -0.010689528367724957 0.2252256459424518
0000c0 c5 86 25 3b 8c 0d c6 bf 7c ea 43 6b 1b f7 d8 3f
       -0.17228844535843826 0.39008222079397803
0000d0 78 a2 3a 69 14 50 e6 bf 91 80 12 2d 8d bd b6 bf
       -0.6972753577475279 -0.08882982588193246
0000e0 ba a0 d5 6f e2 0f e5 bf e6 65 c5 72 e0 4f a7 3f
       -0.6581890281932126 0.04553128624929652
0000f0 91 b6 18 af 9c d7 76 3f 99 de b6 4e 60 f8 bd 3f
       0.005576717421303849 0.1170711700605075
000100 97 f4 7e 0d 02 77 d1 bf 90 2c e0 47 92 62 d1 3f
       -0.27288867299996283 0.27164132136449215
000110 d1 6f 1f ea 7e df e3 bf 72 57 d0 18 ef a8 c3 bf
       -0.6210321972571312 -0.15359295570004466
000120 5c 98 e0 67 b3 be e1 bf de ec 6b fa 52 3f 5b bf
       -0.5545289067129135 -0.001663046868712929
000130 40 31 8b 32 90 ad b7 bf 0d ec ea 98 04 d4 c0 3f
       -0.09249211534478707 0.13147027460749464
000140 e5 12 33 f0 7d 4e c7 bf c0 58 3f 44 6c c2 d8 3f
       -0.18208288410655551 0.3868666330794319
000150 97 67 51 b6 3f 1f e6 bf f2 82 32 57 f9 8c b4 bf
       -0.6913145600221807 -0.08027609232750502
000160 5d 72 7d ab cf 9f e5 bf e6 a7 ba 35 38 34 b3 3f
       -0.6757582044043137 0.07501555740114405
000170 15 a9 e3 f5 ba 30 94 3f 05 8f b8 f3 66 f9 c4 3f
       0.01971714139737298 0.16386114979206226
000180 3d 0a 21 66 e3 a9 d4 bf dd 98 09 d4 14 35 dc 3f
       -0.32286915753880746 0.440739829128132
000190 71 ed 8c c4 85 2a e6 bf 5a cc 51 f5 b0 1a bd bf
       -0.6926907385708728 -0.11368852605100824
0001a0 b4 8f 79 94 52 77 e5 bf 39 f2 b8 17 14 c7 b6 3f
       -0.6708157443904299 0.08897519663964538
0001b0 14 49 e6 73 f3 08 aa 3f ee 07 fd aa 65 05 cf 3f
       0.050849540613073924 0.24235220765154913
0001c0 cd 7c 56 43 97 47 c8 bf 2f d0 14 1b c9 00 da 3f
       -0.18968478000622327 0.40629794735582697
0001d0 61 cb 52 a7 61 6f e6 bf b9 d5 f9 4b 2c 9b b5 bf
       -0.7010963695559945 -0.08439900259857937
0001e0 c7 13 46 51 44 54 e6 bf 8f 08 28 30 ab f6 ba 3f
       -0.697786482560894 0.10532636571591268
0001f0 ed cb b3 f6 3b a0 af 3f 0c 15 0c c0 bc 1f cd 3f
       0.061769365181952064 0.22753104569725513
000200 cf a4 47 be f6 ff cc bf c4 e6 ec 59 30 4d d7 3f
       -0.22656139651306836 0.3640862348725984
000210 46 e8 8d fe 8e e0 e7 bf 1d 73 ca 73 77 87 c1 bf
       -0.7461619350208444 -0.13694661287163337
000220 9d f3 7f cc c5 db e2 bf c9 0f a8 07 53 bd 9d 3f
       -0.589327716268247 0.029042527525248638
000230 02 a9 32 1e 18 c0 87 bf f5 1a 77 e1 97 5f c4 3f
       -0.011596859380308636 0.1591672755150381
000240 1b 8d 2b a3 6b b0 cd bf e9 e3 85 2b b9 35 d9 3f
       -0.23194642512599092 0.3939040112523445
000250 98 9d dd b7 61 11 e6 bf e7 00 78 ea ec bf bd bf
       -0.6896217909933737 -0.11620979999861768
000260 5a 52 68 8b df 59 e7 bf f1 11 13 8b 35 ef a1 3f
       -0.7297208521654952 0.0350281460064571
000270 f0 b1 b0 81 92 37 a2 bf 40 6a 7b 0f 7e 8a d0 3f
       -0.03558023293621548 0.2584529067222867

arr_1 f8 [10, 1, 5]
000000 5c 2d 9a 98 77 55 c4 bf ec 5f aa da aa d2 da 3f
       -0.15885825110704388 0.41910811761908806
000010 01 f4 47 a5 cf 30 f0 3f 1f 91 5b 24 c4 f5 ef 3f
       1.0119167763034513 0.9987507543669699
000020 f2 25 99 67 fc 5a f6 3f f5 5e a4 89 03 f3 a8 bf
       1.397213368111235 -0.048729048301707246
000030 9a c4 cd b7 83 05 d9 3f 99 9d 69 34 cb 79 f0 3f
       0.390961579795723 1.0297348067632355
000040 bd b9 6e 08 20 27 f0 3f 66 76 52 8e 2c 48 f6 3f
       1.009552033366716 1.3926206168611315
000050 d3 b4 e5 9f c5 7d 93 3f b4 65 cc 38 12 1b d8 3f
       0.019034469494205574 0.37665229365083097
000060 66 01 78 91 e0 de f0 3f 51 b4 8f 65 a3 6c f0 3f
       1.0544133837102776 1.026523014759068
000070 05 8a 51 21 04 a1 f6 3f bb ce fd d3 fe d4 9b 3f
       1.414310579443396 0.027179700554781343
000080 d7 c9 4a ef 85 04 d8 3f bd 30 6d d7 e6 34 f0 3f
       0.3752760731541946 1.0129154601191168
000090 6d 9a 06 5e 1f 1e f0 3f 4e ac 02 6a a1 0e f6 3f
       1.0073541329271862 1.3785719052346113
0000a0 5b ad 60 d2 fc fb b9 bf e3 10 d0 74 34 34 cb 3f
       -0.10150127540753344 0.21253066734073575
0000b0 2a 91 bb 78 63 2c f0 3f bf 7e f2 a9 42 67 ef 3f
       1.0108370510216198 0.9813550299913557
0000c0 42 1a b6 03 df 44 f4 3f 74 61 d6 03 53 70 7f 3f
       1.2668142456983706 0.007675480153374149
0000d0 f3 50 ef fe c3 b3 d3 3f 5b 7c 89 cd 82 97 f0 3f
       0.30784702201823605 1.0369899777213252
0000e0 a0 90 83 12 17 54 f0 3f 29 f4 db 60 de 43 f6 3f
       1.0205298159790246 1.3915694984018592
0000f0 35 e1 10 6a 46 c8 c7 bf df 84 53 c8 a3 38 df 3f
       -0.18579940966606903 0.48783201754674893
000100 44 88 88 8c c6 93 ef 3f b7 87 bb 71 e2 ee ee 3f
       0.9867890114585482 0.9666607114161171
000110 6d e3 c8 91 96 aa f5 3f 1b 79 26 1d c0 9e b1 bf
       1.354147500487865 -0.06882858955075159
000120 11 9a 5b b6 74 45 df 3f a8 b4 d3 40 0e 49 f0 3f
       0.48861425217037985 1.017835858564732
000130 27 fe 55 c8 39 f3 ef 3f d3 15 60 9f 0a 50 f6 3f
       0.9984406388102273 1.394541380462546
000140 73 26 95 cd e1 6d b5 3f 91 7c 32 d0 23 e9 d5 3f
       0.08370791691882022 0.3423547299552832
000150 6a f8 e1 5f e1 77 f0 3f 8d 3c 73 d7 ab 3b f0 3f
       1.0292676682870714 1.0145681777974318
000160 da a7 7a 04 03 7d f5 3f 65 7a e6 fd 4f c4 bb bf
       1.3430204558339853 -0.10846424053895871
000170 4c eb 82 60 63 1d d8 3f 40 bb e3 60 e1 0c f0 3f
       0.37679371285382923 1.0031446251629887
000180 54 32 55 b4 8d c4 ee 3f 22 84 2a 4f 65 4a f5 3f
       0.9614933511853203 1.330663022272582

arr_2 f8 [10, 1, 1]
000000 03 cb 5c 9a 8f 86 08 40 48 dc 68 cd f3 72 08 40
       3.0657035884445363 3.0561290786386373
000010 d6 5b b2 2a 07 9e 08 40 fd 75 6b 19 c3 5a 08 40
       3.077162107055737 3.044317434875437
000020 e8 42 61 fd 4e be 08 40 45 63 cb c6 7e 68 08 40
       3.0929240985209283 3.051023057062056
000030 4b 9f 06 89 09 84 08 40 b5 27 18 ba ef b7 08 40
       3.0644713120599696 3.0898127115842393
000040 3d 1f dd a6 93 5d 08 40 9f 6c fa b0 09 9a 08 40
       3.0456917797309004 3.0752137972281868
