Weights/abalone/2/weights.npz (npz, 10748 bytes, 3 tensors)

arr_0 f8 [10, 10, 8]
0	0xbfe0e0df7bb9435e	-0.5274503151395995
1	0x3fd5cffe8ffc6619	0.3408199697601915
2	0xbfc8206236032795	-0.1884882701618237
3	0xbfc29b5e4efdecd3	-0.14536646706606024
4	0xbfd9bd7bbc37dd27	-0.4021901453083551
5	0x3fc40a033859669a	0.15655555964876983
6	0x3fd06e2f9fa48757	0.25672522153955896
7	0x3fc41b89869fde5d	0.15709036897145526
8	0x3fc4b9747c8aef6e	0.1619096382254343
9	0x3f9d6a265a2f96f9	0.028725241903791752
10	0xbfddaae40f5fce69	-0.463555350316915
11	0x3fafa33e926df76a	0.06179233109922573
12	0xbfe26cbcaf1cdb30	-0.5757735653085998
13	0x3fb2873a921013bb	0.07237592760073046
14	0x3f6268a2040d0eed	0.00224715846744227
15	0x3fc7167b695477b5	0.1803735985094456
16	0xbfc29c3135f95c57	-0.1453916085763207
17	0x3fe5a75af66545dc	0.6766791164793022
18	0xbfe226b7500dd6fc	-0.5672260821872608
19	0xbfc79a7f5b24871a	-0.18440238905264367
20	0xbfb9f511c8529276	-0.10139571324050131
21	0x3fa5e9db2c1b0db9	0.04279980576896087
22	0xbfc5a4d82b7fc2ce	-0.16909315227487415
23	0x3fcec2528179b0d2	0.24030524560965333
24	0xbfeb2dd7d29cf488	-0.8493460763489944
25	0xbfead5b3af4f1f02	-0.8385866569524014
26	0x3fbc401d60be4af5	0.11035331355951057
27	0xbfe9771d80bba5e3	-0.7957904352489859
28	0x3fd0315227ef2fbe	0.25301031017147213
29	0xbfe8455867c37be0	-0.7584650065072047
30	0xbfe83538df6b45db	-0.7564968455937405
31	0xbfec935a698d4ba0	-0.8929874478875384
32	0x3fb0670cbd6f789d	0.06407241463554887
33	0xbfcca3d8c33dc34f	-0.2237502053572151
34	0x3fe6ce37dd813424	0.7126731230033596
35	0x3fb224b751cd64b2	0.07087274310233019
36	0x3febffd78d98841f	0.8749807134191804
37	0xbf8c6c995ef23dce	-0.013879011354474804
38	0x3fb8a0b7de131dfd	0.09620236560578373
39	0xbfced839f816959b	-0.24097370732958442
40	0x3fe7c34578e3cc74	0.7425868378762872
41	0x3ff5605281109d93	1.3360161820981815
42	0x3fe5c7a59619d9a1	0.6806209499034602
43	0x3fec60f2e3ed8005	0.8868345691407745
44	0x3fe33d77e7fd0cd2	0.6012534647965373
45	0x3ff1cc34cb086d41	1.1123550349210094
46	0x3ff13d3ffcc7aea1	1.0774536012858464
47	0x3ff34a426c772d61	1.2056297528204925
48	0x4003b8237afafc39	2.4649114234776133
49	0x3feae1a0d402c2a6	0.8400425091586683
50	0x40029cd63166955d	2.3265804156714425
51	0x4001b3cf718e45b1	2.2127980109732666
52	0x40008b0c21aa05ec	2.067894232751078
53	0x3ff9a9068fab60c1	1.6037660228812884
54	0x4000afd2ec160236	2.085851520940447
55	0x3ff4dc2f2e4cb212	1.3037559326722925
56	0xc0026a45a60e8c3c	-2.3018906567754396
57	0xc00d2e1d3d13d56c	-3.647516705673004
58	0xc001913ad3e949a6	-2.1959129863327744
59	0xc00508c7d6240f78	-2.629287407851674
60	0xc00332bb212e9557	-2.39977098391925
61	0xc0080a1d02919165	-3.0049381447480976
62	0xc007cb1b9d1e50a9	-2.9741737627865246
63	0xc0097bdc7987ecf9	-3.1854791159254288
64	0xbfd1d489477570ba	-0.2785971830214852
65	0xbff083da3300258a	-1.0321905128679156
66	0x3fa38ed89839c530	0.038199204046473034
67	0xbfd47a7da3ca2ae1	-0.3199762439259484
68	0x3f518fb24bb812e9	0.0010718575639440625
69	0xbfde418de9c08720	-0.4727511198744754
70	0xbfd86785afdb6767	-0.38131849454440786
71	0xbfe7e35ec31bc1e7	-0.7465051470481371
72	0x3ffb213459b1df98	1.6956065658286885
73	0x3ff09bab1c065b3a	1.038004979583731
74	0x3ffa74125d7ec4cf	1.6533378269344217
75	0x3ffa7c7bf8ca297b	1.6553916662547568
76	0x3ff840c3992eadd4	1.515811537140384
77	0x3ff6c1e0e22ac7aa	1.4223336062100125
78	0x3ffb1b09c7591071	1.694101122572672
79	0x3ff360dc0084da89	1.2111473102828845
80	0xbfb4672b20ad1887	-0.07969922588117316
81	0x3fd67c7ae4f4c8e4	0.35134765967371906
82	0xbfe32bd0cd9d6cd5	-0.5990985885540804
83	0x3f796571a58a0ea9	0.006200260097674417
84	0xbfd1b6ff20ab45fe	-0.2767942256005823
85	0xbfb005fd89fc992e	-0.06259140604797572
86	0x3fbf5d8e9dc2ef29	0.1225213179740733
87	0xbf9b12e81ecac0c7	-0.026439310912508753
88	0x3f9c36e709f438f8	0.027553186399978252
89	0x3fc332e82a11ed82	0.14999105505181026
90	0xbfc253e1b91938f3	-0.14318486726774146
91	0xbf99ff4af8c3b5e8	-0.025387927468662058
92	0xbfe895e2caa66b5f	-0.7682966192254347
93	0x3fbf87f6a987d062	0.12316838873795313
94	0x3f8f4824b84ec0ca	0.015274321436521982
95	0x3fcc15825527f793	0.21940640600217573
96	0xbfc63e3a6e87050d	-0.173774055450885
97	0x3fd66d6efa02b426	0.35042929091543085
98	0xbfdf5473f899945d	-0.4895296027883143
99	0xbfc78d322efa2245	-0.1839964608555126
100	0xbfd2f41c40dd779f	-0.29614931425555285
101	0x3fc450d62acca98d	0.1587169369680165
102	0xbfa153ca0caaebd5	-0.0338423862899259
103	0x3fd6ba26526d4688	0.355111675734499
104	0xbfe304de97c4bdf6	-0.5943444217900253
105	0xbff115656337f27a	-1.0677236438488351
106	0xbfd2445c2b4337f6	-0.2854223654256879
107	0xbfe358227425a084	-0.6045086163039888
108	0x3fe14e238f1f44cd	0.5407884402613036
109	0xbfe972d98fbb5ac9	-0.7952697570097708
110	0xbfe6d925598bbd38	-0.7140070675795078
111	0xbfed1542c39888c0	-0.9088453121405777
112	0x3fcaeba2cebdfcbb	0.21031603903609217
113	0xbfd64d8ab1f468ad	-0.3484827745284161
114	0x3fd75468ceda91ee	0.3645269413048301
115	0x3fca8b31be20bf19	0.20737287314977307
116	0x3fec97a820ccfd09	0.89351278692621
117	0x3f9a363d3d9c8a36	0.02559753120943694
118	0x3fc54941faea733a	0.16629814864872988
119	0xbfc3787108c190e0	-0.1521130841021039
120	0x3ff091bc9956d4a5	1.0355802526294522
121	0x3ff80135d0ab876e	1.5002954627202274
122	0x3fde8f5d0e023d09	0.4775002133182658
123	0x3ff1d06176d2508f	1.113374199053428
124	0x3ff003f241f6304c	1.0009634567859562
125	0x3ff41d177b496cc3	1.2571024719134563
126	0x3ff3f9001e26ef89	1.2482911279502977
127	0x3ff5a748d1bc6e61	1.353340930253488
128	0x40015d1ddda5af9a	2.170467120760759
129	0x3ff30658ea05be2e	1.1890496388913436
130	0x4005fc9099e45081	2.748322679786782
131	0x40010433aaa4e2fd	2.1270516711778087
132	0x4001069a47aa7fb4	2.128223953142845
133	0x3ffbf652d0497010	1.7476375709729872
134	0x4000dddbbe72873e	2.1083292845441113
135	0x3ff8af3ed24fba8f	1.5427845206537858
136	0xc0045e4e9aa4e265	-2.5460483628815376
137	0xc00b756ca8aaf94e	-3.432336156575878
138	0xc00054a313e0c96d	-2.0413266709303373
139	0xc005a1c08d04ab89	-2.7039805428552808
140	0xc00411ca1b6a7070	-2.508686269937293
141	0xc0079b2e496e012c	-2.9507718788810475
142	0xc00803e0e1bc2faf	-3.0018937717013254
143	0xc008b0435be58047	-3.0860659770405934
144	0xbfd535b673042be0	-0.331403362579918
145	0xbff0e3a6ec684492	-1.0555791124973308
146	0xbf548e19cf0a6931	-0.0012545825995063482
147	0xbfd6fae613634258	-0.359063643391925
148	0x3fabe31a1c966fda	0.05446702574701563
149	0xbfe3bcdd8c4b2863	-0.6168048610791285
150	0xbfe088193c177168	-0.5166135953582343
151	0xbfea0d0c4451be4c	-0.8140927633630297
152	0x3ff6910eb9ffe71d	1.4104144349680106
153	0x3ff00405abae69c6	1.0009819704342688
154	0x3ff93807bd42aef3	1.5761792557704524
155	0x3ff729397d3b5f61	1.4475645915863071
156	0x3ff7a9ba40a186f4	1.4789373898169602
157	0x3ff414cfbc47f63d	1.2550809244852552
158	0x3ff71af7df892fba	1.4440840465422142
159	0x3ff1e9f9348850d1	1.119622426228535
160	0xbfd2345f3a6ec804	-0.28444653230974404
161	0x3fdfecab6d4eaa37	0.49882016825236825
162	0xbfd7f3789abcf30b	-0.37423529730931254
163	0xbfadd3c0f9c31792	-0.058256178368124925
164	0xbfcda071d710ee63	-0.23145888329769368
165	0x3fc52a86c0a65033	0.16536030203553906
166	0x3fbea674ccbd98e1	0.11972742079305788
167	0x3fba9c6401aab777	0.10394883194632408
168	0x3fbfcd0db6ffd94d	0.12422261922606488
169	0x3fb6bed5e232a8a3	0.08884941837701148
170	0xbfcf0f5d1428ae17	-0.24265635952302553
171	0x3fa227b3e6e342f9	0.035459157881296784
172	0xbfe8215da6f3dabc	-0.7540729771415822
173	0x3f934946e85c1c67	0.01883421700679513
174	0x3f92c30ee9147027	0.018322213150085667
175	0x3fc33cf1cc2afda9	0.15029737919938427
176	0xbfbdfdd17ef3e998	-0.11715421056206876
177	0x3fd64167ba2e4ef9	0.34774201566436563
178	0xbfe02cdc2f844903	-0.5054760864316282
179	0xbfbd327f9cd0004e	-0.11405179575376787
180	0xbfd387f87d747808	-0.3051739907404003
181	0x3fadd22af4ee4062	0.058244078062785545
182	0xbfa6c03f738c60c2	-0.04443548474790894
183	0x3fd60f963ae791d4	0.34470134498977
184	0xbfe465ee1e05035c	-0.6374426447219821
185	0xbff06f249268bea3	-1.0271344870670098
186	0xbfbae741e41d4118	-0.10509120768734126
187	0xbfe3b76918c3d450	-0.6161389812174409
188	0x3fe18a997c78c502	0.5481688910569178
189	0xbfe43761595b078e	-0.6317602868295908
190	0xbfe4ae5619018294	-0.6462812889477214
191	0xbfe9c290dfd496ca	-0.8050007220924382
192	0x3fb91f45d86b44dc	0.0981334355704066
193	0xbfd54c6f8481ec12	-0.33279025974451415
194	0x3fdb8174ffe1dff0	0.4297764300204099
195	0x3fbd177aa8a933c1	0.1136395131845367
196	0x3fecb148cfa0f982	0.8966411643266812
197	0x3fb7e5ba56bd9c75	0.09334911935512642
198	0x3fc083c3e22b3bf1	0.1290211538639308
199	0xbfbe1930973d34eb	-0.11757186596260609
200	0x3fe9c551ab0e4182	0.8053367939883602
201	0x3ff4d04e7eaf4c96	1.3008561085341959
202	0x3fd57b2f215bee00	0.335643560960051
203	0x3fedbc850b561a33	0.9292626592076146
204	0x3feb29592df391b1	0.8487974069108103
205	0x3ff12f04a9df4bd5	1.0739790568957137
206	0x3ff0c90165ca6576	1.0490735984988908
207	0x3ff27c72042fd9b9	1.1553821719695476
208	0x40023a6fe43c2e49	2.27853372868211
209	0x3ff28de62c502805	1.1596433382969746
210	0x400532a10236f49a	2.649721162130459
211	0x4000e285ef3943a6	2.110607022223536
212	0x400101179afc0afb	2.1255333049933802
213	0x3ffd27243bc729f3	1.822056039340734
214	0x400120b6ac220e86	2.140973419942216
215	0x3ff8ad8e976aa400	1.54237231394859
216	0xc003724453e7bc80	-2.4307943873496356
217	0xc00c15a6c5aed50f	-3.510571998975713
218	0xc000b355de6e7739	-2.087566125627657
219	0xc0056c3bba1acbad	-2.677848295157182
220	0xc003b14d4993f337	-2.4615731952930235
221	0xc0074d56770cd591	-2.9127625752250386
222	0xc007a8d3e3483feb	-2.9574353939460614
223	0xc008e6b105e720b1	-3.112642332187612
224	0xbfd164c3779d4b58	-0.27177511864754456
225	0xbff0ac816659af1b	-1.042115592771501
226	0xbfb7263a4533dc13	-0.09042705716625248
227	0xbfd4a0ee191a7a59	-0.32232239200121665
228	0x3f8162152514a0ad	0.008487858957394978
229	0xbfdc7d9fcb31b916	-0.445167492324701
230	0xbfda494ec6727ab4	-0.410724347873763
231	0xbfe6c15de2470385	-0.7111043376427096
232	0x3ff7766f5127bd24	1.4664147539259114
233	0x3fee0bb78eb7a878	0.9389303004693508
234	0x3ffa32f662c50d73	1.637442003077777
235	0x3ff73623fdc2a6d2	1.450717917682074
236	0x3ff720efe62f21a8	1.445541285664243
237	0x3ff602f0b7d136cc	1.3757178478585272
238	0x3ff7de21f0a30616	1.4917315864444212
239	0x3ff24abef614acb2	1.1432485210923855
240	0xbfb07c37e7a06a32	-0.06439542202898776
241	0x3fdd4b207bb22077	0.4577103813139795
242	0xbfe224469c4390f8	-0.5669282009153269
243	0x3f86138c43d86426	0.01077947217986448
244	0xbfc66e5600b21819	-0.1752421859166027
245	0xbfaa505677230547	-0.05139417843157417
246	0x3fbbf0b060ba1753	0.10914137231347114
247	0xbfbd27d79a70d96e	-0.1138891937306192
248	0x3faea5ddf28993a2	0.05985921464597445
249	0x3fb068373200125b	0.06409020395956004
250	0xbfc95edeac691b3d	-0.19820769709095912
251	0x3f912d93b1d1a0ed	0.01677542469806863
252	0xbfe8f486312c8197	-0.7798491440226368
253	0x3fc3ce3ae011ae57	0.15473113957283388
254	0x3fb4c84a1bf31a71	0.08118117506374191
255	0x3fced79ceacb44a3	0.2409549852805287

arr_1 f8 [10, 8, 5]
0	0x3fe68683f317484c	0.7039203403348977
1	0x3fe2031d62990872	0.5628802228677741
2	0xbfafb651496caf34	-0.061937847340543334
3	0xbfb26d53c844791c	-0.0719807018217335
4	0xbfd6d69aba613063	-0.3568484134782521
5	0xbfd1745fb94499a2	-0.27272790043425676
6	0x3ffa22c98fcafd3f	1.6334930054579926
7	0xbfd9804cab13d523	-0.39845577914032243
8	0xbfda6871da2960fe	-0.4126248007282952
9	0xbfe926261fb9663a	-0.785906850777969
10	0x3fdb6b4678fde1d9	0.4284225637016142
11	0x3fdb5f183c560160	0.42767911808188863
12	0x3fda1176c21e2a58	0.40731591183490456
13	0x3fd9e081d974e91b	0.40432783351902096
14	0x3fdd97e6f2440556	0.4623963704944648
15	0x3fd9ce2e3b2e9a40	0.4032092645597096
16	0x3fe4cba861123d84	0.6498605628893732
17	0x3f98feb082fae5cd	0.02440906333388231
18	0xbf926b58409c9680	-0.017987612670501196
19	0xbfda5baece38dfdf	-0.41184587611087226
20	0x3fddcc375d046a13	0.46558937152590935
21	0x3fcff324eabfee5b	0.24960767233266065
22	0x3fdcd64dbceaa68b	0.4505800576103886
23	0x3fdfd4b675eb790a	0.4973579551277828
24	0x3fea467e38cb9a17	0.8211051091464608
25	0xbfb226c7e9c84b49	-0.07090424974039168
26	0x3ff012abf22c8bbf	1.0045585117265856
27	0xbfb100a9399b088a	-0.06641633659731574
28	0xbf98531fd58dfdc4	-0.023754594239560736
29	0xbfdc1740f6d22349	-0.43891929725264284
30	0x3fbee6eb70bf8e4e	0.12071105482714836
31	0x3feff2fc791d235c	0.998411404180938
32	0x3f5455137a9bd4e3	0.001240986845400465
33	0xbfa3b0654fdd77c6	-0.038455167769583506
34	0xbfde867274fd24e6	-0.47695599960986923
35	0xbfae3412f9941925	-0.05899104401219039
36	0x3ff4181827aac78a	1.2558824109550835
37	0xbfc9bec2c78e7635	-0.20113405937165543
38	0xbfcbf993ec24d5ba	-0.218554010681755
39	0xbfe5b004c5cb9511	-0.6777366507709833
40	0x3fd2daeeb1b62c76	0.29461257319116585
41	0x3fe29c1c1f470786	0.5815563784492361
42	0x3fa095f9471d6e47	0.0323942088423022
43	0x3f96706b4305cbd2	0.02191321941922892
44	0xbfd08368b0ada6d3	-0.25802056554549074
45	0xbfb1d23b59d71d27	-0.06961413329473896
46	0x3ff8d1ac3bc6a124	1.5511896452899885
47	0xbfdd7558e2ce383d	-0.46028730534533563
48	0xbfde4b2f593a52de	-0.4733389254918573
49	0xbff0076d521c13e3	-1.0018132407578768
50	0x3fed9fb3fe49e80b	0.9257450071884262
51	0xbfb76c7cf8a785a4	-0.09149914808906218
52	0x3fd31aac123d641a	0.29850293904525105
53	0x3fd296ae8ca95d02	0.29044688927156426
54	0x3fcba47e8c858e8a	0.215957468618502
55	0x3fc68e425273f63e	0.17621640230201935
56	0x3fe6d6a9a79d9c89	0.7137039445632506
57	0x3faf8fc395da5dea	0.06164370731601905
58	0x3f94c6903513ff94	0.02028870891535879
59	0xbfd5a9fe76f7f226	-0.3385006105234275
60	0x3fd3b91774339dab	0.3081720957547655
61	0x3fe2d051f0939f0b	0.5879296969187363
62	0x3fdd12fe5a891816	0.4542842754493689
63	0x3fe0549f82b27896	0.5103299668005714
64	0x3feaee1b3a62585c	0.8415657177272453
65	0xbfa5fe0191d51cab	-0.04295353799039366
66	0x3fee1e460fe9fd78	0.9411955176182536
67	0xbfb8820648c79572	-0.09573401715132038
68	0xbfa7f07562dc5bff	-0.046756428068128734
69	0xbfd8e36822a10d4d	-0.3888798082518477
70	0x3fa04b3c9745ace9	0.031824010339585325
71	0x3fed5d3b6acc9b92	0.9176308713839367
72	0x3f5acb61a5f21962	0.001635403976054294
73	0xbfa08fc2fe817363	-0.03234681469687108
74	0xbfd8aba63825efb7	-0.3854766414949568
75	0xbfc3c697e4c9d9c1	-0.15449808760940978
76	0x3ff38410e7772d54	1.219742683565376
77	0xbfcce4bec6b7d82f	-0.22573075011286067
78	0xbfce738c1a2c8d33	-0.2379012229731444
79	0xbfe2cf205aff24e0	-0.5877839829710432
80	0x3fdee50b70330ded	0.4827297778794833
81	0x3fe05b15f6936e78	0.5111188713012345
82	0xbfa156018ec4d09a	-0.03385929935248662
83	0xbfa58da2d6f5f917	-0.0420962226298675
84	0xbfd19785b899cd8c	-0.274873190187656
85	0x3f9f5e71d72653c5	0.030633715397545353
86	0x3ff7dd02a8d34ddf	1.4914576143972835
87	0xbfdaf62638067503	-0.42127376052106075
88	0xbfdbb01329c7b34d	-0.4326217563637343
89	0xbfecbce251931b53	-0.8980571358923534
90	0x3fea7116fd3b8623	0.8263049074122971
91	0xbfb838aee3c99556	-0.09461491643158601
92	0x3fd677dc6a4b53a8	0.3510657346753825
93	0x3fd67a889e857cc3	0.35122886162384875
94	0x3fd22a842ba42041	0.283844988458899
95	0x3fcd2b99f3ed5e28	0.2278931084681386
96	0x3fe5fc84e69c5d94	0.6870750908009762
97	0x3fa5921b62b7d15c	0.04213033275655917
98	0x3f62e0f50570076e	0.002304533536062906
99	0xbfd3711e46f368e7	-0.30377919129172287
100	0x3fcdfa2f3729a70f	0.23419752305499528
101	0x3fde36dbb998a147	0.4720982849562642
102	0x3fe084436c02a8f6	0.5161454305246298
103	0x3fe22855a0782d9c	0.5674236425560824
104	0x3fecbd0ca4d209a9	0.8980773181104286
105	0xbfb14f7001404457	-0.06761837034743344
106	0x3fee80e3d730fe39	0.9532336428600906
107	0xbf98ea6e8305de9e	-0.024331785914425745
108	0x3f9769fc9f0caa0b	0.022865245063409072
109	0xbfd341cd26a581da	-0.30089119695733546
110	0x3fb52b70bc2fc0c6	0.08269409746549447
111	0x3feca69561308da1	0.895334901641423
112	0x3fa0323b170bf94e	0.03163323074658085
113	0xbf6d18c0ce13b276	-0.0035518422815726215
114	0xbfd46daf04c1e70d	-0.3191945597132964
115	0xbfc064a6c8421db7	-0.12807163980708733
116	0x3ff22590cdf95555	1.1341712995393511
117	0xbfc48888b7b758a7	-0.16041668863789946
118	0xbfc60d58ff1dce93	-0.17228233773095222
119	0xbfdd772964c40cef	-0.46039805260097827
120	0x3fd3879c4fe2ed31	0.30515201379212714
121	0x3fe35570fccaf498	0.6041798531874916
122	0x3f856e0def34533e	0.010463818418921297
123	0xbf8f5e2a4e1c93cf	-0.015316324719217093
124	0xbfd34c561ad32f67	-0.30153420085547683
125	0x3fad6377b2636ed1	0.05739950230210201
126	0x3ff6cf9d42557160	1.425687083355193
127	0xbfdd1d6bc0eb9100	-0.4549207099901338
128	0xbfdee064d3f4d21f	-0.48244591425762623
129	0xbfef65f4f05843cc	-0.9811958975061486
130	0x3fed82cc5c1e1175	0.922216586987402
131	0xbfc6f67180328472	-0.17939585456500456
132	0x3fd5b662bc28d609	0.33925693869545676
133	0x3fd47e5b2c5bcad9	0.32021216709033024
134	0x3fcfaa5f97481ca8	0.24738688360978256
135	0x3fcaaa5c39e2beb3	0.20832398249102865
136	0x3fe70c921512dbad	0.7202845012278566
137	0x3fa8a0e0f81ba31d	0.04810240772878258
138	0xbf85d4a12b3b9302	-0.010659464961869872
139	0xbfd829e6841c8f7f	-0.3775574007179258
140	0x3fcd8ba7a4722870	0.23082442788683322
141	0x3fe4178b2d0d034b	0.627873981466203
142	0x3fdf385029d449c6	0.4878120811928536
143	0x3fe16ff6fe3aaab6	0.5449175801671433
144	0x3fec1fcc262338c4	0.878881525504561
145	0xbfa6bd393ff7f91e	-0.04441241174571274
146	0x3fee8a1597ebd4b4	0.9543559996806352
147	0xbfbd036b7a5ed5a2	-0.11333343255576847
148	0xbfb3005e7e02739e	-0.07422438217549973
149	0xbfd9b0d2ac871482	-0.40141741608051273
150	0x3fac605c92744ebd	0.055422680738187215
151	0x3fedd3faee713964	0.9321264893604106
152	0xbf92ecc81b16c83d	-0.018481375363713182
153	0xbfb15f06294f60db	-0.06785620220705672
154	0xbfdb0775faa5d5fe	-0.42233037450145605
155	0xbfc01c4caec84bbe	-0.1258636334829059
156	0x3ff25405591ab292	1.145512912810919
157	0xbfc9000d7963e39f	-0.19531410624747722
158	0xbfcb3c48d614ad32	-0.21277723744547355
159	0xbfe11ddd21b31a33	-0.5348954828448939
160	0x3fdbc3e549f55b86	0.43383152220251764
161	0x3fdfd660750d6da0	0.49745952063468657
162	0xbfa1510c0cb6fa1b	-0.03382146506509206
163	0xbfa3c1728aa5a24e	-0.03858526174991948
164	0xbfc6e7e8e606b29e	-0.17895232421632995
165	0xbf6a0c856f0dac73	-0.0031797987107232083
166	0x3ff7c257c01aa5a6	1.4849469665590305
167	0xbfd850887adf13e4	-0.37991535185966385
168	0xbfd77983214a42b4	-0.3667915177439156
169	0xbfec64ee200e9073	-0.887320578204266
170	0x3feabea746ca67d1	0.8357731230382744
171	0xbfba27186b3f22be	-0.10215904825521258
172	0x3fce8f70620d15bc	0.23875241077091214
173	0x3fce86083237aa6b	0.23846533252738608
174	0x3fcb66607c48ef77	0.21406179493521524
175	0x3fc8f385f25c29b1	0.19493173917756004
176	0x3fe60535eac320c5	0.6881360612105928
177	0x3fac66bc8d101717	0.05547131750067374
178	0x3f957e21c5fa03e5	0.020988967617544225
179	0xbfc85409f5d6ffb0	-0.19006466392420185
180	0x3fd04068cbeabc5a	0.2539312354446729
181	0x3fe0e6e7aee59c28	0.5281866470294334
182	0x3fe3b5bace1d00b6	0.6159338021898495
183	0x3fe4e2dda56cc501	0.6526935797648151
184	0x3fecfcad7b39905f	0.9058444411025554
185	0xbfbd3b709c5e1f96	-0.11418823068208747
186	0x3fef460185ad360b	0.9772956477042397
187	0xbfa2aecf7600fc90	-0.03648994746662837
188	0x3f94aa429173448d	0.020180740478114734
189	0xbfcf183eb4cb6d00	-0.2429273970400132
190	0x3f94ce252d0c3af0	0.020317631601808495
191	0x3fed54d5b7020a02	0.9166058134435959
192	0x3fa5c4557038e783	0.0425135325899211
193	0x3f8f4752143b01cc	0.015272752039323566
194	0xbfcaa050ebf4a14f	-0.20801745911854616
195	0xbfc693d454625208	-0.17638639564815173
196	0x3ff2ec66e1f49ff3	1.18271530403035
197	0xbfc574821cd2a611	-0.1676180496918254
198	0xbfc50ee36d27ea57	-0.16451685743216402
199	0xbfde3f71f5d9d352	-0.4726223851096637
200	0x3fd5b77784d536a7	0.3393229291149091
201	0x3fe1c7d75786adca	0.5556446752065594
202	0xbf93991053cce908	-0.019138579478046785
203	0xbfa339e498d915c1	-0.03755106321163338
204	0xbfd24d1ec624e41c	-0.2859570441247017
205	0xbfaf893abe2041c8	-0.06159385271905965
206	0x3ff60d92af05f4ba	1.3783137165876682
207	0xbfd93fcf9ccc9905	-0.3945197135202679
208	0xbfd9e7b0dddd82ec	-0.4047662893918147
209	0xbfe829e38e302ff4	-0.7551133896936322
210	0x3febd6b888023fdd	0.8699610382482167
211	0xbfb79c7e0b93453b	-0.09223163397407046
212	0x3fd4bc4e307dc597	0.3239932511852088
213	0x3fd3b0f52f16622f	0.3076756439054717
214	0x3fc995ea8a60ea9a	0.19988757855192746
215	0x3fcb65dba333c5dd	0.21404595822200082
216	0x3fe547e13bb82afc	0.6650243917841574
217	0x3f94f3d5c1006a2f	0.02046140661705403
218	0xbf9cd2ec50c3ab22	-0.028148357800925734
219	0xbfd573acea7bf528	-0.3351852693447932
220	0x3fd5430dfbe52121	0.3322176895058125
221	0x3fdc49e0e0acb8c2	0.4420091814125834
222	0x3fe25bc2080793e5	0.5737009198024877
223	0x3fe3da5297ec6126	0.6204007117512773
224	0x3ff0fa061a120de0	1.0610409754161694
225	0xbf9c992bacf5bd76	-0.027928049499164463
226	0x3fece927053616cf	0.9034609891684456
227	0xbfb854db428e6b6b	-0.09504480719480816
228	0xbfab06820e5a1952	-0.052784027339884645
229	0xbfd6c9d66e0c27e0	-0.35606919047188335
230	0x3fae8a59a657d958	0.05964927821689753
231	0x3febf0d99db40b40	0.8731506424086106
232	0xbf9f9f645e250ebd	-0.030881469961299802
233	0xbfb2717f6c1374a3	-0.07204433811735327
234	0xbfd745af544f3ac1	-0.3636282275519243
235	0xbfb0698c0946a97f	-0.06411051966157365
236	0x3ff0eb991f3a2e69	1.0575190753760586
237	0xbfc651ee0b288c52	-0.17437530083506886
238	0xbfc83a4987a4d263	-0.18927878497347014
239	0xbfe0592aa8984dae	-0.510884599005683
240	0x3fe3a67f20953f46	0.6140742908846526
241	0x3fe1ef3020e75361	0.5604477541588545
242	0xbfa582bd4b777c38	-0.0420130877134785
243	0xbfa922c2823b675d	-0.049093321225611254
244	0xbfd50bf48a37abb0	-0.32885468957709474
245	0xbfc5227616216ef0	-0.16511417465778022
246	0x3ff7c910cf055e39	1.4865882956272698
247	0xbfd84655e8fe0a2e	-0.3792929435077522
248	0xbfd94158940ba119	-0.3946134038692591
249	0xbfee5a6b4e699c7e	-0.9485374957556727
250	0x3fe1ee4844849ae6	0.5603371942750897
251	0x3fceb80af142ca14	0.2399915388137549
252	0x3fdb2ddb97675fda	0.42467393670585596
253	0x3fdae3aa7c202cae	0.4201456272282468
254	0x3fd517dc25783376	0.32958129557737637
255	0x3fd493761e01c570	0.32150032930720496

arr_2 f8 [10, 5, 1]
0	0x40017425368f89b2	2.181711603408268
1	0x40065d9d6b0697de	2.7957104073893637
2	0x400988684c94e8b9	3.1916051848357623
3	0x40094eb78854897a	3.163435998039117
4	0x400fe5a96913b8cc	3.9871395310538897
5	0x40013e7219884b91	2.1554910654753674
6	0x4006ec20b039f887	2.8652967231456077
7	0x40091d9856d4a1f4	3.139450720180543
8	0x4008ca839a7de8f4	3.098883826224773
9	0x400f67cead5b72b6	3.9256871741802923
10	0x4001dff51575003b	2.234354179032406
11	0x4007586a54017c22	2.9181715548470644
12	0x40098dd3617e87bd	3.1942508332003556
13	0x40094372dcce18b7	3.1579339266200708
14	0x400fdb15428018e4	3.9819741435377285
15	0x4002115973d480cb	2.258471398279743
16	0x40073e2655f3a788	2.9053465571386745
17	0x400929253b797697	3.145090546268715
18	0x4008fa29952f5efd	3.122149625309133
19	0x400fa1107ea7912d	3.9536447424781245
20	0x40020c53a126d185	2.2560188856097647
21	0x4006c3a0ba22146d	2.8455214063310934
22	0x4009f76a2a7e30eb	3.245807964302107
23	0x4009a6c8631a8287	3.2064368956055804
24	0x400fffeb07540f6c	3.99996000027925
25	0x4001dce7dfa44347	2.2328641387943295
26	0x4005e0f91b01987b	2.7348501310216853
27	0x40093caadc5eed09	3.1546227661580173
28	0x4008f48dc643a82a	3.1194110383412594
29	0x400f8bf915f88e8d	3.943346187255719
30	0x400212e59637dac9	2.2592269645495873
31	0x400708ebab545f98	2.8793557534335825
32	0x40097614aacfa485	3.1826566071145543
33	0x40092d25e2d1b107	3.147044918083455
34	0x400ff14f013c0304	3.9928264709891454
35	0x400175845b091df8	2.182381354537707
36	0x4005bc1d0001691c	2.716852188151405
37	0x4009bcc073412c9b	3.2171639446510887
38	0x40096e893f35dd61	3.178972715216944
39	0x401007eb7a02ad93	4.007734209454969
40	0x4001c53f74c8c839	2.221312439324745
41	0x40077577241bdb13	2.9323561497689155
42	0x400907a36d20e0b4	3.128729679647302
43	0x4008c265cda7cd65	3.0949207369646268
44	0x400f6f206c7f221b	3.9292610622690183
45	0x400187ba6f969aa6	2.1912735669933054
46	0x4007664ad13c985f	2.9249473902337253
47	0x4009a5e665efee0e	3.2060058559270663
48	0x40091aa303e2277c	3.1380062392608448
49	0x400fa1e959fbdca3	3.9540583639132634
