Weights/abalone/2/weights.npz (npz, 1748 bytes, 3 tensors)

arr_0 f8 [1, 10, 8]
0	0x3fa891b906b4e1a2	0.04798677641742023
1	0xbfa24bf203b451b4	-0.035735667183107195
2	0xbfd176daf2afc1e6	-0.27287934970720895
3	0x3fe20e281b150af6	0.5642281083058538
4	0xbfc22c7dddebd1e7	-0.1419827779387923
5	0xbfbc64b685d68940	-0.1109117581131942
6	0xbfc53b6ddc452b82	-0.16587613349323865
7	0xbfe649344530f164	-0.6964360572233486
8	0xbf4e773de8b51dea	-0.000929742077837523
9	0xbf61ff3a5e83314f	-0.0021968975089291863
10	0xbfc065dd6c411dd3	-0.12810867105348098
11	0x3f973a8e85c57c13	0.022684313692817492
12	0xbfa0478a0169c8b3	-0.03179579989672856
13	0x3fd2784442d5ee5b	0.28859049345894555
14	0xbfe5de27363c89f3	-0.6833683070474862
15	0xbfbc618f731b98c2	-0.11086365280388846
16	0xbfc9385366e3fbf7	-0.19703142665818493
17	0xbfcb3162809ab02c	-0.2124446037245219
18	0xbfd4bfa66c234f91	-0.3241973930391789
19	0x3fd37c8d7f07649d	0.30447709469951595
20	0xbfcc8cfb026818e1	-0.2230523835898515
21	0x3fe2085de271445f	0.563521330137643
22	0xbfbe6d037fd13741	-0.11885091658151926
23	0xbfd5c8b389f167cf	-0.34037483664508
24	0xbfd47e050c85f195	-0.32019163344355067
25	0xbfd5f88820b4218a	-0.343294174134393
26	0xbfcdc72c779de3d3	-0.23264079895650855
27	0xbfee7739ba363d46	-0.9520538937521585
28	0xbfcd37402bc751b4	-0.22824861657740103
29	0xbfe851a6c530135f	-0.7599672175716526
30	0x3fe1269eeeff86e4	0.5359644573147446
31	0xbfd65dc629b01350	-0.3494735152346964
32	0x3fcecc7a0e697db4	0.24061513618197028
33	0x3fc985396f5f60bc	0.19937818468202362
34	0x3fc8a517b7b51d99	0.19253822774974763
35	0xbfe091e3c7ea509f	-0.5178088097186623
36	0x3fc871448097beff	0.19095665244048374
37	0xbfccb45806960d48	-0.22425365754689097
38	0x3fe58eaac9280869	0.6736654213748469
39	0x3fc43b55b6a4f19f	0.1580607549493722
40	0x3ff236cf09ed89cd	1.1383810413177458
41	0x3ff0e40952a4db5b	1.0556729534416351
42	0x3fe373e5144e4de9	0.6078973194693705
43	0x3ff8a70b9798c350	1.5407825395343089
44	0x3fe803ab7614a2c8	0.750447970033826
45	0x3ff98b039f913351	1.5964390023320514
46	0x3ff33c10297b1a2f	1.2021638508173387
47	0x3fe29497f38e8acc	0.5806388623207908
48	0x3ffee641482a1e11	1.9312146014143574
49	0x3fff4f915e3955ad	1.9569257431624962
50	0x40008d23cf8b7083	2.0689159597805555
51	0x3fef2db37aa96445	0.9743287463890132
52	0x3ffbccae38883a77	1.7374708374296952
53	0x3ff3eb2a7fb37e14	1.2449135769201165
54	0x3ffd37c7551b9878	1.8261178326152088
55	0x4004cbce9869f9f5	2.599515143140929
56	0xc00875e01e11053a	-3.057556376356527
57	0xc00676cce85d132a	-2.808008017864627
58	0xc0005ca952be7577	-2.0452448334096363
59	0xc0103fd65f1594fb	-4.062341199581392
60	0xc0023d0c9ca0d037	-2.279809211404451
61	0xc00f32a8d94ced88	-3.8997361160851973
62	0xc0029707de12237e	-2.323745474747226
63	0xc00008d0b1d781fd	-2.004304303540492
64	0xbfd7075bd2963684	-0.35982413830866045
65	0xbfd3bd31e10665c4	-0.3084225366124793
66	0xbfbc02a1d392d010	-0.10941516318672506
67	0xbff28f9be7ce3291	-1.1600607924366708
68	0xbfcac03a9e7ba6e2	-0.2089913629381988
69	0xbfede175dc57ccf4	-0.933772020680776
70	0xbfabcac6f7946759	-0.054281442377215945
71	0xbfa133a1cc3b89bf	-0.0335970460707986
72	0x3ffa28be69099c94	1.6349472144154662
73	0x3ff95ae25f52c932	1.5846885417527798
74	0x3ff7b5ed9da27e87	1.4819160611731677
75	0x3ff392a7591fdd0b	1.2233041268753506
76	0x3ff65afc8950ae05	1.3972134937165503
77	0x3ff5f1a12c5fecf9	1.3714915974986168
78	0x3ff5d0ba58b9999e	1.3634589639492343
79	0x3ffb4dab00b5297a	1.7064619090693598

arr_1 f8 [1, 8, 5]
0	0xbfb1948b0d68ee49	-0.06867283894910615
1	0xbf9d9d3999561671	-0.028920078262237362
2	0xbf9eed24edf990e0	-0.03020150854571646
3	0x3fef7b36375d9583	0.9837905007704396
4	0x3fb3bf964e02dc1f	0.07714213757104503
5	0xbfbd26f234bca79a	-0.11387552058718456
6	0xbfa0b18966e08417	-0.032604497726659236
7	0x3fc13fddbe35ab16	0.1347615412481324
8	0x3fe8703ead77242f	0.7637017620082868
9	0x3fb520569d2908f0	0.08252469384118277
10	0x3fa3be5731452d25	0.03856155849879376
11	0x3fa909f6f7d51dcc	0.04890414977358723
12	0x3fe10923374d9c35	0.5323654251232087
13	0x3fd020414a8a132c	0.25196869162782565
14	0x3fb6cd6278e31276	0.08907142115919861
15	0xbfeed717e1b1b1b4	-0.9637565048301924
16	0xbfe957536236cd8b	-0.7919098776095991
17	0x3fb857cc27a55fe6	0.09508968322677411
18	0x3ffa4d214f5cbc19	1.6438305950248433
19	0xbfe1673fdedc136a	-0.5438536980369524
20	0x3fa0939e090b0345	0.03237623081577693
21	0x3f96b28cf7091c44	0.022165491655212102
22	0x3fcbdf60c400c797	0.21775445528470236
23	0x3fe00e4a5b9f19bc	0.5017444409830243
24	0x3fb4ee04e110b584	0.08175688261754571
25	0xbfe1417d0cd33884	-0.5392441988458505
26	0xbfdb7336b9d8181e	-0.42890709065284394
27	0xbfdc48176404a3b6	-0.4419001080264552
28	0x3ff95feba32a49d9	1.5859180806770523
29	0xbfd519b85e664f53	-0.3296948358413278
30	0x3fe2a34eb5fe2c0a	0.5824349932239568
31	0x3fe151e7748c049d	0.5412480617816474
32	0x3fd0f19e66e04f72	0.2647472386026869
33	0x3fe5274224946cfe	0.6610422815751062
34	0x3fdbebc9b922d1fb	0.436266356274501
35	0x3f700fc5225a3713	0.003921289496828145
36	0x3fb1a4e0da5fe78e	0.06892209369098465
37	0x3feb2a5614f91739	0.8489180001858819
38	0x3fc762aaf8e65a7f	0.18269860413848346
39	0x3fb95439e16baaaa	0.09894143823081927

arr_2 f8 [1, 5, 1]
0	0x400b5ae6f92dc315	3.419385859211966
1	0x400ace6381a59048	3.3507757309580803
2	0x4002fb307e738da1	2.372651088620572
3	0x4008ae8d30233cf6	3.0852302323106597
4	0x40095d5d6104ce15	3.1705882625190136
