Weights/glass/1/bweights.npz (npz, 1546 bytes, 2 tensors)

arr_0 f8 [10, 1, 7]
00000000: ae08 0ef6 015c b73f da87 1866 1ea9 d03f
00000010: bad5 35c1 c87c d13f 4511 1864 a432 d63f
00000020: 5387 abd5 fdc6 d4bf 44e3 fc08 e6cb 8f3f
00000030: 9cb0 e738 93a0 3f3f 04a4 76ce 42ef ab3f
00000040: ef8c 41e6 6bd0 b03f d37a c1d3 7866 d53f
00000050: 29a2 59b3 bcaa db3f c8c7 4028 26dd bbbf
00000060: c89f 50c6 c42c bc3f 29a4 4e26 e7a9 33bf
00000070: 551d 69e4 6b11 c23f 31cb 70f8 e91d c03f
00000080: 0e8b c989 85f5 c43f d215 0bd7 f34f df3f
00000090: a7ae 4680 6d95 cbbf c971 89e6 13ab b9bf
000000a0: 062b 15a9 79fb bd3f dfa6 c1b8 31e2 92bf
000000b0: be85 2442 6c02 c23f cbd7 f1d2 d5cc d33f
000000c0: 025e 0f0e 5ef9 d43f d87c 164d 6b96 b6bf
000000d0: 7dcb eda6 2baf be3f 1096 4e06 aa1b 9c3f
000000e0: d71a 9e85 f303 b03f 615b 2884 91e8 963f
000000f0: 5f8f a726 914d d23f a553 ea38 c766 da3f
00000100: ccaf 4140 54d1 d5bf 6f63 c2a3 c093 a6bf
00000110: 2b62 dccc dc76 c7bf 43be 55e2 e5d2 c53f
00000120: 3e48 2604 df2a b6bf c41e 43a8 90dc de3f
00000130: 5b5e f878 e7e9 db3f 4838 74b4 39ca d1bf
00000140: aa7a b795 c4a3 a5bf cd7b d5ee bc26 77bf
00000150: 9a3d ffd9 a487 b03f 1f2a e433 cb86 c03f
00000160: 56a5 c9bc dd02 d63f 8675 472e 539d db3f
00000170: 3c3f 4983 c432 c4bf a385 3154 217f aabf
00000180: 88ca 6d3f 55aa a43f 339a 916d 2b57 a13f
00000190: 8ec8 d9c9 ee55 b63f 0f98 74c8 d824 cf3f
000001a0: a28b bcb5 56e9 d93f e51d 55ad 19e9 a0bf
000001b0: fd0c 1a9c 4f4f ae3f 22af 23ff 58f4 853f
000001c0: ff36 044d d34d b5bf 91e8 67dc c9d7 c03f
000001d0: 83cf 2958 8d26 cc3f 3429 4ccf e637 dd3f
000001e0: 2bb7 1e73 7d12 cabf 6c9e d646 4b14 6cbf
000001f0: 0e02 5d2a 8082 a0bf 7307 f02b 9bd2 b93f
00000200: 67c7 3253 a737 bf3f 39ca 721d 459f e63f
00000210: c264 a5e9 662a d63f 4ec1 7757 55d1 d3bf
00000220: 6afb b5b9 7e69 b1bf b34c 49ad 23ad b63f
0.09124767548749688 0.2603221890477677 0.2732412230319273 0.346840951679287 -0.32464547983373854 0.015525624417578883 0.0004825934819610107 0.05455979128175417
0.06568025943265686 0.3343793933799308 0.4322959662881965 -0.10884321673145714 0.11005811540292065 -0.0003000439958734136 0.14115666058408274 0.12591290121926016
0.16374272563833653 0.4892549133331531 -0.21549767268640105 -0.10026668909399129 0.11711845758433634 -0.018440987493170687 0.14069894055960036 0.3093771514899088
0.3277201783471072 -0.08823271400477795 0.11986038995182287 0.027449280390689224 0.06256029140613904 0.022371553126585456 0.28598431372505745 0.4125230842412811
-0.34090143466050615 -0.04409601210608726 -0.18331489565822898 0.17049859572897405 -0.08659166194254994 0.48221222335676495 0.43615137876029103 -0.27796785948237757
-0.04226507499310135 -0.00565217782909051 0.06456976244157034 0.12911357911828333 0.3439249366407088 0.43147735137412047 -0.15779930506186612 -0.051751176383514584
0.04036203765180796 0.03386817657956378 0.08724872997280128 0.24331197536338364 0.40486686465936306 -0.03302841416239825 0.059198844724074086 0.01071996239303236
-0.08321877126965303 0.1315853429985663 0.21992651753282297 0.4565369629277882 -0.20368927117436306 -0.003427645706967122 -0.032245640918066795 0.10086984465308806
0.12194295674524157 0.706942136303332 0.3463380128574266 -0.3096516946962041 -0.06801597627598502 0.0885793970167466

arr_1 f8 [10, 1, 6]
00000000: 72fb e8cc 95e0 c9bf 9bad 21c9 8945 0240
00000010: 449b 0343 a195 e8bf 482c 30b7 e7fb e9bf
00000020: 5a40 ae31 fa13 e0bf 2cbb 7ea9 5f0a 923f
00000030: 02b5 5ca7 2baa dfbf 61f0 697c a733 0440
00000040: 9ff8 41c6 3f22 e9bf a5a5 eae9 dc3f e5bf
00000050: d6a4 c1c5 40a4 e2bf 8394 6855 dbb4 923f
00000060: cedb 1d32 884b 553f a591 d77f f409 ff3f
00000070: 9cdc fe55 cb48 f1bf e70b 1587 1658 e4bf
00000080: e9fe 50f6 4c73 cfbf d584 53f9 320c a33f
00000090: f7a5 26e7 8d42 ddbf d609 548c 4580 0240
000000a0: ae68 6e2e 49bb e6bf cbfb ceb8 f831 efbf
000000b0: f322 906b 653e d1bf 4641 f80f b7ab bd3f
000000c0: da56 3d68 042e dabf 3cab cfb2 5238 0440
000000d0: fa46 3897 e9dc edbf dcb9 826a ce7a e8bf
000000e0: ed35 dd93 9ee0 d8bf cfc3 ff2f f25b 8ebf
000000f0: 051e bdb6 5bc9 d6bf 2e15 2993 6d33 0340
00000100: 393d 31b8 5c21 ecbf e088 6c91 b539 e8bf
00000110: d0e7 e55e 22ef debf c2cf 0a54 6493 b73f
00000120: 4939 6e86 eb9a c4bf 6a8b 96b9 2913 0640
00000130: 6942 fcb8 4b8f f2bf 04c3 4a7f 0885 ebbf
00000140: 9aed d21e e86a e3bf f8cc dfe0 d816 a73f
00000150: 082a 6e99 f5da d8bf bb88 2635 09cb 0540
00000160: ca3a ae08 b2bd edbf 9b0a 90ad b052 edbf
00000170: beb1 8556 8b77 d7bf e24c 5c1d 814d bbbf
00000180: 0cf9 ab80 f0c9 e3bf 4854 f4a3 930b 0640
00000190: eb02 f9c1 5470 e4bf 1472 fc09 58e2 e6bf
000001a0: c8fe b143 3418 ca3f 8dfb 65d1 ec0e efbf
000001b0: 0926 f64a a9f4 d3bf e90d 2b3a cad9 0240
000001c0: 3f4f 77dd e2e2 f0bf 35db 2589 ecd2 f4bf
000001d0: 353d 4ccc d22e c9bf e3a4 d2bf 50d3 e03f
-0.20216629510283785 2.2839542115595584 -0.7682653721684365 -0.8120001390356117 -0.5024386377645087 0.017617697448879685 -0.49476138442953765 2.525221797926904
-0.7854308006497098 -0.6640457695659064 -0.5825504171781641 0.018268038833543897 0.0012997465168760216 1.9399304384070117 -1.0802720412446325 -0.635752929527709
-0.24570619609038793 0.03720244687588951 -0.45718715260826975 2.3126326525827876 -0.7103620440350562 -0.9748500451604455 -0.26943336013987035 0.11590141429792764
-0.4090586679425151 2.527501484835197 -0.9332168534767498 -0.7649910049711326 -0.38870968284467616 -0.014823810663047525 -0.3560399326856614 2.400111341181989
-0.8790725324160241 -0.757044586211375 -0.48334559695615287 0.09209277202427216 -0.1609777838134028 2.75935692778278 -1.159984324073003 -0.8599894033596631
-0.6068001367597617 0.04509618516012809 -0.38836421950750877 2.724138655889957 -0.9294061822455089 -0.9163440122504939 -0.3666714043563636 -0.10665137259302385
-0.6184008134003149 2.755652695554577 -0.6387122906235992 -0.7151298708955118 0.20386365228113434 -0.9705719079791933 -0.311807940678222 2.356342749060549
-1.0553921366708463 -1.301495109304324 -0.19674143767813637 0.5257953402080172
