Weights/glass/1/weights.npz (npz, 8906 bytes, 2 tensors)

arr_0 f8 [10, 9, 7]
0	0x3fd4908bca471f9e	0.321322391068401
1	0xbfddc98eb110d7a6	-0.46542708674985034
2	0xbfc099c6ebac87bf	-0.12969290263668928
3	0xbfe13db20bed3c51	-0.538781188291873
4	0xbff090c4ca0019d0	-1.0353439226761232
5	0x3fd959adc8809b0e	0.39609856205281424
6	0xbfe78c3b7f6cd442	-0.7358682144901041
7	0xbfb89887c8ff4b22	-0.09607742936286148
8	0xbffb0d747d4e19f4	-1.690784921143515
9	0xbfefb86cfe89ac9c	-0.9912629100266659
10	0xc00120688c226b58	-2.14082440834083
11	0xbfad7f32aeb5e4da	-0.057611068560569925
12	0xbf90688840c7ad73	-0.016023758844239077
13	0x3ff9d4d17c843295	1.614457594291854
14	0x3fe195a57cec0f04	0.5495173873791548
15	0x3fed7a9165116c04	0.9212119077668608
16	0x3fd3417f76fdb7a5	0.3008726751348781
17	0x3fe232f61e3167ae	0.5687208738047411
18	0x3ff9bbd0131519d7	1.6083527322203872
19	0x3ffef711fa3659db	1.9353198789518646
20	0x3ff751fb116e4b70	1.4575148278133518
21	0xbfff895a6e1fecb3	-1.9710335065599736
22	0x3fe60a0199db588c	0.6887214665428174
23	0xbffa3ffe333c134d	-1.6406232835153844
24	0x3febdb576cf085c9	0.870525086185972
25	0xc0058f686edc0a0a	-2.695023408975662
26	0xc003fef7e18304f0	-2.499496232806102
27	0xc005d1ac3c239efd	-2.7273792932863885
28	0xbfd5ef8774a3b0fd	-0.34274469748085307
29	0xbff1dbae01faed37	-1.116132743582808
30	0x3fd4c5c0657759d4	0.32456979664621355
31	0xbfe7e399d779a803	-0.7465333183765782
32	0x3fe88c7add53ca45	0.7671484301375321
33	0xbfdf1535680026c7	-0.4856694713240412
34	0x3fdb629eb2baaa4a	0.42789428190250034
35	0xbfd084b38fded059	-0.25809945154037944
36	0x3ff20aab08614269	1.1276045157757386
37	0xbfe88ed10d0c65f9	-0.7674336676456611
38	0x3fed288cd8394e61	0.9111999724504579
39	0xbfe249a14e4c2cf2	-0.5714880494355425
40	0x3fb4a2d99d13c975	0.08060989460844843
41	0xbff32d8ad0a5ccbe	-1.1986187124537504
42	0x3feca2325c9e713f	0.8947994049990838
43	0x3fdd43d2a51b9e81	0.45726457713906404
44	0x4002549ed119d4b6	2.2913185440071073
45	0x3ff210e91ca803ab	1.1291285628687813
46	0x3fd45de0ad04af0c	0.31822983642881364
47	0x3fd6289b1ae4f921	0.3462283861771472
48	0x3fdc656afc78adb9	0.4436900582829498
49	0x3fdd35e2e7008cdf	0.4564139610176436
50	0x3fbfa9cf4e2a8549	0.12368484171249351
51	0xbffb59fcde423fe8	-1.7094696695312397
52	0xbfd68beef8fb593a	-0.35229086222297534
53	0xbfd308c636ea3bbd	-0.2974105392722171
54	0x3fe6a5c785919951	0.7077367409481586
55	0xbff4529ced51e332	-1.2701691885287798
56	0x3ff0e31af71e97b4	1.055445637999111
57	0x3ffe90a56881556f	1.9103139955744515
58	0x3fe74de84df3238b	0.7282601854759475
59	0x3fe37b82a66bb72d	0.6088269472508948
60	0xbfee992e6bf7a1f3	-0.9561988934265727
61	0x3fe01ed3d2c409b8	0.5037631145972261
62	0x3fc41fc68cda1498	0.1572197139504723
63	0x3fd7ef248b500430	0.37397111515753334
64	0xbfe8f6d6ba09ea48	-0.7801316865509955
65	0xbfc02e313390b66a	-0.12640967386089424
66	0xbfda57c62dbf1705	-0.41160730807710905
67	0xbff5fae351cdd223	-1.373751945063426
68	0x3fe42bc1f4983a0d	0.6303415086020451
69	0xbfe7d48b92a18faf	-0.7446954597366949
70	0xbfd6144c2cf3085e	-0.34498886479935276
71	0xbffa0986e2335b87	-1.6273259006463563
72	0xbff67fa6e9fda5a1	-1.4061650409952124
73	0xbffe9481956995f7	-1.9112563930915465
74	0x3fe4b450a9dd1a1c	0.6470111196184152
75	0xbfc4e53542d6a1be	-0.16324487460702913
76	0x3ff51fcb7fb85f6a	1.3202624310560744
77	0x3fcffe916018a068	0.24995629493901395
78	0x3ff4908670f0c679	1.2852844630946534
79	0xbfc3f556d542a7ef	-0.1559246579466271
80	0x3fe0a15758d78cf3	0.5196949706263737
81	0x4003a4a599728a63	2.455393980796815
82	0x3ffa4baa578e26e6	1.6434729976776281
83	0x3ff6505e9a7076a9	1.3946214707170077
84	0xbffdad0c80ad0d41	-1.8547482515721898
85	0x3fec17b02a331212	0.8778916191300274
86	0xbffb83681b9112d7	-1.719581706697843
87	0x3fe68cc9a2aa4576	0.7046859910062
88	0xc003f59e6dffe8e3	-2.4949310868952224
89	0xc003fd3851e3eae3	-2.498642577903739
90	0xc003775c717167ad	-2.4332817900403456
91	0xbfd8e627f44205fb	-0.38904761174498476
92	0xbff42ce8a09660f7	-1.260964038176153
93	0x3fe9c2fcab220a2e	0.8050521223488596
94	0xbfea996b7c4ab9d8	-0.8312280109001291
95	0x3fe3b9907c75b919	0.6164019041878276
96	0xbfe80e57e627fb74	-0.7517508979070571
97	0x3fc66265eeb7f3eb	0.1748778739564892
98	0xbfc5b4c577e85265	-0.16957920412882568
99	0x3ff3771e1676f08e	1.2165814282916787
100	0xbfd8257f23659581	-0.37728861290664645
101	0x3fea84f0b6830d89	0.828728062122921
102	0xbfdb7e5641c216f9	-0.42958599492736443
103	0x3fc2e79d20fed934	0.1476932917700623
104	0xbff0b769a4b83539	-1.0447784838064094
105	0x3ff226c926422850	1.134469174811347
106	0xbf930634755ecc96	-0.01857835737582699
107	0x4002f5d685b55c2c	2.3700380750629133
108	0x3ff3435c00bab8ed	1.2039451626292774
109	0xbfd4202fed71a6eb	-0.3144645518101316
110	0x3fe6ac31ddbd8812	0.7085198717943533
111	0x3fe1e628b7c2ea47	0.5593455876435848
112	0x3fb70b12ca5648dc	0.09001271667355887
113	0x3fb21fc3166813d6	0.07079715058360078
114	0xbffcab4618a5aa5c	-1.7918148958948654
115	0xbfd893125b3db938	-0.38397654447807694
116	0xbfe616f234182753	-0.6903010385005736
117	0x3fe638038312d05c	0.6943376121548783
118	0xbff45d6218b486ba	-1.272798630241978
119	0x3ff0ea58e5d70dec	1.0572136858107752
120	0x3fffcec3453094da	1.987979192993683
121	0x3fe5cbb70402200c	0.6811175421034945
122	0x3ff1a2af9f4eb208	1.1022182677216978
123	0xbfc3bbd41f5155f5	-0.15416957406220858
124	0x3fe00f39f388e520	0.5018586880243312
125	0xbfa1c6ebec5af6ff	-0.034720776178330574
126	0xbfcb88ff2ad910d5	-0.21511830894644982
127	0xbfd16ec2b18912fe	-0.2723852857346144
128	0xbfeb12b6edce7a51	-0.846034492937017
129	0xbfab6608ea257767	-0.05351283891898966
130	0xbfea5e419730d1c8	-0.824005885404909
131	0xbfe5e3e5172d26ef	-0.6840691998160916
132	0xbfda976526c25c35	-0.4154904249675753
133	0xbfddc0241db1ab32	-0.4648523607235574
134	0xc000cf3261b9d4f4	-2.101170314296377
135	0xbf93a1b4e553eb19	-0.01917154931741569
136	0xc0011701c58cff93	-2.136233847966602
137	0xbfc11af7f8df5835	-0.13363551761602968
138	0x3fd0775d2b9ecdd5	0.25728539714620285
139	0x3ff8fe2229f84de7	1.5620443000269633
140	0x3fe0b794225c5739	0.5224095030887163
141	0x3ff28f4e09e29c31	1.1599865327969037
142	0x3fd99221a717d489	0.39954415624317413
143	0x3fcdca12bb1abe8a	0.23272928367577023
144	0x3ff54a76095e6354	1.3306789747204748
145	0x400387f6f5356eab	2.4413890034610026
146	0x3ff7ee74928b4c4d	1.4957166408901401
147	0xbff758f9344e3e58	-1.459222034758474
148	0x3fea99a45e4ca640	0.8312551347527872
149	0xbffb4a372906ba88	-1.7056190111722191
150	0x3fd9d10081fffdcc	0.4033814687281534
151	0xc00857e4352da3b0	-3.0429157404473344
152	0xc002c752bfb1f4ff	-2.3473257995780155
153	0xc004bf22343fb5a9	-2.5933269578879004
154	0xbfbd92f5534b6926	-0.11552365573462406
155	0xbff1ecc4fe08552d	-1.1203050540110084
156	0x3fcc82b0d4a5f758	0.22273836501329458
157	0xbfd11cedeb72c1b4	-0.2673907088565344
158	0x3fe150cb7888b1f5	0.5411126474551212
159	0x3f9f381e4255d637	0.03048751144293346
160	0xbfd3b67065c700e5	-0.3080101961059099
161	0xbfab5b58a67f6c1d	-0.05343129188960225
162	0x3ff3cc2073e00169	1.2373356367462185
163	0xbff02eb941c9f3da	-1.0114071435812009
164	0x3ff28b3353f6a6db	1.1589844970534873
165	0xbfd3f3a37c20c4fc	-0.31174552080035745
166	0x3fd1c5c8a35de6b3	0.27769676164426044
167	0xbfe62db36ba80bbf	-0.693078718439544
168	0x3ff3240e4741f41e	1.1963026793957918
169	0x3fd889637ea162c8	0.3833855377793438
170	0x3ffbad725b0e7e0a	1.7298453862093788
171	0x3ff29db2da3f33a2	1.163500645186311
172	0x3fe5ee8239facd90	0.6853648312011718
173	0xbfd6b39b8b83e890	-0.35471237778222875
174	0x3fe2c4f18048afdc	0.5865409379525732
175	0xbff0c09fcaf7fad5	-1.04702739033353
176	0x3f9ff442fce22d04	0.031205221829208277
177	0xc000b3d12c27aa8d	-2.087801308594243
178	0xbfd7b6c3c9c84097	-0.37053007798477594
179	0xbfcf1a8595d98f13	-0.24299688164602937
180	0xbfca9cc0a1bfdaab	-0.2079087056915417
181	0xbff55b77269d078c	-1.3348304279647634
182	0x3fee3157ebd8c0d8	0.9435233694439615
183	0x3ff799b8d39d77a2	1.4750297800269228
184	0x3feb6c01ad92885d	0.8569343938909345
185	0x3fe954c15d59b83e	0.7915961097003288
186	0xbfeec27858d5e9bd	-0.9612390265531797
187	0x3fb7ee8ecd22469b	0.09348385341788872
188	0x3fdc83a2233fc9b2	0.4455342621069135
189	0x3fd90a757449c45a	0.3912633548380363
190	0xbfd6fed3d88cfc4f	-0.3593034376862691
191	0x3fc36bae297966d8	0.15172364258869808
192	0xbfb38be706e4afe0	-0.0763534919576041
193	0xbff67c6ed91d3f9a	-1.4053791504884203
194	0x3fe0611eaa88a185	0.5118554430710424
195	0xbfe60cde109c1df3	-0.6890707325373441
196	0xbfcfebac4a8e3551	-0.24937966957478833
197	0xc001f9d37d7fdf11	-2.2469854168556442
198	0xbff4d6976e873040	-1.3023905103209614
199	0xc0011e7d40fba946	-2.1398873402405654
200	0x3fe4dda9ecd295bb	0.6520585656586982
201	0xbfb4a8eb45927d94	-0.080702499852569
202	0x3fecc334e44afcbb	0.8988289316984245
203	0x3fc9aa119a9212dd	0.2005025868167171
204	0x3ff30dcf31dc9bc3	1.190871424457996
205	0x3fc3d88d230d2c44	0.1550461217069331
206	0x3fe2235baa6cf4d7	0.566816170561334
207	0x4002a58f44ff3916	2.3308396711719395
208	0x3ffbbb06a4b42849	1.733160632490142
209	0x3ff6ef8f3ad06a01	1.4334862039019074
210	0xbffaa0434c39d6d7	-1.6641266801429333
211	0x3fedd66ba04b021d	0.9324243670199085
212	0xbff90421cc8ac13f	-1.5635087957308114
213	0x3fee61140b8e8aeb	0.949350378581895
214	0xc0063b3baa662bba	-2.7789223968915993
215	0xc002f2942813938c	-2.368446648690627
216	0xc00621ea241b19c6	-2.766559869839713
217	0xbfef0d463fa166ec	-0.970370411184573
218	0xbfed452534ce7d8b	-0.9146905928973167
219	0x3fd76a582a7657c2	0.3658657469435377
220	0xbfec940a3219003a	-0.8930712679357449
221	0x3fe7f0458915f7f0	0.7480800321061434
222	0xbfed8b6bd25000f4	-0.9232691867510128
223	0x3fd28f52767046bc	0.28999768797175896
224	0xbfc3f24d2572289c	-0.15583195045866638
225	0x3ff26eb407f8cf7b	1.152027159824654
226	0xbfe3061804f0af1b	-0.5944938751685841
227	0x3fea28bdb4689313	0.817473270759907
228	0xbfd554f72647e29e	-0.33331087816581284
229	0x3fc721c16bce7765	0.1807176376723262
230	0xbfeb34027ae71881	-0.8500988388484673
231	0x3ff30f623879898f	1.1912557798428656
232	0x3fd3577161002ceb	0.30221209023211654
233	0x4001e4f6ae81f332	2.236798632946738
234	0x3ff10b9d477cf9c8	1.0653355400569229
235	0xbfd59e55042e9f01	-0.33778882416162054
236	0x3fe4b18c5e998079	0.6466733787201654
237	0x3fe4bfd4eccf4c5b	0.6484169602575877
238	0x3fc5549cb0448c7b	0.16664465529274594
239	0x3fbf9c367e60f380	0.12347736916940555
240	0xbff7cc23fee9cc90	-1.4873390157270343
241	0xbfd4f6d88b65c6f9	-0.32756627667468724
242	0xbfe1de6134636b36	-0.5583959601602604
243	0x3fe4fc892cb71bab	0.655827128729347
244	0xbfecdb4da211fb6e	-0.9017704167780332
245	0x3fed74ebb1f985cb	0.9205225444858852
246	0x3ffeb52d5b678da0	1.9192327089775532
247	0x3feeb5313bd46604	0.9596182030247182
248	0x3ff48453188d4ad9	1.2823058089313035
249	0xbfc3f73a8c381ce4	-0.15598232123031786
250	0x3fe10a6065ccd70c	0.5325166691097549
251	0x3f9b9746c4d756c3	0.026944261326056883
252	0x3fd85b49da974298	0.38057180735362683
253	0xbfe7d01d9ecb0177	-0.7441547490525825
254	0xbfb2c9d02dd45872	-0.07339192503818184
255	0xbfca5fa0dd69728c	-0.2060433465111554

arr_1 f8 [10, 7, 6]
0	0x3ff2f0a81c1f0662	1.1837540720447568
1	0x3ff1f8bbd216342e	1.1232259947312389
2	0x3ff17116d5c04370	1.0901096677445956
3	0xbff75ef028390211	-1.460678250427126
4	0xbfe8e18cd911e0f8	-0.7775329818387311
5	0xbfeb3841b02636ed	-0.8506172600188769
6	0x3fe213475b2303ca	0.5648533611312072
7	0x3ff4c5d70fa72840	1.2983008014148396
8	0x3fea3e4c16018a87	0.8201046399884299
9	0x3ff2b377294e6dce	1.1688148129968456
10	0xc00281ca2cbc2ee4	-2.3133738989762254
11	0xbff46872900bafbe	-1.2754998804839341
12	0x3ffa5d84939212be	1.6478315128780845
13	0x3fb27556cf5ee778	0.07210295260202126
14	0x3feca3b24d0e5800	0.8949824814797012
15	0x3fed8548ed73bed7	0.9225201261269501
16	0xbfe0db1d8a5db793	-0.526747484442
17	0xc0059345bbd6930d	-2.696910350309173
18	0x3feaade654c1e3ee	0.8337279944818172
19	0x3fe0a60ceeff5fbf	0.5202698390885344
20	0x3fd6216f2b6a30a8	0.3457906650517182
21	0x3ffd2e76f56626da	1.8238439165019629
22	0xbffb72e6da2febcf	-1.7155521891534027
23	0xbff9e502b8883a3c	-1.6184107979094184
24	0x400066614da87660	2.04999027891499
25	0xbfcf20674e09526a	-0.24317637739536063
26	0x3ff80045e1f24f6a	1.5000666452442268
27	0xbff9646f0b5bdfee	-1.5870199626642676
28	0xbfd15763ea83d738	-0.2709588804421972
29	0xbff29125f5b31cdd	-1.1604365918772637
30	0x3ffa3271b9e02822	1.6373154888883694
31	0xbfc66542c8fd8145	-0.17496523679711565
32	0x3ff80da00431f8c4	1.5033264316439707
33	0xc0000a490653cb47	-2.005022096092407
34	0xbfe8a4b575c0ec43	-0.770106058108816
35	0x3fc211f98e656c50	0.14117354824961348
36	0x3ffb4e9ed3cd4be4	1.7066944383157017
37	0x3fe5ed48763a97ba	0.6852152165563361
38	0x3ff501608036ff73	1.3128361709968572
39	0xc000dd594957be66	-2.108080456724383
40	0x3fe55dc6bcb3bb5e	0.667697304304834
41	0xc000c175cc4836c0	-2.094462963060181
42	0x3ff2f5d42cb6d335	1.1850167986533056
43	0x3ff2f5aaf75e4c63	1.184977499277715
44	0x3fed1019292ef98d	0.9082151226391929
45	0xbff151044c6d81b1	-1.0822794900378592
46	0xbfebe2096ad2ffd8	-0.8713423811350323
47	0xbff042df5fb52a84	-1.0163263071614503
48	0x3fd43d038a3907c6	0.31622398851697786
49	0x3ff94d86e7b4465d	1.5814274836488018
50	0x3fe822db199fbf29	0.7542548656910856
51	0x3ff4032472a511bd	1.250767181235559
52	0xc002305ca74e4178	-2.27361422259872
53	0xbff5da8f731726ad	-1.365859460422523
54	0x400004476704231f	2.0020893142831393
55	0x3fce059bb21e1665	0.23454614827294332
56	0x3fe3828e0a2af315	0.6096868704404154
57	0x3feaf70fc350eaa1	0.8426588835494223
58	0xbfe5454bf6d15a0c	-0.6647090740833064
59	0xc005af16e75a1fa2	-2.7104929041269807
60	0x3fe2c5c152797024	0.5866400347545135
61	0x3fe890c19651c0dd	0.7676704345631397
62	0x3fdec03b86a4b158	0.4804829420925407
63	0x3ffab29d0d5e3f95	1.668606807917944
64	0xbffb518368dd46c6	-1.7074007126106365
65	0xbff9b3872b268ebc	-1.606330078656284
66	0x40023a3d8debe213	2.2784377181635675
67	0xbfb06e8144e22f0e	-0.06418617183424777
68	0x3ff68623cb4f6013	1.4077489797400673
69	0xbfffdf82a11551e6	-1.9920679371181165
70	0xbfc09160e10dd2a0	-0.12943659771885496
71	0xbff3647a7dcfd64a	-1.2120308794523162
72	0x3ff77ed405979e7d	1.4684639185378778
73	0x3fb3d5f006f0535b	0.07748317880061732
74	0x3ff764d659545292	1.462118481581602
75	0xbffd66f635612ab7	-1.8376371464861856
76	0xbff04fa03180f91f	-1.0194398816816557
77	0x3fc72246b5f1f787	0.1807335270313468
78	0x3ff980113cc0f44a	1.5937664387886508
79	0x3fdffb290a988900	0.4997046092486386
80	0x3ff42e1c5acc5b43	1.2612575098807646
81	0xbff95d27da5708f7	-1.5852430848031511
82	0x3fdc8dc6c3fcf9b6	0.4461533464381334
83	0xc0005dac77500e63	-2.045739109163877
84	0x3ff3474828422d68	1.2049027989004006
85	0x3fe7a0ad6eb86639	0.7383639490610171
86	0x3ff1bc28d629dfcc	1.10843738229413
87	0xbfe2598952ac1a69	-0.5734297384922914
88	0xbfe986773eb56b9c	-0.7976642823008322
89	0xbff5f52415f70d87	-1.372348867226579
90	0x3fec4cbe652451fd	0.8843681312014834
91	0x3ff4ff88bc9b5dda	1.312386261697489
92	0x3fd84bbdbf903214	0.37962287623739255
93	0x3ff5e1beb189bb1e	1.3676135001257488
94	0xc002b5014383a22a	-2.3383813166185705
95	0xbff57a8281903a39	-1.3424096165723667
96	0x3ff67300018257db	1.4030761774970333
97	0x3fe8ab26eeac7d50	0.7708925878140835
98	0x3ff6144f27eb07c9	1.3799583014774603
99	0xbfc71444503e943a	-0.180305995160923
100	0xbfb49d2abfd9063e	-0.08052317794592853
101	0xc007d5a504e897c4	-2.979318655346079
102	0x3ff38d240466a8bf	1.2219581767954393
103	0x3fe848f066997e49	0.7589036945245847
104	0x3fc0c42b454e73ce	0.13098660358528352
105	0x3ff46ae8e35a4630	1.276101005645966
106	0xbffe71f399fc0cb3	-1.9028202071211069
107	0xbff4ba341a5240ea	-1.2954598453689479
108	0x40009e356046af00	2.0772502442904397
109	0xbfd6bdade18b9c5f	-0.3553271010009151
110	0x3ffb6b18d29306c1	1.7136467195090719
111	0xbffdf277dab2a848	-1.871696333206744
112	0xbfd3421d88d8fefa	-0.30091036190059095
113	0xbfef2f168c04ee17	-0.9744980559111721
114	0x3ffac6aa99645241	1.6735025398130718
115	0xbfaf2b21369a8139	-0.06087592879817056
116	0x3ff95a88f9933cf8	1.5846032856969128
117	0xc000dabfd2df4d50	-2.106811187209736
118	0xbfdcf2c1877c729b	-0.4523166487795522
119	0xbfd39bbac9b7c795	-0.30637998293888674
120	0x3ff6ea7b0dab74bc	1.432246259114705
121	0x3fe218fbe7cbc82e	0.5655498053804473
122	0x3ff9bf777ec84d70	1.6092448189200148
123	0xc002a89a2316b504	-2.3323252431206374
124	0x3fe9c98d9b1a3369	0.8058536557524408
125	0xbffe921a457dca94	-1.9106695856577618
126	0x3fee0b7e7e54e94e	0.9389030902305338
127	0x3ff2c21515174435	1.172383386980312
128	0x3ff2bd2becd6cb26	1.1711844684147734
129	0xbff429dd196363dc	-1.2602206222274992
130	0xbfe392044f534a2f	-0.6115743207286125
131	0xbff1a37da8eb0b11	-1.10241476043365
132	0x3fd6b6816c3ed80f	0.3548892552456672
133	0x3ffa72493736d386	1.6529018551638912
134	0x3fe5c97a57ef935e	0.6808444707390711
135	0x3ff6615c16e3e9a5	1.3987694639350619
136	0xc0059c5cc0f56f24	-2.701348788728767
137	0xbff1f7384b338ed3	-1.1228564202837574
138	0x3ffd01b0f0df7d9a	1.8129128846265758
139	0x3fd8da3dda480ce2	0.388320410886264
140	0x3fea9c6f51276cc4	0.8315960488356713
141	0x3fe067b1405d0348	0.5126577622505488
142	0xbfd8079de914f14b	-0.3754648948850174
143	0xc006d995ea80b8bd	-2.8562429733784414
144	0x3fe0cff838915f34	0.5253869156685824
145	0x3ff2ee79171f2a4e	1.1832209494774761
146	0x3fda57400d01eee0	0.41157532949703857
147	0x3ff93177e16f1533	1.5745772176754371
148	0xbffd8d986d3ca21f	-1.8470691935600667
149	0xbffa8741db7199ef	-1.6580217906972583
150	0x4001f49b2ae0ce80	2.2444365835052054
151	0x3fb25411da9d98e9	0.07159530246062541
152	0x3ff6527d06d91b83	1.395138766050622
153	0xc001befe9d6aa28a	-2.2182590768973727
154	0x3fb7c690fd965a72	0.09287363234612103
155	0xbff4c1d2b776952b	-1.2973200956851751
156	0x3ff7765e528e4e17	1.4663985466803575
157	0x3fcc753394b4a082	0.22232670556082118
158	0x3ff740b15515c5dd	1.4532941173205167
159	0xbffcf804ce67c6f3	-1.8105514586172233
160	0xbff09d62041d37a4	-1.0384235535343374
161	0x3fa3cd90f02d0729	0.038677720373483666
162	0x3ffb67fce1bb3061	1.7128876512170097
163	0x3fcb77cba55a37eb	0.21459336828087258
164	0x3ff50d32174531c2	1.3157215985294077
165	0xbffb1d027d67a070	-1.6945824526428872
166	0x3fdc0c07779973eb	0.43823420219069814
167	0xbffd123f0beeda4a	-1.816954657185891
168	0x3ff1447f91d76483	1.079223222439652
169	0x3fef289d941fbbee	0.973707951836216
170	0x3ff35a62311ea800	1.2095662993183396
171	0xbff26b324c073c3c	-1.1511710138181703
172	0xbfe82b33a03bbe20	-0.7552736405904774
173	0xbff0c3c119c05fc5	-1.0477915769497355
174	0x3fd0a37bf6ff904e	0.25997828598906814
175	0x3ffafddf839f1377	1.6869807378254487
176	0x3febc7a2b4fd9a56	0.8681195769284595
177	0x3ff1d5e0b7adac4a	1.1147162604272745
178	0xc0034a452c6a0a6c	-2.411264750467401
179	0xbff415d532b38cd2	-1.255330274631707
180	0x3ffd7ac4d61ae508	1.8424728740195082
181	0x3fcd933f8835d5c8	0.23105615759747722
182	0x3feae67f58676b68	0.8406368948593412
183	0x3fec6f0f4d34b6b6	0.8885571010520923
184	0xbfe820c4597d542d	-0.7539998767703132
185	0xc005e12a4621fd82	-2.734943912422467
186	0x3ff06441eb4ba0e3	1.0244769278743255
187	0x3fecbd601a9e7367	0.8981171150113426
188	0x3fb56480b07ef06a	0.08356479939442499
189	0x3ff7a712c7472c66	1.4782893928811744
190	0xbfff51f66152308c	-1.9575103570560115
191	0xbff565739a2e9725	-1.3372684500440724
192	0x40006bb746ea96f8	2.052595666917906
193	0xbf9d081561d527b0	-0.028351148697119022
194	0x3ff7316b7209136a	1.4495653585920203
195	0xbffba76ea944899a	-1.728377019121217
196	0xbfbacdbbb2e26433	-0.10470173947614185
197	0xbff5a2e1ae121e71	-1.3522660064353682
198	0x3ff500192e003c7e	1.3125240132247025
199	0x3f9b470ccec8e544	0.026638221856250213
200	0x3ff929515b30b3dd	1.572587352954762
201	0xbffdb32d50540984	-1.856244386465364
202	0xbfe4c203592e12c6	-0.6486832372471205
203	0xbfb339bf049efa6b	-0.075099886539627
204	0x3ffd11974ac25009	1.8167946739458805
205	0x3fb36014b321be5b	0.07568482755027033
206	0x3ff5b3099a0adc8c	1.3562103287966094
207	0xbffac94b3c551c84	-1.674144015954682
208	0x3fdb1c6d2653e473	0.4236100076955786
209	0xbffd40897b039a3e	-1.8282561116444778
210	0x3ff40d372dcbd9fa	1.253226450816895
211	0x3fed34ecdddd8e0c	0.9127106030759378
212	0x3ff2daa21e52f1b1	1.1783772644549624
213	0xbff40f486da452e0	-1.2537311823736488
214	0xbfe9c5ad6486dd2c	-0.8053805316366485
215	0xbfef431a880ac1e8	-0.9769413621016243
216	0x3fe05842e7b68302	0.5107740903514186
217	0x3ffb8628989214fd	1.7202535590925543
218	0x3ff2b515b658b62d	1.1692101595794029
219	0x3fe3f44137dea66a	0.6235662547307588
220	0xc001af8f9e03af2b	-2.2107231469034523
221	0xbff8cc501aaa316c	-1.5498810807794952
222	0x3ff799c395031e32	1.4750400372303258
223	0x3fe5b183da7690d9	0.677919317899547
224	0x3ff0a17a39141511	1.0394232015253844
225	0x3fe93eade792252f	0.7889012835377452
226	0xbfe832f71027163a	-0.7562213244897926
227	0xc0074a4ee30d7bf0	-2.9112832773675947
228	0x3fe805dd1e4ce25e	0.7507157890132239
229	0x3fe8154a078ace0c	0.7525987765606614
230	0x3fe1fec0109c108e	0.5623474430472173
231	0x3ff86dace54affff	1.5267762142902936
232	0xbffcbed1bb7f5f1d	-1.7965867351649145
233	0xbff9b2ebf59c5279	-1.6061820596852654
234	0x4000ae24e655ec56	2.0850313181850124
235	0xbfd133d932168b2e	-0.26878957644855717
236	0x3ff74f1704993214	1.4568090610147282
237	0xbff99bf9d41a87d2	-1.6005800519273987
238	0xbfd25230dfbc4c12	-0.28626653527425205
239	0xbff19056e0e3add2	-1.097739103769403
240	0x3ffc698656ae405d	1.775762880894056
241	0xbfcb2c2c65ac19c3	-0.21228556599107948
242	0x3ff702e601a9d87b	1.438207632539643
243	0xc0015ab8af55c435	-2.1692975709961737
244	0xbfe7cfcc8dc6ce47	-0.7441160935472418
245	0x3fcf2965491b5743	0.24345079488437635
246	0x3ffc9805a8e9c6dc	1.7871147726222523
247	0x3fcfa243d4676c06	0.24713943358696627
248	0x3ff5a12058fa8652	1.3518374896742853
249	0xbffc652a342ce22e	-1.7746984518145257
250	0x3fe032f643d9a57e	0.5062209439467293
251	0xbfff29d6a7f5a028	-1.9477144776265138
252	0x3ff0dad3916e92fa	1.0534244233069203
253	0x3ff2bac2f56b2cab	1.1705960833231
254	0x3ff2648f2e4764da	1.1495506103295186
255	0xbff22990362224cc	-1.1351472963890954
