Weights/abalone/0/weights.npz (npz, 1064 bytes, 1 tensors)

arr_0 f8 [10, 10, 1]
0	0x40013803152b9eef	2.1523496297776243
1	0x3ff2c29c278d871b	1.172512201789181
2	0x4000886d78513c28	2.0666150474348974
3	0x3ffcf26de91840a1	1.8091868500960475
4	0x4015be2ad44a6a93	5.435710255662928
5	0x4012b5ea8928ced2	4.677652495494572
6	0x400d4e0f8c1f341f	3.66311559171892
7	0xc02f2791d9fef8db	-15.577284633993647
8	0xc0032bcf8f562247	-2.396391982856844
9	0x403036cdba0661a8	16.214076639707542
10	0x4000ac604598ce9b	2.0841679990060817
11	0x3ff3160106989f2c	1.1928720719969972
12	0x4001016527425868	2.125681215965461
13	0x3ff9e717d8096043	1.618919223683421
14	0x401567d9e5036bda	5.3514171393717
15	0x40138249cf1dabfb	4.877234684167884
16	0x400ecc67fd818fa3	3.8498077206767944
17	0xc02ee8e6023b326a	-15.454879827238262
18	0xc0026db16af365fb	-2.3035610538033757
19	0x402fc98d9ef2025f	15.89365860656943
20	0x4000c53ea5ffab1b	2.096310898651962
21	0x3ff22d09cff01553	1.1359956858226112
22	0x4000b356c59a412f	2.0875678479862
23	0x3fff08411da4fedb	1.939515224264986
24	0x40159363694e9701	5.393933911725754
25	0x4012db0715259761	4.7138942054933475
26	0x400d99e0993e8b9d	3.700135419102891
27	0xc02eec2050055f6e	-15.461184025436264
28	0xc00240b8da2ad7de	-2.2816025776219098
29	0x402fdf43a143ef80	15.936062850516237
30	0x4001064c1d2c9d8c	2.1280748633614106
31	0x3ff2645b5c8d75ba	1.1495011916480125
32	0x4000dd77ca2935f3	2.1081386369539756
33	0x4001281c9f508d59	2.1445858427484095
34	0x401538352279a88e	5.304890192676011
35	0x40129843a9441fe9	4.648695606978415
36	0x400cac3be7ff7126	3.584098637087794
37	0xc02f9186f56edfb9	-15.784232778343595
38	0xbffbcd041fca30c4	-1.7375527612485238
39	0x402feb54e06eadeb	15.959631932745614
40	0x4000c5137bb80416	2.096228567651006
41	0x3ff2e25686bed558	1.180258299207102
42	0x4001075d06fcb671	2.1285954042312416
43	0x400089afff05690f	2.0672302173162573
44	0x4014780d8ffdc380	5.117239236701494
45	0x40124dcc8e517ce6	4.575975631450296
46	0x400d8aa1495d0dcb	3.6926904422304907
47	0xc02f107ce1afc91f	-15.532202770908553
48	0xc00395a365fedd07	-2.4480655640032896
49	0x40309c649e7c8b8c	16.61091032543804
50	0x40001a047ca4006d	2.012703870539602
51	0x3ff206ca0e359aaa	1.1266575388960214
52	0x4000721617064b9d	2.055706195716495
53	0x3ffc48fb034eae6d	1.7678175095742532
54	0x40158247e02ec80d	5.3772273090890055
55	0x401457a04a00aaa1	5.085572391787225
56	0x400d275a1d23bb07	3.644214847233687
57	0xc02e7e9d3e486f12	-15.247293421117806
58	0xc002e9d1f4615628	-2.36416998788879
59	0x402f8952aa0a3b68	15.768208802937536
60	0x40007914000a85f3	2.059120178528923
61	0x3ff2b4d9fe9ab857	1.1691532083018694
62	0x4000dc8703a19a25	2.1076793941204124
63	0x3fff54562b2ee968	1.9580899893613495
64	0x40153bf74ef95746	5.308560594528734
65	0x40128038066c47b2	4.625213718756571
66	0x400e0eb66ee71644	3.7571839012405537
67	0xc02f68a1c2134ac5	-15.704359116415967
68	0xc000dd36e081b972	-2.1080148257817024
69	0x40302d73bf37be07	16.177547408207854
70	0x4000d690a0697d20	2.1047680408661478
71	0x3ff1fc2a02b6a0e6	1.1240635019294642
72	0x4000dc792ea0cf1a	2.1076530115914354
73	0x40009077d88199b6	2.0705410875845827
74	0x4014d105f402b3e7	5.20412427202698
75	0x401339978c882e40	4.806242175876434
76	0x400a9d03b3ad6ead	3.3266672169973703
77	0xc02ee4b25f84ea92	-15.446673378920682
78	0xc002e672f367d814	-2.3625239387574855
79	0x403058001574e872	16.343751278917303
80	0x4000dbe846e6a046	2.1073766268855563
81	0x3ff1e34b400c956e	1.1179916860504266
82	0x40000ee6b7df4194	2.0072759976394057
83	0x4001aaffa4c203db	2.2084954139431665
84	0x40152949e6baa2cb	5.290320973531105
85	0x401291e58fd9209a	4.642477271678354
86	0x400a63abbdc057fc	3.298667414123882
87	0xc02ee447df07f8ef	-15.44586083385772
88	0xc00354766e00a344	-2.4162415117210987
89	0x403032ac14ce2e98	16.197938251817135
90	0x40008cf21e274561	2.0688211780294954
91	0x3ff1806fc71e7aeb	1.093856599625435
92	0x4000a7e4c76fe84f	2.0819793301607556
93	0x4000c35b3738f3d1	2.095388823915052
94	0x4014d7107d28f135	5.21002383768455
95	0x4012f16e84f9f042	4.735773160700832
96	0x400c636c8fb86c6f	3.5485469082028014
97	0xc02f371ace845b6f	-15.607626393944626
98	0xc00100acd8700ef8	-2.1253296765515834
99	0x40302a81ea4e5375	16.166044849512634
