Weights/glass/2/bweights.npz (npz, 2348 bytes, 3 tensors)

arr_0 f8 [10, 1, 7]
00000000: e513 87a8 7f4c df3f 3171 e64b 1235 e93f
00000010: 981f ad69 fc1a d8bf ce26 5c7b 56da f03f
00000020: 2598 ce73 152f f0bf 33af a8f4 b101 f8bf
00000030: 9e9e 7605 b23e e5bf e136 6010 1709 ebbf
00000040: 5953 0489 e821 fb3f 9574 b9c2 079e eabf
00000050: 6475 beea 366a f0bf a110 3678 ec44 f8bf
00000060: 55bf ec8a bbf8 693f a0a2 bc6f bd0c fa3f
00000070: c665 8991 8e59 ddbf 6510 cb57 316a d0bf
00000080: 4b8a 218b f71f eabf 35ec 2d31 21a1 f0bf
00000090: b387 e85d 3222 cabf 2691 b061 15eb c6bf
000000a0: 78cd 8429 8d21 01c0 d0f0 e2ea 697c e93f
000000b0: f775 b4db a9d9 0a40 1c7c 494f 3581 b93f
000000c0: a969 fc7a d5da e8bf fc10 6d20 243c edbf
000000d0: e6be d07b 5576 db3f 9dda 7246 fc07 04c0
000000e0: 7aea befd e74a e0bf 290d bdbf bff9 e1bf
000000f0: 73e0 af8b 00a2 993f 5b26 2784 9a0a fabf
00000100: 60dd a160 04e1 c8bf 105f 3f10 f60b f0bf
00000110: 8917 5d5a 245a f0bf ae7c 4fb7 616b ed3f
00000120: ff3d 3d8e 9b1f c8bf 6008 0e59 3a04 e5bf
00000130: 1bc9 04ae 8eb5 01c0 d9d4 aa4d 4d56 0ac0
00000140: bfd4 dbda 1f7f f03f 6526 5f73 52c3 d7bf
00000150: 007d 0e49 b434 0840 3a98 4bc5 e575 e33f
00000160: 94eb b4b6 0cd5 e8bf cc0f 6562 c32c c8bf
00000170: 0c5c 2ca7 e2b7 d2bf a35d 7963 36d0 0240
00000180: 5db8 02ff d3ea 92bf 4cec a5dc e1a8 fa3f
00000190: 43b2 b336 be23 eb3f 9bcf 1d9a 70f6 e73f
000001a0: 8bc8 4cf3 3534 f6bf 540d e747 6a4e d5bf
000001b0: f150 4468 4c75 0540 5b79 4b5b f2f5 dd3f
000001c0: c3e4 d68d 71ef e33f e1c8 0e62 0fc2 f13f
000001d0: 9f99 10dc 23ab d83f 7f9a 5b44 8ab3 fd3f
000001e0: d73b 4fa2 6a58 d6bf 3410 d433 a8b6 dcbf
000001f0: 4044 ab63 4f39 d43f 4b1c a0ca 694f 0040
00000200: adec da91 187b f53f c42b f648 eddb eabf
00000210: 8405 7031 3b88 fdbf f1c9 77bc 3447 f4bf
00000220: 1872 500b 4c87 bcbf 4344 eecc b08a e63f
0.4890441079881483 0.7877284510064212 -0.37664709396312324 1.0533051317928996 -1.0114950679503718 -1.5004138524045174 -0.6639032465654571 -0.8448596305695127
1.6957784034941226 -0.831790809937632 -1.0259312791525526 -1.5168270774602564 0.0031703627531881975 1.6281103481980281 -0.4585911198861051 -0.25648149083668265
-0.816402217617289 -1.039338295084929 -0.204168601850197 -0.1790491797447739 -2.1413825267460957 0.796437224161787 3.3562810100981966 0.09962781129569048
-0.7767131235189498 -0.9135914452859022 0.42909752932881273 -2.5038991454888007 -0.5091438251468638 -0.5617369408504703 0.02503205158788586 -1.627588764402751
-0.19436697691319704 -1.002920211283655 -1.0220073251561834 0.9193581180842523 -0.18846458859705703 -0.6567661036826955 -2.2136510462961616 -3.2921396320112817
1.0310362385910563 -0.371296513240486 3.0257344920679543 0.6081417897628463 -0.7760070389261835 -0.18886606506759873 -0.29247347188487605 2.3516662379658597
-0.01847392314874018 1.666231023699555 0.8481131618878596 0.748832989700975 -1.3877467636016572 -0.33291108152135007 2.6822746415947383 0.46813639560231984
0.6229789514828997 1.1098779516583408 0.3854455613203757 1.8563330335834107 -0.34914651728189255 -0.44864850102772214 0.3159979317979982 2.0387760000335553
1.342552728411458 -0.8393465447455744 -1.8457595759540206 -1.2673842775371862 -0.11143946911074243 0.7044300081780722

arr_1 f8 [10, 1, 7]
00000000: ed7d f125 2363 0740 c341 495d b58e edbf
00000010: cf23 fe89 b313 ef3f 2079 b558 9e8e 0840
00000020: 353c f88f 748d 0440 6a0e 6f23 6d11 f6bf
00000030: ba2b ee8b 8ccb ec3f 360b 0a91 89fb e43f
00000040: 6602 9b5a a5c3 c8bf 3763 91a7 d353 f1bf
00000050: 22bf e3a5 7d51 e83f b3d5 4274 0a35 f6bf
00000060: 850e d177 4bf7 f1bf fd28 639a 267a f73f
00000070: d103 5786 2b75 f83f c289 01d8 1511 02c0
00000080: 8ab5 d381 b9bf d8bf 3f2a 49a0 9038 03c0
00000090: 6b18 b152 d480 d93f bc6f 5461 70b3 b93f
000000a0: d23d 09e5 c233 06c0 785a f7e6 783e ca3f
000000b0: 7fd6 e9a3 2b8a efbf 5372 ea7b ea19 e03f
000000c0: 871e d53a c261 e63f 23fb c360 e0a5 bfbf
000000d0: 6b87 a9b6 6353 c5bf da8d eef4 04fa fc3f
000000e0: ebba 55cf a363 fc3f 4c73 8a6b be76 eebf
000000f0: d252 735d 63b8 0540 cba0 0dd4 831b f33f
00000100: c778 0ac1 9d52 f83f 23b8 74ed 5442 00c0
00000110: 1cb8 1a12 e16e e13f df60 b668 08c1 04c0
00000120: 625d 7686 e73e edbf b4d8 1937 f450 02c0
00000130: 5783 f71c bdd6 0dc0 9b1c f686 5436 03c0
00000140: 50c0 68af 92e2 02c0 91c3 1118 de9c 0d40
00000150: 6a2f 4e9a 80e0 d5bf 7d75 0ef0 42a6 f63f
00000160: 1a0c 3798 4b92 e43f b306 a151 ecf0 e73f
00000170: e14e d8cf 2521 00c0 2b5a f05a 6408 f53f
00000180: 92b2 666e 2065 f3bf 6840 f6b6 d453 82bf
00000190: 0d1d 7919 13af d83f 733c ca8f 812f fbbf
000001a0: f424 d5fa 4801 f13f ec6d 0852 f002 f0bf
000001b0: 9eff 88e0 092b d63f e46b 84c2 1579 813f
000001c0: 2387 2c69 5386 0ac0 e44e 214f b96d 0dc0
000001d0: fa79 41a7 f75d 0940 45d4 5b33 fc0b e03f
000001e0: 6e03 2440 ed71 e1bf 208d cdd7 7810 f4bf
000001f0: ecae 16e6 d6d3 0bc0 5777 79c9 91b3 e23f
00000200: 6de1 598e 7e87 e73f 6f3a 933b 7d63 cabf
00000210: 63b1 d83e f563 e2bf 911d 9bf6 9481 f23f
00000220: 8d2a d868 a147 06c0 587f 82ab 5eb3 06c0
2.9234068836519698 -0.9236704656596476 0.9711549468203148 3.0696379595166405 2.5690699813490263 -1.3792544731267307 0.8998472912802449 0.6557052452847987
-0.19347063945862714 -1.082965521394909 0.7599476089507997 -1.3879494229744125 -1.1228747063004516 1.467321971011699 1.528605961575739 -2.258342444941463
-0.38670194319168927 -2.402619602425403 0.3984881217514899 0.1003942716237693 -2.775274075836685 0.20503150251052538 -0.9856165124353565 0.5031635685186963
0.6994334363052567 -0.12362482416572766 -0.16660734576276623 1.8110398833895176 1.7743261431712039 -0.9519950962454486 2.715033273775 1.1942175181703074
1.520169977251088 -2.032388548969736 0.544785056457616 -2.5942543202073547 -0.913928759214212 -2.289528303600571 -3.729852892211436 -2.4015284103257506
-2.360631342300657 3.701595485727417 -0.34182753628623763 1.4155911805349597 0.6428583119344495 0.7481595606152126 -2.0161854017149925 1.3145488312053526
-1.2121891319795037 -0.008948957284502693 0.38568570602042557 -1.699098169021252 1.0628137396000144 -1.0007174686824056 0.3463768666006163 0.008531732557960532
-3.315588781043418 -3.6785761053123327 3.1708825175148805 0.501463032064415 -0.5451570751903156 -1.2540214948465476 -3.4784372306511298 0.5844201026008972
0.735289838819012 -0.20616116913739144 -0.5747019031019075 1.156636203102469 -2.7849758330315297 -2.8375829123687417

arr_2 f8 [10, 1, 6]
00000000: 7d0e 4336 a75a a13f a2ed 7fd3 2085 1340
00000010: 4a57 c60e 8da9 fdbf 16d9 c8fb c365 e3bf
00000020: e7fa 39fb 085f febf 611b 0b53 0f6f e1bf
00000030: f1f3 eb0d 6f69 d43f 1ebd 952d 1ffa 1040
00000040: da7a 9a24 b03b ecbf 79d1 6d8a 1203 03c0
00000050: e58f 6166 723e f4bf 3878 ff7f 0504 9dbf
00000060: 6abb dab7 8e3b f33f 5301 4658 0ff5 1240
00000070: 0b5b 79aa fee5 e3bf 7838 4c96 5f9a 01c0
00000080: 2c15 d4aa ef2f f7bf ac09 0216 c58b fabf
00000090: 65cd 9a46 19b6 debf 0e2e 241f 30ca 1140
000000a0: ed91 c014 c48a edbf 635d 6219 925c e7bf
000000b0: 0691 1f38 e709 f9bf eff1 e20a 9ea2 e7bf
000000c0: 8009 bd7f 1807 f4bf 0e76 f623 c7b8 1240
000000d0: 109e 6981 ec2a febf 7813 5b18 52cb 64bf
000000e0: 8429 2332 7ee1 dabf a7b4 d682 f9c1 f1bf
000000f0: 2270 05bb 3770 e93f e083 292a 925b 0b40
00000100: 7867 3648 cfb6 dd3f 28de b721 9721 04c0
00000110: 9b51 7f72 8be2 fcbf ae21 b3de 852b d6bf
00000120: 40b1 c6b1 4d7d cc3f b8c1 3879 9aa4 1240
00000130: 401d ee3c 454d fbbf b84d 90e4 b339 eebf
00000140: e2fc a590 8659 0bc0 53e1 ad8b 7127 f33f
00000150: fbce 1dbb 75b8 d8bf 2a3e d6fd c37e 1240
00000160: dbc1 a066 aade f5bf e652 e686 7512 d4bf
00000170: 91c0 f759 c23f ffbf 94d1 ef1f 1ffb e2bf
00000180: f79d 01db 683d e3bf 5b38 1e0d fcfa 0b40
00000190: 430f 96a9 0a39 f7bf 1bce a4c7 4637 f5bf
000001a0: 8047 8920 c4da f3bf 6a06 50bb 2a20 f23f
000001b0: 0309 b368 04e3 ef3f 53f9 ba93 fa1a 1340
000001c0: 422f 994d e026 d7bf c156 0cef b452 07c0
000001d0: 680a ef7d dde9 fcbf 3dc6 1f7b 28b0 e5bf
0.03389475381257243 4.880008034403916 -1.8538942887439185 -0.6061725537936435 -1.8982019246611175 -0.5448071119252341 0.3189351688341154 4.24425955988343
-0.8822861399565582 -2.376500207401645 -1.265245819021396 -0.028335653245328468 1.202040403539025 4.739316348336007 -0.6218255357333374 -2.2003776304255176
-1.4492031739221813 -1.6591235027013722 -0.47986442465772533 4.447449194510694 -0.9231892018620421 -0.7300501342569244 -1.5649177734676996 -0.7386007511736902
-1.2517323484213136 4.680447160642428 -1.8854794554880563 -0.002538357107228991 -0.42001299759126476 -1.1098570929419027 0.7949484493979109 3.419712380783025
0.46428281833652063 -2.5164015421139716 -1.8053087685158065 -0.3464064287950589 0.2225739591643876 4.660745519723086 -1.7063648586352684 -0.9445437873968592
-3.4187136936812843 1.197129769918395 -0.3862585379895191 4.623794523431153 -1.3668617257027253 -0.31362665342139306 -1.9530662073484886 -0.5931544898763144
-0.6012462880580064 3.4975510620925383 -1.4514261841258793 -1.3259952353081477 -1.2409096976229819 1.1328532521150927 0.9964620633038809 4.776346500670416
-0.3617478139683393 -2.9153841663017777 -1.8070959967887124 -0.6777536778228704
