Weights/glass/2/weights.npz (npz, 13068 bytes, 3 tensors)

arr_0 f8 [10, 9, 7]
000000 6f 8b 30 64 58 06 f0 bf e3 44 26 64 5a a3 02 40
       -1.0015491403252914 2.32976225129879
000010 d0 8c 0e 29 db 51 03 40 2a 09 4d 34 52 f0 20 c0
       2.4149687964978526 -8.469377169040474
000020 23 46 54 af 08 b8 11 c0 70 b6 9f 42 41 d5 1a 40
       -4.429720630186725 6.708256760595404
000030 97 0d 55 e6 dd 3a 18 c0 9a 4b 37 9f 0b 22 f6 bf
       -6.057487105313519 -1.3833118647932907
000040 f5 74 b9 9c 1d 9b 22 c0 21 76 b9 91 2d 10 1f 40
       -9.30296029819372 7.765798832840603
000050 43 57 73 11 b1 32 1b c0 73 a4 66 40 dc 20 d1 3f
       -6.799503586449478 0.2676306370654579
000060 44 3c b1 40 0b 54 d8 3f 10 a7 c2 a7 65 0a ed bf
       0.38012963597879357 -0.9075191761560024
000070 45 a2 50 5c 6a 01 ed bf 66 2f 93 fb e8 2a 0b c0
       -0.9064227870013118 -3.395952191762194
000080 fb 7f bc ee 6b ba b6 3f fd e2 c7 7c c6 df 19 40
       0.08878206804774884 6.4685306069375175
000090 56 02 05 97 39 7c 1b 40 e8 3b 93 11 14 98 10 40
       6.87131343811105 4.1485140558352
0000a0 0d 7e ae 18 4c 23 21 40 fd 5b df 20 b0 fb 1c c0
       8.5689399445537 -7.245789064057132
0000b0 a7 a3 5b 50 6c f7 c6 3f d0 10 f7 76 de 63 16 c0
       0.17942575381974032 -5.597528323011105
0000c0 a7 29 9a c6 12 75 07 40 fd f5 c2 5e d9 ac 0d c0
       2.932164718227074 -3.709398975682005
0000d0 3d be ae 31 1b 8f 28 c0 66 ff 88 ca b1 eb 13 c0
       -12.279504349308917 -4.9801704069248895
0000e0 a1 f4 ba 3a 10 53 f9 3f 03 e6 e0 a5 e9 16 17 c0
       1.5827791494514616 -5.772375671245302
0000f0 61 a4 1f ef 54 b0 12 c0 94 1f 0d 57 91 4d 09 c0
       -4.672198997789651 -3.1628748703842096
000100 ea 38 56 fb 9b f9 15 c0 f5 97 23 41 09 b8 f1 3f
       -5.493759085786431 1.1074307007306718
000110 58 af 39 c4 dd e0 fa 3f 11 ad 09 ae c5 87 1e c0
       1.6798989930202506 -7.6325900262265955
000120 4a 8a e4 0c 23 6e e9 3f 4b 59 dc b4 46 93 14 c0
       0.7946944476901276 -5.143824411343597
000130 70 d0 47 b2 05 9e 05 40 cb 5e 34 7b 2e 72 be 3f
       2.702159302536579 0.11892977245258433
000140 80 a9 96 57 7c 66 0a c0 61 44 4a 90 b2 a3 d4 bf
       -3.300041851315825 -0.322491303356463
000150 0f 43 0f ea fc 6c 25 40 f5 e6 8f c0 b6 f2 24 40
       10.712867082942038 10.474050538603004
000160 ee b2 e6 ad e9 d8 10 40 ec 9b 3a 1f ef 10 fd 3f
       4.211828915792223 1.8166342944984946
000170 c3 92 7a ad 88 ae e3 bf cb d0 28 7a ec 6f 10 40
       -0.6150554073579645 4.109300526372134
000180 b1 71 e0 9d 59 73 fe bf 25 06 10 93 8b d4 0e c0
       -1.9031616370258286 -3.8537818421616685
000190 dd 6e c7 e9 14 74 fc bf 94 15 0e 64 a4 7f 04 c0
       -1.7783402568811006 -2.5623252693937477
0001a0 c1 ab a6 99 a8 8a 05 c0 5c 55 49 13 ac 7a ce bf
       -2.692704391859906 -0.23811865751000993
0001b0 6c 1f f2 a9 87 b5 10 c0 08 91 6b 1b bb a2 09 c0
       -4.1772753290205 -3.20445844099061
0001c0 f1 b5 9a c4 f4 ab 0c c0 6a e1 93 70 9b 52 0d 40
       -3.5839629516328775 3.6653355403070025
0001d0 0f b4 45 8c 8f b6 ff bf 3c 14 bd 20 e2 ea 18 40
       -1.9820704917322052 6.229378234425038
0001e0 a0 19 48 28 13 5e f9 3f 29 89 a7 d4 c3 e5 18 40
       1.5854674886228182 6.224379847264836
0001f0 ff f7 0e 92 73 a0 f9 3f b6 7b aa fc 7a 16 09 40
       1.601672716656594 3.135976766541229
000200 93 04 cb e6 46 60 03 40 9d 20 1e b1 6a 52 fe 3f
       2.422010233946432 1.8951212805423332
000210 e3 13 60 fd 11 66 1a c0 92 a1 39 4e 31 66 06 40
       -6.599678000439755 2.799898730405581
000220 fc d9 d2 23 31 18 1b 40 de bf f2 97 a5 46 af 3f
       6.77362495397983 0.06108586768948475
000230 2e 5f 48 4c b8 69 05 40 f9 29 98 06 6e 66 22 c0
       2.6766210517488593 -9.200058179926588
000240 4e bb 0c c7 eb aa d7 bf 3a 31 ef 89 4a ae 13 c0
       -0.3698071903080987 -4.920206217979564
000250 5b 1b bd 2b 5e 42 e9 3f 36 7d 3d b7 4e a0 b6 bf
       0.789351544787546 -0.08838359807622428
000260 4c 49 ee 54 d8 e7 f1 3f 9b dd a7 2f ae d3 ca bf
       1.119102794419251 -0.20958497359218317
000270 ab 7e 47 b1 fe 3c 10 c0 50 32 aa f8 ef e4 09 40
       -4.059565324772545 3.2367858340206013
000280 2f 01 5c 2c 8c 5a 29 40 c2 cf 6c 39 bc 14 03 40
       12.676850687247308 2.385124634392896
000290 8b e8 f4 8c 98 19 03 40 27 76 06 7f 25 39 0e 40
       2.3874979984512428 3.777903549561205
0002a0 54 dd 72 09 5a bf 22 c0 97 bb 0e 1c 40 2f f7 bf
       -9.373733802100709 -1.4490357490537684
0002b0 57 be f3 ea 38 64 10 c0 b8 09 26 21 da 20 04 c0
       -4.097873374106334 -2.5160410489781633
0002c0 4a cb f1 b9 cf ce 27 c0 8d 85 e4 a8 a2 7d 28 c0
       -11.903928576246148 -12.245381620307649
0002d0 95 fa 7a 97 a8 41 1e c0 47 e3 5f f0 8e 88 12 c0
       -7.564119688874276 -4.63335776887181
0002e0 2f b6 2d 74 58 71 04 c0 6e 0c 75 0e 5e 8a 11 c0
       -2.555344493527421 -4.385124421972348
0002f0 49 62 87 14 93 64 c9 bf 6c fe 76 7a 1e 10 d2 3f
       -0.19838179113755164 0.2822338291116242
000300 9e 1c 85 24 40 af f0 bf df ab 23 a3 5c cc e0 bf
       -1.0427857805787322 -0.5249465166392574
000310 07 e1 03 94 c5 87 01 c0 15 15 14 af 3e 9a 18 40
       -2.1912948192294865 6.150629745102624
000320 7b 0e 4c 62 56 83 fe 3f ed 67 42 7c b8 06 07 40
       1.9070648040514289 2.8782815654530993
000330 67 1f 39 fc 8b 70 df bf 60 40 ce 5f 78 08 fc 3f
       -0.49124431258359497 1.752067922821901
000340 d8 6d be e2 76 8f 11 40 6d b5 08 a6 a0 e6 14 40
       4.390101950524205 5.225222200662171
000350 ae c9 b2 0f bb e2 1f 40 06 22 3e b6 67 b5 c9 3f
       7.97141670731291 0.20084854506082211
000360 92 4f db a3 e5 eb 13 c0 24 a0 52 bb 69 fd f7 3f
       -4.980368194828673 1.4993684117598685
000370 be 44 39 13 f9 19 0a 40 47 28 70 9f dd d3 fb 3f
       3.262682104287335 1.7392250278521872
000380 35 26 6e ea a8 e4 01 c0 27 95 60 a0 10 cc f4 bf
       -2.236650306211937 -1.2998205437409724
000390 4a 76 a8 e7 2b 05 ec 3f 6b 09 ac ea 4c 38 e8 bf
       0.8756312870570551 -0.7568726142347207
0003a0 7d 9c fe 06 3f 14 b9 3f 68 48 30 dd 44 72 03 40
       0.09796518250242232 2.4307954101905587
0003b0 4e c7 04 f1 73 1f 21 c0 a8 3f c9 1c e3 ed 04 40
       -8.561431438287084 2.616155838863012
0003c0 22 24 82 c9 39 f9 02 40 f6 f8 62 b1 5b 57 11 40
       2.371692251476376 4.335310718217661
0003d0 0b 36 dd a5 9a cf 05 40 c4 41 7e e3 4f 7c 01 c0
       2.726369186223342 -2.185699250498347
0003e0 5c 65 7c 5a 4e 39 07 40 b0 70 59 1d 19 f6 18 40
       2.9029814786160113 6.240330179771419
0003f0 db ca e4 91 fb 1b 05 40 0f 0d 1a 86 09 f2 16 40
       2.638663425249758 5.736364455547359
000400 76 19 f5 7b 28 ef 1a 40 db ae 18 97 56 57 11 c0
       6.733552872500118 -4.335291252976925
000410 23 a4 a2 17 7c 98 1b c0 f1 a0 3a a2 d6 15 16 40
       -6.898910874654606 5.521326575115595
000420 73 41 9c 2e 7f 85 10 c0 07 b0 53 80 f6 2a 15 40
       -4.130367973601426 5.291955952747236
000430 82 4e 2e 06 42 cf 18 c0 6c 45 e0 cf 0f 63 17 40
       -6.202400299621901 5.846740005553652
000440 2f df c1 23 d8 ac 08 c0 03 38 2e 03 c7 bc 19 40
       -3.0843966287174207 6.434352922149631
000450 6e b6 48 9a 93 58 15 c0 4e 86 a4 31 96 11 f0 bf
       -5.336500559509302 -1.004293626705834
000460 09 4b 6d 65 d1 c1 0d c0 35 b6 11 1b c0 17 fd bf
       -3.719637672803746 -1.8182984406843279
000470 1f 58 f4 0c 56 bf 0d 40 ef 45 ca 2f 42 18 23 40
       3.718425847250742 9.547379964295912
000480 8a 07 ce ba c3 e0 12 40 58 8e 8a b5 39 da 09 40
       4.719496649575271 3.2315553839596696
000490 61 7e 8c 08 b7 38 1b 40 4d 89 09 c0 24 07 1a c0
       6.805385716986707 -6.506976128179599
0004a0 ed fe d0 8c 02 e0 01 c0 0d 33 37 8e 31 ad 26 c0
       -2.2343798638611276 -11.338268703687868
0004b0 f5 01 d2 c1 0e d3 00 c0 f9 85 52 9c 15 2f 1a c0
       -2.1030554907049415 -6.545980875527214
0004c0 44 ec ad 0a 41 26 22 c0 7f 7b a5 e3 55 28 1d c0
       -9.074714978915047 -7.289390141463513
0004d0 16 68 db 9b e0 c2 f7 3f b4 aa ad 23 58 10 ee 3f
       1.4850774849096573 0.9394951531260944
0004e0 b8 26 7e 94 a5 ee 13 c0 e5 20 63 91 4a 69 0b c0
       -4.983053512763654 -3.4264117582680336
0004f0 0f ad 71 1d f8 72 0a 40 49 98 8f 4b 07 83 d5 bf
       3.306137304336182 -0.3361223447703919
000500 f5 6d 3c 0a de ff fa bf 45 ea 44 19 69 24 25 c0
       -1.6874676132055104 -10.571114339506616
000510 2f 20 78 f9 34 21 0e c0 67 79 15 c9 ef 09 04 c0
       -3.7662143220695934 -2.5048518857649245
000520 56 df f5 8e fc 5e f8 bf c9 b3 b1 bb c1 55 03 c0
       -1.5231900772468712 -2.4168734229665216
000530 34 e4 85 b6 c7 75 10 c0 cc 3f 87 f5 35 e0 02 c0
       -4.115019657060703 -2.3594779188060553
000540 9e a6 07 76 71 4e 1b 40 20 f0 e5 ff 32 7a 21 40
       6.8266046945733745 8.738670346087076
000550 8b 23 c7 a5 b1 ca e7 3f d7 8c eb a6 66 41 f5 3f
       0.7434929120873773 1.3284670372311689
000560 6f 7c 39 43 df eb 00 c0 9c 0c f9 a5 9c 24 21 40
       -2.115171933357082 8.571507631923218
000570 b8 37 d2 f9 42 a0 d4 3f e0 a7 c5 4f 4c 3b e9 bf
       0.32228159329030914 -0.7884885366486252
000580 1b 93 25 c6 56 dc 11 c0 65 78 4a df a0 30 16 40
       -4.4651747665818915 5.547488678856188
000590 c4 73 f6 36 d1 11 18 c0 59 80 31 94 37 8f 1d c0
       -6.017399653236627 -7.389860454102824
0005a0 1d d9 d2 9f c1 96 fb bf 9c 09 d3 f6 a2 f2 05 c0
       -1.7243057482824675 -2.743474891963343
0005b0 e6 4c db 91 33 af f5 bf c4 19 f3 eb 2b 59 02 c0
       -1.3552737901234706 -2.2935408052028112
0005c0 d7 0e 79 ee 36 1b f7 3f 83 66 32 67 94 79 f2 3f
       1.4441441836688023 1.1546825438621517
0005d0 21 e6 6b ad d6 13 9c bf 86 73 a0 9b ea 72 1d 40
       -0.027419428191001075 7.362223083179634
0005e0 eb 56 1a 03 36 05 13 40 02 4d 95 87 90 9f d9 bf
       4.755088852388989 -0.4003640483908414
0005f0 01 63 2f 6c 4d af 15 c0 f3 35 a2 6d 5a 69 12 40
       -5.421193781273133 4.602884018922384
000600 8e d6 f5 68 f5 e3 0b c0 dd 07 b5 2a e8 a2 06 40
       -3.4863079261802516 2.829544385575885
000610 a1 cd a8 58 84 a4 e4 bf 99 13 5e d9 81 ce fc bf
       -0.6450826388958611 -1.8004168024938052
000620 54 fd 84 2e ed 5e 2a c0 af bf 52 b0 ea 03 1b c0
       -13.185403302892759 -6.753824954081138
000630 4b 52 8a 54 d0 d2 0c 40 39 d7 b2 f7 a8 9b 02 c0
       3.6029364208900794 -2.3260058738186697
000640 ba 05 9b ee 9a 21 f3 3f 91 e1 94 fb 11 8b f2 bf
       1.19570439534469 -1.1589526965527492
000650 fe d6 99 f0 bd d2 0c 40 bc 16 7a 92 79 5a d4 bf
       3.6029013440082727 -0.3180221491278237
000660 c6 67 ed e9 9f 8d 22 40 51 76 07 04 85 40 06 c0
       9.276610670309207 -2.7815037073876643
000670 85 18 bb 08 02 a4 22 40 e2 40 12 cb 31 81 11 40
       9.320328018988457 4.3761665086642285
000680 2e 02 6f 47 ed 31 12 c0 33 cf d6 15 b1 10 0d 40
       -4.548756710195944 3.633150263421976
000690 c1 8c 49 0d fe 53 f0 bf 61 ea 74 2b 06 fd 01 40
       -1.0205059546504318 2.2485469241194527
0006a0 23 c5 01 c9 87 40 1f c0 c4 37 35 86 f7 4e 12 c0
       -7.813017979367291 -4.577116105077895
0006b0 54 cf 5c 9c 17 37 24 c0 65 9c b2 2a d2 a0 15 c0
       -10.107602011041003 -5.407051722671075
0006c0 d8 72 9d 69 1e 96 1f c0 1e dd 0d 06 ee 83 07 40
       -7.896600389704609 2.939418837831581
0006d0 64 be b3 d2 06 1b 14 c0 c5 8e 2a 81 c4 55 fc 3f
       -5.026393215389906 1.77093935447276
0006e0 91 23 35 26 87 c0 d1 bf 8d f0 ab 95 04 53 c2 3f
       -0.27737597209175485 0.14315850551782142
0006f0 b1 80 45 53 1a 06 ef bf 73 5e 20 68 ed 55 bb bf
       -0.9694949747463594 -0.10677989761495059
000700 69 d7 d2 3e 78 68 ea 3f ff 30 8f 8d ec b0 0b 40
       0.825252649977057 3.461388688976626
000710 96 23 d7 0d 16 5a 16 c0 f3 5c 14 b9 dc 1a fe 3f
       -5.587974754577678 1.8815581540746364
000720 02 fa 0b 39 16 dd 03 c0 f0 53 96 23 e2 e7 1f c0
       -2.4829525429515806 -7.976448589372907
000730 92 1e 06 db c5 da 07 c0 e3 a5 c5 3d 10 92 20 40
       -2.981822692035913 8.28528016126342
000740 ed ff ae 11 d4 4c 0a 40 ea 48 58 13 ec d2 1a 40
       3.2875138646631883 6.705978681815603
000750 26 34 c2 6c 5d f0 05 c0 f5 3b d8 54 59 91 06 40
       -2.7423656937376277 2.820971167420334
000760 2c 86 a8 be f8 f4 27 40 fa 44 8e b8 e7 09 e6 bf
       11.978460271903792 -0.6887091259578988
000770 3f 48 88 1e 0b 82 f1 bf 4f 75 d7 1a 9a 4c 05 c0
       -1.0942488854093566 -2.6624033066752086
000780 fd fb 22 6e db 63 f0 bf 7c 54 6c 9c b8 24 fa bf
       -1.0243791868413148 -1.6339651212959145
000790 d5 c4 d3 e1 81 e2 fe bf c9 b0 8f 40 aa dd 0e c0
       -1.9302996465087763 -3.8582348865366822
0007a0 57 7c 23 d7 69 e8 15 c0 6e 89 bc 68 cb 1a eb 3f
       -5.476966249028087 0.8470208211549968
0007b0 df 90 93 b1 f1 97 13 40 8b f0 44 b2 1c 81 19 c0
       4.898382925636013 -6.376086030442944
0007c0 af 2f f3 f4 8b 07 00 40 b7 77 ba 3a 71 5e 10 40
       2.0036849152292784 4.09222881091221
0007d0 83 f2 4d af c6 aa 12 40 34 ab ff e9 62 e8 c8 3f
       4.666773547298933 0.1945918695995147
0007e0 70 33 ac e0 c3 87 15 40 35 54 c5 da 44 07 10 40
       5.3825831513503175 4.007098596853258
0007f0 6c 4b fa 0a e1 96 e8 3f e1 6f bd 0c 58 e0 03 c0
       0.7684178556831802 -2.484542941599998

arr_1 f8 [10, 7, 7]
000000 4d ec 5f 99 d4 ec f9 3f da b7 6d f4 f8 92 01 c0
       1.6203199378203579 -2.196763906095822
000010 81 3e 60 4b 1c b3 0c 40 e7 3f 76 7d f6 1d f8 3f
       3.587456311106337 1.5073151493888817
000020 65 fa e3 b7 d9 6a 05 40 4a ba f2 c6 a2 47 e8 bf
       2.6771730772446056 -0.7587446103769449
000030 f1 cf 9e ae 44 35 d2 bf 29 fc d6 f6 60 bd 04 40
       -0.28450123837251257 2.592470100818464
000040 6a cb c4 f1 a8 cc 01 40 56 51 34 4d cb b7 d3 bf
       2.2249316108877126 -0.3080929044674766
000050 56 3a e7 05 e5 ef 0f 40 31 43 14 d0 da 25 f4 3f
       3.992136045569434 1.2592418792812163
000060 d1 8d a5 a5 51 48 0c c0 26 53 59 51 58 ff 0f c0
       -3.535311979403311 -3.9996801715264096
000070 54 45 8a d7 bc 75 f1 3f ba e0 0a c9 41 da 04 c0
       1.0912445468460037 -2.6065707880444196
000080 0c 64 6d c3 af e4 d8 3f 7d 70 64 92 fe bf 09 c0
       0.38895792088220627 -3.218747276010673
000090 40 85 ea f1 4e d5 cc 3f b6 ef 9e 54 c7 e8 df 3f
       0.22525965511617052 0.4985826803565446
0000a0 e1 ef 9f 7c 98 b8 0b 40 97 af 03 81 57 bb e6 3f
       3.4651345955189616 0.7103688735783064
0000b0 3d bc c7 30 8f e6 00 40 fd 32 c8 11 32 2c 10 c0
       2.1125778017954233 -4.043159749836147
0000c0 f0 60 a2 dd 92 83 00 40 ab 8b 1e 26 bc 53 11 40
       2.0642449679545436 4.3317724186080495
0000d0 46 0f da 23 cc b6 01 40 e3 25 8c 6c aa e0 c6 bf
       2.214256553737786 -0.17873125362557038
0000e0 e5 f1 01 44 d3 1b c2 3f 7d 66 02 c8 3a 4c a4 bf
       0.1414741594379755 -0.0396440858032294
0000f0 cf f5 26 96 b3 23 00 c0 b1 3e ea 80 7f 2e ea bf
       -2.0174323778762537 -0.8181760328170268
000100 a1 6b d0 ef 54 ea 00 40 6d c4 8f 1c fd a6 09 40
       2.1144198165397516 3.206537459504537
000110 50 e0 5a 0b df ff e6 3f df 9b 58 94 ba e8 05 c0
       0.7187342855240875 -2.738637122110489
000120 72 9f d4 2e d6 ec d8 3f 8f c8 4b 10 04 bf fd 3f
       0.38945536206528353 1.8591347347797045
000130 9f e9 69 d3 29 68 e2 3f fc f2 03 22 0c 23 00 40
       0.5752152566122283 2.0171129853682697
000140 d4 9c a2 13 5d d1 fa 3f 80 ee 66 aa 23 e7 11 40
       1.6761141554832664 4.47572199109311
000150 dd f1 9e 6e 5c ff 04 40 83 8b 40 90 fe 2a 03 40
       2.6246880190139863 2.395993353814846
000160 39 2b 1b 4f 99 b8 0e 40 eb 13 82 68 66 fb e2 bf
       3.8401361637274047 -0.5931884804891728
000170 7b 99 b2 d7 8c ec 00 c0 e1 75 5f a1 61 73 11 40
       -2.1155030108813526 4.362677117778248
000180 79 da ea 31 7c 66 d3 3f 76 4a 06 e3 6c 7a 02 40
       0.3031301963305065 2.3097779976172275
000190 fa 51 e4 c5 3a 1c 11 40 45 47 c8 05 8b cf b1 3f
       4.277567951260147 0.06957310572786664
0001a0 e7 11 91 cf b1 40 f4 3f 86 f9 e4 49 ba 0b 06 c0
       1.265794573600141 -2.7557264111521276
0001b0 42 de d3 09 b0 bc d1 3f 35 20 40 9f 8a 2f a0 bf
       0.27714158019759705 -0.031612712802655464
0001c0 e6 34 42 5b e3 01 b8 3f 13 98 be 70 41 78 f5 3f
       0.09377881029122967 1.3418592838365881
0001d0 60 8f ae 2a 99 60 05 40 68 1b a0 d7 d5 ab 0f 40
       2.6721671423455717 3.958903965543346
0001e0 e9 eb 99 40 8b 34 18 40 14 8e a3 02 29 25 03 c0
       6.05131245555365 -2.3931446272051833
0001f0 76 fa 89 47 b0 26 15 40 7f 24 58 91 34 54 02 40
       5.2877818277325925 2.291115890028379
000200 94 98 8a cc f3 bf f7 3f 78 b0 d6 f6 e9 3f e3 bf
       1.484363364209945 -0.6015519925181385
000210 54 1a 14 4d 07 1d fc 3f c4 b7 38 a9 44 36 c4 bf
       1.7570870409851027 -0.15790613425036615
000220 94 29 1a 1b 30 09 f3 3f 1e 6d d3 ca a6 a0 f3 3f
       1.1897431429557388 1.2267215655218204
000230 5f 62 b4 c1 43 5b 04 c0 8a 4d 18 ee 75 b4 ff bf
       -2.5445628293203266 -1.9815577793677641
000240 e8 9c ac a1 79 b8 13 c0 54 a1 95 29 d0 2e 01 40
       -4.930151487503487 2.147857975844241
000250 cd e0 e7 43 66 d9 02 40 56 e3 88 70 d4 3e 15 40
       2.3561520867479886 5.311357267718298
000260 98 9d 67 f3 b3 c6 fe 3f 4f 60 d2 e2 81 bb 13 40
       1.9235114582059847 4.933112663355202
000270 33 d8 82 8c 79 55 f2 bf 71 da 66 9d 0e 01 d6 3f
       -1.1458678711619654 0.3438145196081797
000280 86 dd 86 90 e6 e5 0b c0 85 9b fb 54 f7 ac de bf
       -3.4872561732442504 -0.4793070154104771
000290 00 9e 28 00 9a 6d e7 3f 70 62 0c d7 7e 63 f5 bf
       0.7321290972803922 -1.3367908859564999
0002a0 12 30 66 da de 18 08 40 d8 88 3a 15 7a 6e 0d 40
       3.01214380859711 3.678943792198975
0002b0 50 e7 9c cb 3e ac e7 bf b4 73 62 6a d1 a6 0b c0
       -0.7397760369123976 -3.4564541159911304
0002c0 b3 cc 45 94 53 21 cc bf 7b 23 61 17 59 02 e8 3f
       -0.21976704349399298 0.7502866226796948
0002d0 10 de e1 70 a7 51 08 40 38 05 dd 1a ce c1 e4 3f
       3.039870149510314 0.6486578488039987
0002e0 7a 64 90 9a be 29 06 40 7b 7b df 17 8a f6 0b 40
       2.7703830790820207 3.495380579478874
0002f0 0a 5b 3e cc a2 e6 e0 3f 27 02 ed 9a 85 6f 11 40
       0.5281537999279362 4.358908100810857
000300 dd 67 eb 5d 75 bc 0f 40 40 e6 67 c8 16 32 05 40
       3.9670207345452426 2.649457517309912
000310 5b 32 90 03 a4 48 08 c0 5f 5e b2 f0 c7 df d3 bf
       -3.0354690817241994 -0.31053350930731044
000320 8e a0 24 40 f0 17 0f 40 10 18 2d 57 cb 37 fc 3f
       3.886688710325024 1.7636216550176904
000330 32 62 46 fa 45 1c b8 3f 4a 16 f7 31 a4 4d 0d c0
       0.0941814170859139 -3.6629108336954106
000340 9c ee 70 a3 78 50 0c 40 d8 d4 61 73 a9 b5 fd bf
       3.5392925995673306 -1.8568510539164915
000350 c8 72 76 46 3c 12 07 40 7c 6d cd c2 22 9c 0a 40
       2.8839040284059116 3.3262381762448836
000360 e0 c9 2a 70 2e 60 f8 bf 6f 0f e6 6b 44 a2 ea 3f
       -1.5234817868737238 0.8323080165286977
000370 ea bb 46 40 ed 37 07 c0 d9 b8 96 70 09 22 cc 3f
       -2.9023079892717663 0.21978872296808197
000380 74 1d 60 28 41 f1 ed 3f 1a 9d c1 d3 14 9c 0b c0
       0.9357000149329182 -3.451211599680062
000390 a9 08 cb a7 55 07 ed 3f 2b 25 61 6a ba e9 03 c0
       0.9071453358849527 -2.4891250906845435
0003a0 9f ef 93 9f dd 4a 11 40 af 66 9d 8e bf 4f 01 c0
       4.323111050991343 -2.163939584902287
0003b0 7c cf bb fe 6e 3c de 3f e8 df 6d ba 4a dd 04 40
       0.4724385726578857 2.608052689054592
0003c0 a6 68 db 02 dc 98 e0 3f 08 13 fa 6c e7 0b c3 bf
       0.518659596996504 -0.14880078145156284
0003d0 51 8d b8 9a 65 a8 0f 40 7a be a4 b1 37 ec d5 3f
       3.9572250449724966 0.34254257534028165
0003e0 a9 ec 23 56 d9 3b 04 40 c5 62 11 07 41 36 fc bf
       2.529223130198791 -1.7632456089105955
0003f0 24 83 d6 83 3b a8 0b 40 34 55 69 89 b4 3c fa bf
       3.457144765838523 -1.6398206107745184
000400 83 bd fb dc d1 f3 0a 40 1d fc a0 39 48 dd e1 3f
       3.3690526260685956 0.5582619786799828
000410 5c 37 ff 1a 0d 9b 01 40 8b 99 ca 50 94 87 dd 3f
       2.2007085904250925 0.4614001072863167
000420 00 c7 d5 be 2e 4b 0e 40 95 bd e8 2b fa 17 cb 3f
       3.7867102536191624 0.21166922706605065
000430 8c ed 04 ce d5 df 13 40 7d 10 c4 92 14 2a 07 40
       4.968589037943627 2.8955470529636487
000440 37 4c 7b 77 a0 3e e7 bf 4c 82 91 82 bb f5 11 40
       -0.7263948758721942 4.489973106509364
000450 9c 2f 2e 98 40 b9 d2 3f 3a a5 b8 43 96 50 ee bf
       0.29255690442436744 -0.9473372767144277
000460 bf b5 cf 54 50 65 fa 3f 21 15 3a 73 01 d6 01 40
       1.649734813017275 2.2294949533558257
000470 b1 85 70 cf f9 77 09 c0 cf 3b 9f 8d 0c 57 b1 bf
       -3.183581944104582 -0.0677345128781177
000480 f8 17 d5 87 46 6e f5 3f c9 c9 cd 19 5c 56 05 40
       1.3394227319672591 2.6671678558279592
000490 5d 32 1a 8d c0 d4 f8 3f 75 58 83 24 3d 9b 14 40
       1.5519414436158947 5.1516004281203225
0004a0 ec 1b 7e d4 0d 94 c6 bf d3 29 f6 44 94 02 ed 3f
       -0.17639325023284813 0.9065648409753585
0004b0 bb 80 d5 ae 43 b9 dd bf 96 5b 59 fa d6 bd f4 bf
       -0.46443264077789664 -1.296347597051612
0004c0 b4 27 fc 03 5f ec c3 3f 10 37 88 a8 36 e4 02 c0
       0.15565097517565862 -2.361432377488093
0004d0 a6 18 a9 76 45 73 ea 3f 84 d1 b7 db 56 4c 07 40
       0.826571208723881 2.9122750440093927
0004e0 dd e5 23 89 45 d3 eb bf 55 6b be 6b c5 be 10 40
       -0.8695399931449931 4.186299975869436
0004f0 28 c1 1f 37 05 37 12 40 64 ad 96 c1 76 08 04 40
       4.55373083239855 2.504132759486014
000500 f1 7e 31 cc d1 d9 03 c0 23 cf 09 94 fb 66 c9 bf
       -2.481357188473219 -0.19845528343614047
000510 7c fc 00 b7 c6 27 0c c0 04 c0 fe 9a 02 38 09 40
       -3.5194219872642503 3.15234871950088
000520 60 ea d0 0a 83 28 f8 3f b1 9a bf 61 e6 19 04 c0
       1.5098905966284732 -2.5126464497182828
000530 a7 40 f5 77 ca ff fa bf cf 86 5f ad 85 0d f7 3f
       -1.6874489484653539 1.4408013126743986
000540 8a ae 44 bf 3f 03 e8 3f 8e e8 c1 c9 04 5d ba 3f
       0.7503966079434161 0.10298185277670965
000550 48 66 5f af d8 e6 dd bf 30 d5 5d dc af 79 e8 3f
       -0.467214747679098 0.7648543647798416
000560 7d 3b b9 ac e2 ae f8 3f b5 97 d8 52 16 d5 08 40
       1.542696642590925 3.1040464851712053
000570 df 57 c8 cf f1 5e dc 3f e1 4d 79 8e 19 04 eb 3f
       0.4432949570776809 0.8442504675571706
000580 42 63 c1 42 3b 76 01 c0 a1 45 e6 e7 3b 70 e6 bf
       -2.182730218435979 -0.7012004403388127
000590 62 93 81 a8 f8 87 0a 40 78 3b e2 15 bc d9 e4 bf
       3.3163922466796274 -0.651578943959847
0005a0 dc 91 6a ae c7 67 04 40 9e a5 f8 4d ba 6e 05 40
       2.550673830630542 2.6790662852769875
0005b0 1f 53 fc 81 39 3c d4 bf d5 ca 71 7c 4b e9 0e 40
       -0.3161758202925728 3.863913509581247
0005c0 58 a6 87 79 86 91 12 40 85 ee 7d 8d b4 69 09 40
       4.642114542869955 3.1766139082008658
0005d0 8d e6 69 f5 89 e9 ec bf 80 62 36 a2 59 05 04 c0
       -0.9035081666217636 -2.502612368855182
0005e0 09 3b 3e fe 1d 93 0b 40 41 6f 20 c3 fc e7 e2 bf
       3.446834551118972 -0.590818768603164
0005f0 b7 26 44 67 1c e2 e7 bf 66 82 a1 44 dd a7 02 40
       -0.7463514344137455 2.3319650041378734
000600 e2 2d 6e 1d d6 aa cd 3f a5 e6 e8 d5 71 b7 db 3f
       0.23177601277380605 0.4330715741121856
000610 8f be 44 78 7a 14 0d 40 c3 a1 30 54 68 3a 14 40
       3.6349992176035992 5.057038608043913
000620 c9 9a 7e 3b 01 5d f8 bf cb f4 55 81 de 7a f4 3f
       -1.5227062534337839 1.2799973537615184
000630 21 5c 66 2c e7 3a 09 40 f8 cb c8 43 22 e1 d3 bf
       3.1537612408387905 -0.3106160795170463
000640 bd a6 2d d9 a7 10 11 c0 4b 5a a7 c6 da d5 f4 bf
       -4.266265290652595 -1.302210594168758
000650 5c df 52 93 32 18 0d 40 c2 16 af 13 74 e8 10 c0
       3.6368152150788955 -4.22700529819639
000660 92 d9 1e 2c 36 9c 0b 40 3b 81 da 67 ee 22 0d 40
       3.451275200549568 3.6420562852437377
000670 93 9c 1a 40 0f 91 f6 3f be 22 05 15 c6 a5 f2 bf
       1.4104149345455752 -1.1654721089454791
000680 0b e0 e5 15 10 dd f5 bf 0d 93 6f c8 b9 00 0b 40
       -1.3664704184902827 3.3753543528604326
000690 c2 15 de 97 25 d1 04 40 c5 69 7b ce f4 21 05 c0
       2.602122484650608 -2.641580212727805
0006a0 18 8e 89 6b 81 83 f2 3f f1 1b 28 ea 92 bd f7 3f
       1.1571058464695678 1.48378268687679
0006b0 af 65 89 84 35 69 05 c0 af e8 ad 17 13 5b ed 3f
       -2.6763716082029627 0.9173675024496982
0006c0 b1 cb 25 c8 e0 2b d3 3f c2 49 46 bd 5d a0 e0 3f
       0.2995531038824835 0.5195759484070595
0006d0 fc f3 e7 64 33 93 c3 3f 44 15 4d 76 08 af f9 3f
       0.15292971064619099 1.6052326794754928
0006e0 21 d6 ba a5 90 4f 07 40 ca e7 c8 9d 73 6a 05 40
       2.9138501117365796 2.6769783331810446
0006f0 94 42 9d 4b 38 74 08 40 a7 2f b4 a7 d0 4a f3 bf
       3.0567479998938527 -1.2057653952533458
000700 5b fb d9 c2 9f df 08 40 8d ec 0e a2 04 6a c4 bf
       3.10919143893936 -0.1594854155826834
000710 ee 6e 81 de 98 48 fe bf 03 7b 2b 8e fd 1e 03 40
       -1.8927239123940427 2.390132055951996
000720 9c 5a 0f 9d f8 a6 f1 bf d2 bb d1 02 a8 8b c1 bf
       -1.1032644400744749 -0.13707447183284543
000730 eb 92 e1 57 81 57 d5 bf d0 30 30 5a 5a 9a f7 3f
       -0.33346589643615115 1.47518382291587
000740 ee 4d 7f ea 06 9e 14 40 78 85 9c dc 51 62 f3 3f
       5.154323257465405 1.2115038507111802
000750 ce 45 2f e4 39 3a 0a 40 92 c5 d9 7c 1d bd 05 40
       3.2784307314802623 2.717341399570338
000760 e6 e7 34 51 67 d7 f1 bf c3 6a 4f 44 b2 cb 00 40
       -1.1150887653479855 2.0994611107574612
000770 0f ee a9 bb 74 9b 09 40 16 b3 94 9e 33 90 f1 bf
       3.2009062443955894 -1.0977054781498672
000780 2b 76 8e 29 73 ff 06 40 3f cf 21 75 52 d4 fe 3f
       2.874731373462756 1.926836450144904
000790 c8 1c ba f8 7c 30 e1 bf c8 cb 46 a2 7a 13 02 40
       -0.5371689660977603 2.259511249337695
0007a0 5c 0c 6c 2b ac 42 0c 40 a4 b9 a0 ea 73 ae 01 c0
       3.532554949984428 -2.210182030706351
0007b0 c3 30 0a 75 1a 69 02 40 2e 35 1d 36 af e8 f1 3f
       2.301319994328965 1.1193077195960757
0007c0 2f a1 67 d1 e5 a9 09 40 0f 9e 68 ea 36 d3 0a 40
       3.207957874274278 3.353132087056799
0007d0 1f c7 bc f2 ff d9 dc bf 8c b4 76 e3 30 3c e8 3f
       -0.45080565171075365 0.7573475306177371
0007e0 9a 90 a2 be 69 46 06 c0 a4 e5 b9 cf 89 c1 e8 3f
       -2.7843813794480186 0.7736252839232987
0007f0 d0 dd 73 9b 18 6d 03 c0 6f 54 b7 e3 7c 4a 0c 40
       -2.4282695908293377 3.536371020347864

arr_2 f8 [10, 7, 6]
000000 ba 11 bc 1c 99 f4 cb 3f 34 9a 09 ce c8 2c d2 3f
       0.21840204146441328 0.28398342247820385
000010 ee 19 d7 ec 7c 60 f6 3f dc f7 8f 40 18 c0 d1 bf
       1.3985566379138805 -0.2773495321742965
000020 c2 51 33 f0 e7 3a e6 3f 7b 92 a1 66 17 51 00 c0
       0.6946906749167783 -2.039595414930145
000030 21 44 0a 96 f7 8e cb 3f fb 2a e9 c7 75 d2 f9 3f
       0.21530051065613612 1.6138818558708283
000040 9f 9a d4 82 f6 27 f3 3f 64 4b 6a 92 31 b9 c3 3f
       1.19725657563837 0.1540891613882095
000050 4d 80 38 57 2a 4d db bf a1 66 8f a2 aa e4 03 c0
       -0.42658480184218633 -2.48665358543515
000060 66 42 12 10 7a 65 e6 3f d5 cb a8 0a a8 38 eb bf
       0.6998873056309776 -0.8506660659971838
000070 b8 5d 4e 51 c0 25 a0 3f 9d fd 40 7e a9 e3 e0 3f
       0.03153801910883253 0.5277907815833945
000080 51 5a 3b 59 ff 89 01 40 43 10 dc 41 74 d2 02 c0
       2.192381569980434 -2.3527608056338365
000090 0b 5a cb 17 cb 00 eb 3f 82 c1 5c 15 45 ff e2 3f
       0.8438468422635322 0.5936608712418521
0000a0 db fa cc 14 b1 f5 cd 3f 68 de d1 63 b4 8c ff 3f
       0.2340604163709575 1.9718517207346853
0000b0 d3 ce e8 68 55 b6 fa bf a6 49 4b a1 d0 a9 fc bf
       -1.6695150468848865 -1.7914587307501306
0000c0 96 18 37 cf ba 61 e1 3f 22 fc 36 eb 28 04 cf 3f
       0.5431798979923481 0.2423144482145015
0000d0 5f ee 0c f7 d7 93 f3 3f 2e 1b f5 8b f1 e5 04 40
       1.2235946321879039 2.612277120034739
0000e0 ff ec e3 26 f6 ac f8 bf 38 d5 03 0c c9 b3 06 c0
       -1.5422269362596237 -2.837785810343714
0000f0 b1 cc eb 17 cc bc 0c 40 e2 e1 0d 2b ea 24 e7 bf
       3.5921861523471184 -0.7232561913397684
000100 31 34 46 5c 45 55 08 40 55 66 8c 81 b5 01 07 c0
       3.0416362008022806 -2.875834476563606
000110 04 fe 1d b9 54 d5 08 c0 52 34 16 51 04 c4 c7 3f
       -3.104165502765456 0.185669459908612
000120 b7 be 45 8b 23 ab ff 3f 9f 74 87 3d 9a 57 f3 3f
       1.9792819443063487 1.2088873294335725
000130 d7 f8 f4 e1 ae 69 06 40 bb 28 5a 64 cd 34 10 c0
       2.801603093422368 -4.051564758303523
000140 2a 0c de 89 d5 40 dc bf 0c 99 7d a4 33 1c f4 bf
       -0.4414571615563455 -1.2568851876654348
000150 d1 64 d5 49 69 67 01 40 9d 8f 4c 5c 90 3d f1 3f
       2.1754937904594063 1.077530251067379
000160 ad 4c b4 93 9f aa 0d 40 26 8d 23 c4 c2 24 04 c0
       3.7083121814153714 -2.5179496119832434
000170 af f8 20 d1 6a 7a 04 c0 67 5e 33 8e c5 ad f9 bf
       -2.5597740495860175 -1.6049247317040682
000180 89 ad ab ed 44 6b e8 3f 50 fa a9 22 7e e9 f1 3f
       0.7630943910602791 1.1195050577222396
000190 24 02 68 aa 63 b6 fa bf 30 e4 e7 58 49 6a f0 bf
       -1.6695286423201958 -1.0259488556751073
0001a0 f1 71 b6 bb d1 b4 b3 3f f2 17 f4 e2 10 0d f0 3f
       0.07697783310727126 1.0031899323816984
0001b0 ae 72 a8 f1 04 9c e6 bf fa 9f 80 c8 35 fe ff 3f
       -0.706545326221734 1.999563010418568
0001c0 78 c1 54 c8 21 a3 f3 bf 59 ae e2 7c 85 36 cf bf
       -1.2273271394188594 -0.2438513622085903
0001d0 67 f3 b4 8c b0 53 08 40 86 7a 03 ff 8f ea 04 c0
       3.0408640854570197 -2.614532463353785
0001e0 cc 86 16 fd ee c4 e3 bf 11 0d c2 d3 8b 42 d8 3f
       -0.6177897399067773 0.37906165771001193
0001f0 0c 08 73 c0 ca ed db 3f 64 b0 29 ea a2 3f 00 40
       0.43638867181664476 2.0310724538776856
000200 7c 4a fd f2 91 24 ce bf c3 46 aa 29 05 f9 fc bf
       -0.23549103131024995 -1.8107959392113322
000210 75 de 55 2e 40 39 f2 3f 83 f7 cb f0 60 9a fa 3f
       1.1389772233941617 1.6626901060221548
000220 c6 75 e0 01 86 e3 dd 3f da 90 2b 4e dc 52 da 3f
       0.4670119303062531 0.4113074077015547
000230 2b 41 08 52 78 3c f4 bf 74 4e 07 06 16 64 01 c0
       -1.264763184011893 -2.1738701315860514
000240 e4 e1 a5 59 9c 67 0f 40 bf d0 10 ab 4f 4a f1 3f
       3.9255911830662047 1.0806423837903336
000250 01 36 1e ec 38 76 0c 40 94 fd a4 22 b5 0e 16 c0
       3.557725758239713 -5.514362851448272
000260 7f 36 1c 64 f2 3d f5 bf 38 c6 3d 60 19 b1 f9 bf
       -1.3276237402491515 -1.605737091009713
000270 e5 65 c4 4f 3c f9 eb 3f 41 9e 87 8f 47 95 de bf
       0.8741742666199427 -0.47786129967287044
000280 22 2a c9 5a 27 1d f5 3f e0 7a 23 75 df e7 f4 3f
       1.3196176096267966 1.3066095901228252
000290 54 fc e1 a7 1e 6b 01 c0 ed 24 9f 9f 31 5f e3 bf
       -2.1773045650329923 -0.6053703420267574
0002a0 5e 0b fa 8a d0 d4 09 40 22 24 ad 29 00 5b f1 bf
       3.2289133889729973 -1.0847169521314375
0002b0 1d 97 e9 56 d3 d5 06 40 31 ab aa 2c 9d 43 11 c0
       2.854407004359827 -4.316029260556022
0002c0 25 b3 37 d4 d6 36 f8 bf b1 c8 6b 4b 85 c0 f1 3f
       -1.5133884706257927 1.1095021196493173
0002d0 29 9f 54 30 ce c7 f9 3f 0b 0b 9a 93 cd a6 e9 3f
       1.611280621329522 0.8016116984220799
0002e0 7c 2a e9 ac f4 76 f0 3f 2f a4 06 d8 95 67 e9 3f
       1.0290419344261457 0.7938946933037466
0002f0 e7 2a 69 fb 33 62 01 c0 26 61 5c 07 bb ba fc bf
       -2.172950710436783 -1.7955885207684985
000300 4f 28 fa 6b 12 3e f7 3f 97 ed 77 a8 34 bf e4 3f
       1.4526542871340273 0.6483405390167033
000310 80 54 69 e1 cd f3 fd 3f d6 31 36 66 36 85 dc bf
       1.8720225148329348 -0.44563064557658316
000320 18 1e ce bd 0d 37 e7 3f 39 ad f6 7c cc 04 10 c0
       0.7254704196101924 -4.004686310344646
000330 ff b5 0d 3c e3 dd fb 3f 6b 1a d6 f6 cf ff ec 3f
       1.7416717859117623 0.9062270947477605
000340 5f 1d a1 b6 04 20 09 40 d1 82 78 35 ad b1 f3 bf
       3.1406339900892557 -1.23087807547579
000350 3f c0 db cc f6 cd fb bf 44 a4 cd 07 72 19 05 c0
       -1.7377841951638542 -2.637424527133165
000360 5f 4a e5 9b e0 13 03 40 17 b3 4d 55 95 9a ed 3f
       2.3847057513569747 0.9251200357517487
000370 a4 f5 03 84 68 cc 04 40 02 f4 70 bf ee 5d 07 c0
       2.599808722849689 -2.920865531572873
000380 88 bc e8 6c 7a b8 fa bf 8b bb a0 a9 ef 3c f1 bf
       -1.670038628984715 -1.0773769975746486
000390 ae 71 b5 72 1c 0a ee 3f 2a 91 81 fb 7e 7e f9 3f
       0.938734268227156 1.5933828186471808
0003a0 84 ef b5 aa 04 78 00 40 c7 6b ac 8a db ee f2 3f
       2.058602651288256 1.18331484002441
0003b0 3d 62 1e 91 97 63 f0 bf 7a c9 0a 27 b0 88 12 c0
       -1.0243144673060123 -4.633484468491924
0003c0 0f 17 e2 5a ef f2 d8 3f 37 b3 79 aa 58 0e f5 bf
       0.3898275744944479 -1.3160025271601634
0003d0 a5 89 60 8d a9 30 f8 3f e8 cd ca 89 0f 0d f9 bf
       1.5118804476302128 -1.5656886465557083
0003e0 32 e6 f3 54 37 f3 ff 3f 7f 1e de 20 6f dd e8 bf
       1.996878940435988 -0.7770305292078347
0003f0 16 1f fd 0d 72 59 f2 3f 85 c7 a6 dd ce 6d d9 3f
       1.1468372866092458 0.39732715268757374
000400 b2 2d df be db df bc 3f 6e fe d6 de ba 37 ff 3f
       0.11279080781894527 1.9511059479408703
000410 d0 7c 08 11 f8 53 02 c0 17 3f 77 df 2c 9d f0 bf
       -2.291000493117828 -1.0383728722699226
000420 5a 9e 90 b1 a0 7f c4 bf bf 8e b4 fc df 41 f7 3f
       -0.1601448885933106 1.4535827513981727
000430 9e 48 bf 02 de d2 e6 3f 38 0f ca 2f 44 2d 01 40
       0.7132406285911832 2.1471027120150232
000440 5c 52 cb 31 fe ba 00 c0 49 2e 00 4f 15 b9 fc bf
       -2.0913051500486244 -1.7951863370862091
000450 2a 82 3c e8 f8 65 ea 3f 9a ad 2e 46 27 0d fb 3f
       0.8249477897516659 1.690711282872917
000460 c3 b5 0e d2 c8 e5 c8 3f 3c a9 21 f0 18 8d d4 bf
       0.19451246506416284 -0.3211119027170246
000470 06 bc bd 41 0e f5 f6 3f c0 ea 92 73 11 9b 0c c0
       1.434828049470299 -3.5757168797693737
000480 83 b7 40 cb ee 46 06 40 b7 41 00 f7 2d 9f e8 3f
       2.7846351508259786 0.7694310974348387
000490 7e 0d f9 57 22 90 01 40 ca 88 e4 8b 14 1e 00 c0
       2.1953780053024152 -2.0146876267545837
0004a0 46 98 80 b1 af b9 d1 bf ab 80 7f d5 eb 33 0a c0
       -0.2769583924695137 -3.2753521613631924
0004b0 e4 4b fa 4b ef 2d 06 40 83 2f c7 48 18 3c e4 3f
       2.7724290786513723 0.6323357984015135
0004c0 15 01 6b 6d 5b 19 fa 3f 42 9c d0 66 68 a7 fd bf
       1.631190707601552 -1.8533710495191973
0004d0 1b dc 65 97 56 82 e4 3f f9 c3 cb dc 39 a8 0c c0
       0.6409104306211505 -3.5821416139301587
0004e0 29 c0 88 54 23 05 0e 40 ed 2e c0 eb 35 a7 e8 3f
       3.7525087932808856 0.7704114536768124
0004f0 c0 87 78 94 3e b4 0c 40 7a 21 ce a0 ae 99 10 c0
       3.5880099868090554 -4.1500802160084
000500 02 e3 cb 4c 9a 58 0c c0 b5 31 9d 0d 57 49 d3 bf
       -3.543263053867464 -0.30135132150169436
000510 66 86 68 d7 5b 73 05 40 93 18 c9 65 f0 d8 c8 3f
       2.681327517392492 0.19412045450207369
000520 ab fa 0d 3a 55 23 08 40 62 1f ad 1c 0b 61 05 c0
       3.017252400924311 -2.672384475739748
000530 aa 0d 0f e2 30 d7 d2 bf a4 5e b7 64 10 7d 05 c0
       -0.2943842132192126 -2.686066424222945
000540 4b 80 eb 19 f9 22 ff 3f 5f 59 d8 0c 73 11 f8 3f
       1.9460383427140353 1.5042601110231641
000550 e5 9a de 90 2f 0b ed 3f 68 d2 75 b2 99 ed 06 c0
       0.907615454624502 -2.866015810223235
000560 1c 7a b0 1e 7c b0 f1 3f 7a 39 2a a5 e5 8c 02 c0
       1.1055871199420215 -2.3187973884116078
000570 10 cc 81 08 97 68 f4 3f f4 05 2f 95 c4 99 e5 3f
       1.2755346615128964 0.6750204957717743
000580 be b6 c7 ca 91 7c c0 3f 29 8e db 90 47 90 f5 3f
       0.12880155946134225 1.3477245005132181
000590 e2 06 7b 02 27 68 03 c0 78 b6 f0 06 67 7c e7 bf
       -2.4258556550783945 -0.7339358459045817
0005a0 c1 8d e1 80 a4 79 f9 3f 4f ee b3 7f 62 de ef 3f
       1.5921978983322875 0.9958965772816074
0005b0 a0 65 ae 6b 44 4b fb 3f fd 1a db b9 6c d7 f3 bf
       1.7058757978723875 -1.2400939235682806
0005c0 51 72 a9 6d 23 c4 e3 3f 26 a3 22 9b 1e 63 0b c0
       0.6176926748117443 -3.423398220057055
0005d0 64 b4 7d 89 cc c3 f7 3f 9b b1 03 bd eb 86 b7 bf
       1.4853024836295612 -0.09190247883424833
0005e0 7b 1c ec 59 32 a1 fc 3f 6c 5c a6 eb e6 6e 81 bf
       1.7893546593275278 -0.008512310091459883
0005f0 6e b6 27 46 32 5e f2 bf ca 1f cf 80 33 80 fd bf
       -1.1479971638140358 -1.8437991172413484
000600 3b de 95 98 76 a1 02 40 59 66 bf d7 79 c9 0c 40
       2.328839485238658 3.598376927879866
000610 b7 8a 6a f4 68 9f fe 3f dd e7 da ff 04 f8 d1 bf
       1.9139184520251271 -0.2807629107079473
000620 1d 16 2e 7b 93 da 08 c0 04 0d 6d 12 63 d9 10 c0
       -3.106726610511727 -4.212291992097793
000630 83 dc df ea c6 70 10 40 f5 20 1a be f7 46 e1 bf
       4.11013380996076 -0.5399130547457661
000640 00 09 d5 0d 89 7a 08 40 e2 27 2d d9 18 ea 12 c0
       3.059831722320382 -4.728610413914767
000650 93 bb 9a 58 f7 6b f3 bf 33 15 44 86 7a 48 e2 bf
       -1.213858934508356 -0.5713474867231184
000660 93 cb 29 87 14 66 01 40 f2 8b 37 ad de d8 ea 3f
       2.1748438415174376 0.8389733679908871
000670 48 16 e8 40 65 65 ec 3f 00 b8 b5 f9 49 09 f5 bf
       0.8873773830134235 -1.3147678140917378
000680 4d 61 e0 8b 33 63 cf 3f 02 2c 68 44 f5 bb 04 c0
       0.24521488504320602 -2.591776403836321
000690 49 03 8d b3 89 01 f7 bf 43 99 68 92 36 6c de 3f
       -1.4378754628853179 0.47535480783189515
0006a0 94 ea c1 80 e4 cd ca bf 6e a8 52 e0 bd df 03 40
       -0.2094083431910191 2.4842488789773176
0006b0 a9 a9 79 2b 42 fb d0 3f 9b 17 d5 4d 92 c8 f4 bf
       0.26533560033444786 -1.298967651398448
0006c0 04 49 fc 2d 05 9a a3 3f 59 69 86 32 7d 53 ca 3f
       0.038284456122839955 0.20567288367312633
0006d0 08 9c 14 ab e4 d7 ee 3f 97 1b 27 7d ca f2 bb bf
       0.9638541547218447 -0.1091734462307684
0006e0 79 db b4 76 58 d0 03 40 38 6c 01 6b f2 76 0a c0
       2.4767312311118386 -3.3080795631226714
0006f0 9a bb fb aa 63 92 f6 3f 96 0a 7c c9 90 c9 e0 bf
       1.4107395819698696 -0.5246051726574759
000700 91 82 f5 b9 02 2b fb 3f 55 bf c9 c1 89 41 0a c0
       1.698000646974979 -3.2820010318463724
000710 21 38 46 74 93 3f c4 bf 6d 4e 07 e5 e9 aa f1 3f
       -0.15819018533187637 1.1042269655635224
000720 cc 18 1d 73 41 7c eb 3f 1c 40 a7 6f e2 4b e5 bf
       0.8589179275811829 -0.6655132466057725
000730 57 b2 81 6f 6d 15 f2 3f a0 5b 28 df 51 0a f5 bf
       1.130231319020046 -1.3150194851966504
000740 91 c3 1b 01 b9 5e 06 40 7f 2b c0 40 b8 fa 04 c0
       2.7962513052556877 -2.622421747078476
000750 51 1f f8 65 1f 50 f1 bf e9 37 82 c4 3a 19 d6 3f
       -1.0820611937687838 0.3452898901967943
000760 6c 6c 49 65 71 5c f6 bf 6a 27 76 ad 95 f4 fc bf
       -1.397569080020527 -1.8097130561677326
000770 6d ce 45 b6 74 48 05 40 6a 82 19 b0 83 66 f8 3f
       2.660378860478707 1.5250279311077528
000780 57 d3 51 2d 2e 7e fc 3f 06 3f 45 5a db b8 a6 bf
       1.7808057565973365 -0.04437909581122139
000790 c2 21 40 b5 2d 30 fd 3f de 55 de eb 56 b7 03 c0
       1.8242623405550238 -2.4645212580896745
0007a0 ec ca d8 d5 a2 c9 fd bf 54 72 01 1b ab 37 ec 3f
       -1.8617275575058398 0.8817954566434971
0007b0 c0 53 75 9c c8 35 09 40 c7 2d b5 df d2 15 f5 3f
       3.151261541681805 1.3178280581076807
0007c0 af 22 7f fa 20 4e 06 40 02 8e f1 0f 10 8c 06 c0
       2.7881488390015288 -2.8183900113670015
0007d0 a6 55 6b ca 6c 08 e7 bf fd f6 15 4a 69 d5 0b c0
       -0.7197784379483678 -3.4792047298386692
0007e0 16 c2 b2 90 93 14 d0 3f 67 fe f0 4e 1c 4c e5 bf
       0.25125588541689703 -0.6655408422302117
0007f0 66 34 2e a4 dc 90 e1 bf 53 72 75 df 65 fa e2 3f
       -0.5489333349847925 0.5930661549023831
