Weights/machine/2/bweights.npz (npz, 1788 bytes, 3 tensors)

arr_0 f8 [10, 1, 6]
000000 c3 16 5c cd 8f f1 20 c0 2b 9e cb 54 73 20 24 c0
       -8.471800248614619 -10.063379907470411
000010 eb a5 ca bd 55 ff 26 c0 8d ce f4 58 ef 40 0b c0
       -11.498701029765433 -3.4067065190991515
000020 41 3b e1 09 e3 11 f0 3f 67 94 19 1a 89 37 23 c0
       1.004366911499986 -9.608467879889032
000030 bc 23 ee 84 67 0d 33 c0 ca 88 de b1 57 64 26 c0
       -19.05236082853274 -11.195981558241687
000040 57 09 29 82 e9 6e 32 c0 65 d8 e7 b0 2e ce 30 c0
       -18.433250556009934 -16.805399948695044
000050 73 30 a0 46 65 90 1c 40 93 75 49 b1 e3 62 ff 3f
       7.1410113368293535 1.9616429257651802
000060 a1 95 d0 eb 13 f3 28 c0 c5 f0 22 9b 92 9b 2d c0
       -12.474761361324285 -14.803852890029143
000070 75 c4 9b 6e 3a 57 2e c0 fa ad 19 f6 7f a6 32 c0
       -15.170367676271988 -18.65039003493255
000080 f9 da 23 57 d2 e7 2a c0 fc d0 f2 69 24 94 f9 3f
       -13.452776644827724 1.5986675394643148
000090 1e 3d fc 45 07 92 23 c0 08 f9 75 a1 8c 3e 32 c0
       -9.785211741486417 -18.244333354284237
0000a0 ce 14 d1 b8 30 98 3e c0 43 b2 82 a8 d8 99 06 c0
       -30.594493437810165 -2.8251202740559918
0000b0 53 6f 81 69 9f 94 13 c0 8f b3 f4 93 53 26 36 c0
       -4.89513935902126 -22.149712798348954
0000c0 5b 5c 8f 2c 46 c3 24 c0 f2 ba e6 86 aa 4b da 3f
       -10.381394760608762 0.41086829351381404
0000d0 73 33 f6 f9 49 01 06 40 0b 59 55 32 5e 75 33 c0
       2.7506293800601553 -19.458468576275703
0000e0 92 64 84 50 eb a9 f6 3f e0 af d8 74 aa 51 3b 40
       1.416484179039149 27.319007208730795
0000f0 ec 29 43 70 54 a7 1b c0 ce 5a fb cd 5c e7 1b c0
       -6.913408044909811 -6.975939959017252
000100 f1 f0 c9 e0 f6 ea 1c c0 43 4b a6 1a c8 b7 1e c0
       -7.229457390141975 -7.6794742740629
000110 cc 00 e6 54 9d 63 23 c0 d4 60 8d 2d 19 28 ff bf
       -9.694559720112373 -1.9472896365532977
000120 8c f5 1a c9 c3 83 13 c0 5c 43 7d 82 bd 5c 29 c0
       -4.878676550169427 -12.681133344450863
000130 e9 53 04 05 49 0b f3 bf de 55 ab 5a 58 29 32 c0
       -1.1902551837895265 -18.161504427747666
000140 e8 36 1f e9 fb 4e 19 c0 65 1f c5 4f ed e5 2e c0
       -6.327132837801152 -15.44907616883547
000150 57 d5 e9 6b 2b 27 15 c0 5c 98 57 50 aa 6d ff 3f
       -5.2882515775175625 1.9642737520566902
000160 61 21 90 b2 4e bb 30 c0 e2 79 02 06 a6 18 28 c0
       -16.731669578731616 -12.048141658594378
000170 51 8e 6f 49 9c 76 2c c0 6d 99 de 45 77 4e 20 c0
       -14.231661124103228 -8.153253730223435
000180 1c 68 07 12 a4 b6 2e c0 69 6d bb 2e 3e 34 f7 3f
       -15.356720508007179 1.4502546143983983
000190 cd ff 00 04 d6 20 2f c0 9c 6c 72 f2 21 99 36 c0
       -15.564132809755302 -22.59817424100457
0001a0 1c c1 d3 c5 13 11 04 c0 90 87 1d ca 14 12 27 c0
       -2.5083384948012633 -11.535314861397438
0001b0 91 a5 f4 6b a1 21 30 c0 ea fe 15 75 f0 2c 2a c0
       -16.131369349697312 -13.087772044119863
0001c0 cf 8f ae a5 19 09 28 c0 8b 4c 57 4e 40 d6 21 c0
       -12.017773797568138 -8.918459365994087
0001d0 d6 35 ef a7 cd a8 06 c0 4e a5 6b 02 dc 00 1e c0
       -2.832423507678622 -7.5008392694665655

arr_1 f8 [10, 1, 6]
000000 b9 73 35 a2 51 56 0f c0 bf aa 62 ce 54 db f2 bf
       -3.9171478912889737 -1.178547674363173
000010 c4 dc c4 ed e7 b0 18 40 11 b6 0c f0 58 5d 11 40
       6.17275973810246 4.341159582877951
000020 c2 50 8f a8 00 7e 20 40 c8 9a 24 ed c7 ba 12 40
       8.246098773474277 4.682403283461731
000030 aa 28 85 38 36 0f 0d c0 73 1a af 62 fd 6f ef bf
       -3.6324276366841177 -0.9824206283017943
000040 d9 62 21 2c 17 b4 13 40 39 96 55 b4 64 ce fe 3f
       4.92586964563153 1.9253890079793463
000050 f3 9b b1 a4 bc 1f 11 40 6c a7 27 82 a0 86 11 40
       4.280993054714588 4.381471666021621
000060 2a ff b5 da 5c a6 09 40 68 e1 80 50 8f 87 02 c0
       3.206231793097591 -2.316191319401856
000070 51 fb d0 40 d4 93 12 40 d2 d1 d3 3e 0c eb eb bf
       4.644364369158965 -0.8724423625085882
000080 f4 f6 ae a5 41 21 12 40 36 1b 98 44 36 d5 10 40
       4.532476986698146 4.208214828285056
000090 a0 fa 05 95 45 b7 ed bf d5 61 17 28 a9 ce d7 bf
       -0.9286220465290462 -0.37198857226533494
0000a0 dc 31 4f 16 79 8d 07 40 af 00 14 81 cd 78 09 40
       2.9440786116522144 3.183985718176778
0000b0 0e be 9b d6 f0 d4 11 40 ca 7b 39 2b 0d 23 11 40
       4.457949975257646 4.2842299226603675
0000c0 19 cb cf f4 d5 f7 02 40 fb 2a 99 f1 fd 2c ec bf
       2.371013557998037 -0.8804921835629494
0000d0 c4 97 a7 6f d5 0f fd 3f de 26 f5 ed 92 36 0a 40
       1.8163656579504144 3.2766474333228492
0000e0 de a1 0a 3e 4b 4c 12 40 6c 26 a0 24 1c 6f f7 3f
       4.574505776785797 1.4646264486968006
0000f0 d7 e1 da 16 59 e4 fd bf 64 e2 f7 31 46 a8 f6 bf
       -1.8682490246557018 -1.416082568348565
000100 17 33 ec e7 51 f7 0e 40 8a c8 56 de a2 d2 03 40
       3.870761691947688 2.477849709533136
000110 10 e7 80 7a 3c 96 0e 40 63 a6 4a e6 80 f2 0e 40
       3.8233575411403606 3.8684099189311367
000120 30 aa 39 a5 20 77 fa bf cf b9 17 7f 7a 60 0d c0
       -1.6540838674651575 -3.672108643447451
000130 1e cd 0b c3 7d 60 14 40 20 59 1d db 3e af f7 3f
       5.0942297435715584 1.4802845534482643
000140 45 95 43 11 94 cd 14 40 03 c5 f2 e5 7b cb 12 40
       5.200760144948906 4.6987148217606345
000150 38 90 27 e0 08 15 05 c0 94 ed a5 12 2e 97 0a c0
       -2.6352708351205614 -3.3238183457267017
000160 39 bb b3 18 e5 a1 20 40 13 4d 93 c5 16 c3 d1 3f
       8.316200992526875 0.2775322846839156
000170 dd 6f 1a 11 72 b0 11 40 82 64 0b db a8 34 13 40
       4.4223101303468555 4.8014253831580636
000180 e9 8f b5 c4 68 71 03 40 4b bf e0 99 62 e8 06 c0
       2.4303756111057635 -2.8634693166458525
000190 67 97 a6 2c 89 12 15 40 7b 9b 40 1b 65 e7 07 40
       5.26810140387338 2.9879858140079114
0001a0 1f f8 fc 69 ae 3b 0d 40 8d 42 10 69 e2 40 0b 40
       3.6541412620854454 3.4066818435752055
0001b0 75 11 94 e9 b6 03 dd 3f ea 21 17 43 17 f9 ea bf
       0.4533517151869753 -0.8429066000326746
0001c0 8f 86 95 22 3c f8 11 40 ec 6d 3f 19 f3 f5 06 40
       4.492416897178955 2.8700925800783263
0001d0 e5 ef 3a 0b e2 d2 0f 40 3c 12 41 2c 9a c0 11 40
       3.977970206962697 4.438088122817643

arr_2 f8 [10, 1, 1]
000000 e7 8e b1 0d 69 ad 48 40 f0 a2 d7 de 93 2c 4d 40
       49.354768478105875 58.348262648860214
000010 08 19 f3 42 1e 3c 4b 40 33 06 12 14 e9 3b 4d 40
       54.469673508358085 58.468050488282096
000020 39 39 8f 25 c9 e0 41 40 fc 13 00 26 a2 91 49 40
       35.75613851064049 51.137760877645604
000030 68 14 bc 1a 7c 3a 4b 40 6e c2 df 7b 0f d7 4a 40
       54.45691236671047 53.68016003061062
000040 9e 30 6e 6e 18 30 4a 40 52 a4 c6 b3 c3 c4 47 40
       52.375745586208026 47.537222358697036
