Weights/machine/2/weights.npz (npz, 1372 bytes, 3 tensors)

arr_0 f8 [1, 6, 6]
00000000: 297f 62e4 a2a4 f6bf cf49 15ae 49eb 06c0
00000010: 7f47 b319 3efd 0fc0 63e5 3699 39e6 07c0
00000020: f315 eefd 0a1e 11c0 a861 cd4a 8ca4 21c0
00000030: f79b ff39 fe52 3240 f0f7 24a5 fbcf 0540
00000040: 1b33 d958 59fb 2b40 98ca ea56 3910 0940
00000050: 0782 3ea4 c066 3040 ed75 2e97 3e95 3340
00000060: 908e 7a46 e382 4440 4978 9c1e 2b06 e7bf
00000070: b338 a42a 01e9 1e40 1cc0 232e d187 edbf
00000080: de7b 1316 721d 2d40 6356 14eb 6156 2640
00000090: d526 a086 9c70 3440 9706 2a47 82f0 2840
000000a0: 0321 e7da a5cb 1540 f31a 6d71 9635 1440
000000b0: bf73 517d e6da f13f 0e10 bbca e18f 3640
000000c0: 81ad 54d2 32ec 1540 2aa3 89db bd0d f4bf
000000d0: 0d3b a067 279d fd3f 0ffd 9e8d a4b0 fa3f
000000e0: d1bb 501c a6d4 1140 55cd dd72 34f8 2240
000000f0: a850 afd4 d466 4140 d775 e882 d651 f53f
00000100: 4cc5 adfa af27 1440 a86b 5347 48d1 0840
00000110: 7c68 0aee 96b5 1040 82dd 506b 242f 1640
-1.4151944085387618 -2.8648866272207907 -3.998653603347463 -2.9874145479085867 -4.279338805824852 -8.821382844515782 18.32419168940029 2.7265541936785596
13.990916039003016 3.13292186645533 16.401376977215502 19.5829863060407 41.02256089195464 -0.7195029828906253 7.727543512604984 -0.9228292370953599
14.557511033895874 11.168715807182883 20.43988839540437 12.469743942146392 5.448874874455444 5.052331707271821 1.1159424681893453 22.56203906123124
5.480662619036026 -1.2533548904122633 1.8508676574599037 1.66812568016741 4.457664911677925 9.484775151801538 34.80337008056932 1.3324799645991925
5.038757244926568 3.102188641770642 4.1773335641720415 5.546037365732788

arr_1 f8 [1, 6, 6]
00000000: 8c39 4ab4 7e28 04c0 2d73 7772 f095 d6bf
00000010: b6a2 11d1 88a9 f23f 7528 f8fe 74f0 fb3f
00000020: 03e5 b320 ac2a 1e40 d781 3d01 035e e8bf
00000030: 6804 693a 0960 1340 a1f5 4281 c890 edbf
00000040: a142 80bb 983f f8bf 8dff 3b2f dc6f f1bf
00000050: 3029 2697 e3ce ecbf 9ab9 7565 1a44 2240
00000060: 8e72 7b57 c09c 2840 a108 a6e0 b9dc a43f
00000070: be80 73a2 7847 eabf 1eec 617f c355 d8bf
00000080: 1cff 5053 3a28 1a40 b419 89b2 abf5 1840
00000090: 1689 a516 83e4 d6bf 1f59 62db 1d36 01c0
000000a0: e405 8716 415d f6bf 3d0b 5e37 9fe0 e8bf
000000b0: fb19 1fca 246d fdbf 0412 66e1 f629 2040
000000c0: 6635 ae60 6c38 2140 dfea 88ec 6191 f53f
000000d0: 1d7c 251d d0fa b03f 02ad c505 4756 f23f
000000e0: 3f5b 5395 9090 2340 9dd6 8f5c 311c 1040
000000f0: 3562 f9dd f621 1540 2bef 9294 6708 f63f
00000100: b5a2 d82b 10a0 d63f 24ac 2c66 0c96 0740
00000110: 9f6b 729a f79f 2240 2c11 ffe1 3524 1140
-2.5197729191924676 -0.3529015653455641 1.1663902441743352 1.7462053260556136 7.541672240238088 -0.7614760421966434 4.843785202655546 -0.9239237332000593
-1.5155265163668121 -1.0898095936863428 -0.9002550079469867 9.133013887997368 12.306154950923226 0.0407465063790522 -0.8212245152353927 -0.38023459853838115
6.539284993952403 6.239912786119408 -0.35769726955017356 -2.1514241351498096 -1.3977671508767964 -0.7774196702378969 -1.839146413361617 8.08196167345978
8.610201855912873 1.3479937781946132 0.06632710181791919 1.146063826129478 9.782353083062501 4.027532049445338 5.283168285700005 1.3770519069357288
0.35351948053225196 2.9482658369429533 9.312435938327154 4.285361796563205

arr_2 f8 [1, 6, 1]
00000000: e11c fcfe 7e71 5740 bc59 9c9b 1e50 5740
00000010: 367a 1380 2a4a 5740 bc27 94bb f534 5740
00000020: c58e 643d 2b84 5b40 0a6f cf9b 2347 5140
93.77337622280494 93.25186815518003 93.15884401228035 92.82749833553584 110.06513914890373 69.11154837853624
