Weights/machine/2/weights.npz (npz, 6988 bytes, 3 tensors)

arr_0 f8 [10, 6, 6]
-3.136354073546052 -3.9724798571810673 -6.2555313821304335 -2.7125993876932886 1.5024246440687292 -3.0308128002504686 6.940418426852776 10.674328099809802
13.289346026507252 9.519799520796463 8.103870456678195 10.552403873746238 7.752210599189673 4.672321709311675 14.626150500918374 13.039461583430457
12.084575640725097 7.1217569141552906 11.48492383357561 4.352372744836614 13.629914519615776 16.455105258351896 2.5265580639679297 3.7208650160148404
1.8574768302381564 -2.756806152547026 0.5989071984302065 4.050780124053841 3.3353874151983787 5.691446960866495 4.158206428582586 0.6628395211370554
3.619539739252076 1.6146938972026812 5.284449856594058 2.05626408038424 -7.169100462449341 -1.4708210697093478 -10.298086936628252 -5.705138211251609
-1.8702022351289753 -1.5735398822724374 12.87092544048521 2.469856619729049 21.586521618365513 14.54245041532014 16.746463414436477 11.487177508938125
12.924844710765415 -0.7688646682930778 12.73930655717397 23.178061457716343 34.71038817921181 20.561311425393832 2.1118436538990073 -1.6614118092577588
23.321737373756488 17.132049253268946 11.460772800696894 4.340203252022894 4.439523340932293 0.9598971429463274 8.184048252400695 3.325515917227392
13.61765488422167 6.080771969869458 6.648607388998448 -0.6121071937516408 2.4090141180661444 3.63401421685376 31.16657407352855 18.28064126093595
-4.307840356699848 -3.182248135387875 -4.321118324154679 -5.484858341716352 -6.61297122778558 1.409076966578489 26.369462271231967 3.634851289362733
2.9444906122667738 19.80360910998496 10.906465360385239 16.36524292820117 20.357819410883465 3.7293706122412233 6.362003718816031 16.483085734983927
19.536374118943815 14.085421953257375 9.665599070687534 1.5172293996589652 2.698602201077466 13.098983529103894 22.34223603487353 6.239802277710137
10.877972321217626 -2.8566597161325826 0.719751580975798 10.296465868665297 10.157151132088751 7.851677868818317 2.91744276757753 -0.5896098362493668
1.8236230319904458 -0.4115722954416157 9.471658239481236 4.716157637109625 -1.8806288383132008 -3.19089981154971 -7.376325359875983 -1.0320369295005691
-3.0304209007192116 -12.04084787697665 2.530265203021577 7.904630755443601 8.641374069661815 4.649039001653604 20.184613574100744 20.44417304599333
-1.558297632401111 -2.6788236746655727 8.761270195490491 9.601445605662205 30.305800833321996 18.23378275188228 7.823205849073768 12.551932597323505
-11.28318616786448 12.63105486881724 1.6101566869208395 15.728085924734037 -0.0035080943731073226 2.1204216017772697 -1.2794993144856264 1.1464111345356143
11.329939946824295 12.089347936565163 -0.9834575271811195 -0.6361859702579037 -11.967422405067522 4.7201694513936845 22.19523558434137 -8.116481722486766
-11.023425386174239 -0.44882732124830266 -1.2617258997240397 -8.711892830862197 0.19593956858222122 -2.426932051572499 28.860421609616022 10.926162260210745
25.68690119624524 17.301834411953 18.544250909191295 33.03497192863685 65.62768378999512 20.116495238444877 25.518034155798222 13.066074708461658
17.83653441243637 99.72331506794524 20.342040212514643 8.91241476655643 6.06120373861515 20.477203236051167 -0.6034691379106307 22.002498902365357
13.136877931483422 2.7194485471713206 14.726552653887675 7.588200914333849 10.841882582725594 23.775481374844166 44.41130994074802 16.51909133909741
10.33742603209576 -1.2318133032678507 4.210064026644633 85.87042015462775 -2.3425814561173883 -2.4315259166354553 -2.9903904169516657 -2.013046712952714
-2.1520122001608537 -0.40193127886681285 11.29892554726878 9.061860680077569 4.1190667446608105 1.3751641389513956 12.654564739599428 4.72487748300881
5.826097871745512 1.3508178214298752 0.40732870418777195 -1.3930858441665968 15.574452783714326 6.592791830808994 0.7865981114428516 15.312558594723564
14.270734583637688 4.500321640703695 -7.744250373058522 6.868936907403677 -1.0059787841573589 -1.8848246841532332 4.245130527105536 1.447337840647385
9.674618150779361 2.275621918820384 0.37552752006465884 4.920461880760814 2.7493387637500057 1.0823833343993323 2.4670740616274487 1.1262461007514353
-1.0147935026585821 -3.430921765869133 -0.8095505299326056 -5.524682732197426 -5.151846196204938 -4.720562022213231 6.93138650655972 6.232327867714796
5.8610433374137445 5.534671004863707 13.705158742243679 6.895360209616383 16.727397132154024 5.196898869611334 11.906637629836057 -0.5202635627465261
10.079904339449067 10.630585840468276 9.161403493971513 0.3702594467048946 3.6784303228745854 14.638920709864134 11.410963187074588 17.61136052276959
3.610624856212323 -1.1327437157081452 1.3289350113158283 -0.29772549633579587 8.11087972697076 6.090829169165434 14.68556645881587 -0.7324277566661509
7.117943158102108 6.355808326975065 10.586046681124305 -0.6594960748066085 -1.5613668180615956 -0.3987872739740653 -3.414609441525426 -4.015394244644908
00000000: 1074 f4cd 4017 09c0 38e4 f484 a3c7 0fc0
00000010: 5668 c504 aa05 19c0 a156 ca4e 67b3 05c0
00000020: 93ac 6f6c ee09 f83f d6fd 0ac8 1a3f 08c0
00000030: c48d 4f0c fdc2 1b40 f2e9 5e88 4159 2540
00000040: 0327 9229 2594 2a40 3598 ac29 230a 2340
00000050: 28e8 2c82 2e35 2040 fdd8 37ae d41a 2540
00000060: 97e5 cc7e 4302 1f40 b189 271a 75b0 1240
00000070: 0aa3 67cc 9640 2d40 7b90 044f 3414 2a40
00000080: b3e7 957f 4d2b 2840 776f 31d8 ad7c 1c40
00000090: 3284 ccef 47f8 2640 cf4c 9c66 d468 1140
000000a0: f50c ea27 8442 2b40 e9db 38c7 8174 3040
000000b0: a97f 0113 6436 0440 ffe9 a4e0 54c4 0d40
000000c0: c335 ef9f 39b8 fd3f fbce 5462 f00d 06c0
000000d0: 5318 d36d 3f2a e33f 6c64 70b4 ff33 1040
000000e0: d622 de98 dfae 0a40 5a5c 0fac 0ac4 1640
000000f0: de1d b3dd 00a2 1040 61f5 383a fb35 e53f
00000100: c047 3540 d1f4 0c40 b194 9844 c9d5 f93f
00000110: 88b1 bdd2 4623 1540 c384 0995 3a73 0040
00000120: 66d5 efab 28ad 1cc0 cdb5 8aac 7b88 f7bf
00000130: c85d d8d9 9e98 24c0 41f1 51c0 0fd2 16c0
00000140: 928f cc2d 59ec fdbf 2bfd d427 382d f9bf
00000150: d946 78f0 e9bd 2940 ed5c fc2f 44c2 0340
00000160: e146 e147 2696 3540 d400 930f bc15 2d40
00000170: 48aa f039 18bf 3040 d478 9854 6ff9 2640
00000180: 693b f53e 85d9 2940 0acc ab13 8a9a e8bf
00000190: a58f 9963 867a 2940 dd91 896f 952d 3740
000001a0: 0197 f6ff ed5a 4140 0af0 061b b28f 3440
000001b0: 4e17 1e49 0ee5 0040 4834 9f8c 2495 fabf
000001c0: 5f2f 6a61 5d52 3740 5840 d8fa cd21 3140
000001d0: 4cc2 9b69 eaeb 2640 86b9 c53d 5e5c 1140
000001e0: 0c88 1c68 12c2 1140 584e 8f36 7ab7 ee3f
000001f0: d5e4 9192 3b5e 2040 808d d616 a89a 0a40
00000200: bbe4 cf42 3d3c 2b40 5e17 24e3 b552 1840
00000210: e6c4 0e89 2c98 1a40 83e8 59d3 6196 e3bf
00000220: 2c92 a531 a945 0340 07b0 b40b 7612 0d40
00000230: a82a 3699 a42a 3f40 cca0 0d1b d847 3240
00000240: c7a8 a180 3a3b 11c0 b5fb a982 3e75 09c0
00000250: 0d90 f13d d348 11c0 4675 83b4 7ef0 15c0
00000260: 81e9 c2ba ae73 1ac0 2006 104a 948b f63f
00000270: 140c 5414 955e 3a40 4a17 ade9 2c14 0d40
00000280: bb84 1818 518e 0740 3027 9e53 b9cd 3340
00000290: 779f 4b3a 1cd0 2540 24b8 7f8f 805d 3040
000002a0: 549e 8b0d 9a5b 3440 9aea 7142 c0d5 0d40
000002b0: 8561 551a b172 1940 8beb b881 ab7b 3040
000002c0: d548 73d0 4f89 3340 a533 1f6d bc2b 2c40
000002d0: b0b3 c166 c954 2340 1d0a c155 9246 f83f
000002e0: a654 34c0 bc96 0540 12b0 18f8 ad32 2a40
000002f0: 664b e1c7 9c57 3640 dc15 71ba 8ef5 1840
00000300: 88d8 8c96 85c1 2540 7fb8 c468 70da 06c0
00000310: 9321 b177 3408 e73f 6a98 d45f ca97 2440
00000320: 7db3 f91c 7650 2440 e434 453e 1e68 1f40
00000330: e893 d53b ec56 0740 07e9 8272 15de e2bf
00000340: ea19 2a58 8f2d fd3f 0121 3753 3357 dabf
00000350: f4eb 5230 7df1 2240 79aa 786d 58dd 1240
00000360: c483 c743 0e17 febf 3a59 fb7a f686 09c0
00000370: 864a 656f 5b81 1dc0 da81 c727 3983 f0bf
00000380: 8aa1 2d50 4d3e 08c0 9573 4f03 ea14 28c0
00000390: cd79 c9ae fb3d 0440 1b58 5686 579e 1f40
000003a0: 5c66 9b2e 6248 2140 0eb9 17ae 9d98 1240
000003b0: 0e29 cfd5 422f 3440 5a4e 2253 b571 3440
000003c0: 528d 897f c9ee f8bf 7083 531b 3b6e 05c0
000003d0: 351a 0235 c585 2140 bf48 adad f033 2340
000003e0: 2035 a2f6 484e 3e40 0ab4 b92f d93b 3240
000003f0: 4b97 5e79 f64a 1f40 9b33 cee8 961a 2940
00000400: a550 03c7 fd90 26c0 6d1a af9f 1943 2940
00000410: e52b 7ca8 33c3 f93f 3bd2 a6ad c774 2f40
00000420: 5825 52d3 01bd 6cbf 27ec ca99 9ff6 0040
00000430: e085 ef45 d478 f4bf 8c9c a933 b357 f23f
00000440: 3782 82e3 eda8 2640 6106 4303 bf2d 2840
00000450: 1eef 87eb 7b78 efbf b1d0 0dae a25b e4bf
00000460: 875d 4efd 51ef 27c0 ad41 c519 74e1 1240
00000470: fac2 91f5 fa31 3640 2753 097e a33b 20c0
00000480: 7007 8769 fe0b 26c0 0704 943a 96b9 dcbf
00000490: 794b 3d7f 0730 f4bf b89e 9537 7d6c 21c0
000004a0: 5ac8 863b 8c14 c93f cef1 f859 5b6a 03c0
000004b0: 8f12 3297 44dc 3c40 08ca 94f0 31da 2540
000004c0: e374 bdc1 d8af 3940 4125 2005 454d 3140
000004d0: 7dcb 0f07 548b 3240 fce2 ccf5 7984 4040
000004e0: 8990 a1f8 2b68 5040 ae42 c7a1 d21d 3440
000004f0: 455d ede2 9d84 3940 01df 4f8b d421 2a40
00000500: 8e64 871e 27d6 3140 d861 48cb 4aee 5840
00000510: d3aa 86f2 8f57 3440 a47e 3d07 28d3 2140
00000520: e2fa 5e31 ac3e 1840 9862 c4fd 297a 3440
00000530: 4e16 6f82 9e4f e3bf 63ef 9fc4 a300 3640
00000540: e687 3edd 1446 2a40 560b 6a3d 6ec1 0540
00000550: 058a 9eb5 fe73 2d40 2b2a 2a57 515a 1e40
00000560: c3c1 df3b 0baf 2540 e19c 87f2 85c6 3740
00000570: 2704 dccd a534 4640 6b0f 852b e384 3040
00000580: 3657 d91a c3ac 2440 a802 c5dd 81b5 f3bf
00000590: e304 3206 1bd7 1040 f379 bcf6 b477 5540
000005a0: 04ec b158 9bbd 02c0 0a9b 1adc c373 03c0
000005b0: 38a2 98cf 51ec 07c0 1e9e 2b3c b81a 00c0
000005c0: 5f45 222c 5237 01c0 153c 7ef8 3db9 d9bf
000005d0: a8ea f2c4 0c99 2640 d6ae fb33 ac1f 2240
000005e0: fd6f f9a1 ec79 1040 16da b61c ac00 f63f
000005f0: 7b63 0b1c 234f 2940 bf84 6c48 46e6 1240
00000600: cac4 b999 ec4d 1740 1353 de25 f39c f53f
00000610: b358 cd69 ac11 da3f 1675 d361 144a f6bf
00000620: 634c deac 1e26 2f40 73a4 5ad2 045f 1a40
00000630: d5c1 77cd cf2b e93f c5d7 1cae 07a0 2e40
00000640: 773d 2db9 9d8a 2c40 b736 f150 5400 1240
00000650: e249 11c5 1cfa 1ec0 3e58 be98 ca79 1b40
00000660: aacf a635 7d18 f0bf 4e1b 92ed 3d28 febf
00000670: 96ad 347f 03fb 1040 1d80 3db9 4b28 f73f
00000680: 4dc5 dd8c 6759 2340 8f27 bb43 7934 0240
00000690: 903e 5b94 a408 d83f 5354 2c8f 8dae 1340
000006a0: 6573 5f52 a5fe 0540 64b0 ef2f 7151 f13f
000006b0: 8dff 5b53 91bc 0340 5699 9fa1 1a05 f23f
000006c0: 57ca a11c 983c f0bf 0857 5c1c 8772 0bc0
000006d0: eca3 5083 d6e7 e9bf 6741 1e6e 4619 16c0
000006e0: 8be3 ba91 7d9b 14c0 f294 c002 dbe1 12c0
000006f0: 5270 6662 bdb9 1b40 4a23 475b e7ed 1840
00000700: dd85 3a58 b571 1740 4c09 c0cb 8023 1640
00000710: a6d9 1091 0a69 2b40 aec4 894e d994 1b40
00000720: 44ce cdb2 36ba 3040 7366 76db 9fc9 1440
00000730: 09f0 b2ce 32d0 2740 2b7f 69c5 ffa5 e0bf
00000740: 057c b938 e928 2440 8b43 b425 dc42 2540
00000750: b422 907a a352 2240 257c a8ad 54b2 d73f
00000760: 76e3 8ae0 6c6d 0d40 0635 839d 2047 2d40
00000770: c9b0 50c4 69d2 2640 615c 8b1f 829c 3140
00000780: fa73 dc48 8fe2 0c40 c274 dbdf b71f f2bf
00000790: 22c6 c15b 5143 f53f a9a5 7c3d ef0d d3bf
000007a0: f541 423a c538 2040 835a 5c52 025d 1840
000007b0: 88b2 1f91 025f 2d40 5b0a b255 0c70 e7bf
000007c0: 9057 5b17 c678 1c40 7002 a004 596c 1940
000007d0: 6ab7 824f 0e2c 2540 e64f 2483 971a e5bf
000007e0: 6b25 cac5 5bfb f8bf 02e5 f10e bb85 d9bf
000007f0: 5bb7 3fc1 1e51 0bc0 9e2f 4582 c30f 10c0

arr_1 f8 [10, 6, 6]
2.915516835415044 8.722411597837477 -0.6154335199172263 6.376055545312793 -2.105717166756127 -0.4130321661918843 0.7526159840763296 9.39706568132694
3.3410029149584504 2.853747215750476 7.1235369031583735 0.7877929953824524 -0.10288308880624561 -0.3407296292865516 0.685801529197333 8.685339489095956
2.3085132054293305 -0.597173383220635 3.766921385762288 6.849278887286717 1.2837218458648882 4.2823550386267035 4.041959851797083 1.5539479830478564
-0.6253834078972929 -1.1385990502241992 3.4450569801118323 0.7169852989289838 8.00023367214393 1.3079486308678212 6.363700749306974 10.41767687464432
-0.8952106409303651 4.398427794666098 -0.24683866010652977 -0.8513235042737132 6.799268119604899 14.136931025674752 -1.170729216836995 11.955456270424301
0.47021925576535384 -0.26631566028318476 7.923237394348444 1.4494553463663162 -0.6483832526377624 2.611117302378734 0.5985062410935135 0.40034906264702563
-0.18526327920721836 2.574944087036687 0.35898430485245114 9.540785013083548 1.5269732100193707 0.038300245618409966 9.654910624404785 5.916734974988746
2.312295967807594 5.373341594362029 0.4852397970913882 -0.8535819704036335 3.6018989939149963 -0.8641400337071803 0.4822081574282786 6.755192586916997
1.0599831180477957 1.9036460832860882 -1.1033368201878178 -0.4082214391697465 3.4479229448498065 0.780931700043102 2.4336689431030414 2.454028870827937
11.778805635492642 1.310437894542084 -1.621370905671556 2.031377368682218 -1.2541578980832755 -0.3898447441094169 -2.1152837484553957 6.480594730010569
0.16029048438314075 6.008908956873587 0.48796970388124133 0.05787565264965953 -1.1183810375683765 9.184521794736868 -1.441388693139196 4.643861092521117
-1.3357516062445989 -1.953835546549427 7.413859604839568 12.998421718932464 0.7691125242618416 -5.154999820824042 0.7951200508758767 0.8661928262468532
11.89759260878158 6.757491430422381 1.1792844837215242 -1.6609917944023023 0.3157255090721171 1.0601097531293042 5.936585580458902 1.759983137943937
1.7625648896359098 -4.145362192711726 1.788793518755398 2.7003752065743405 5.516550329681101 6.973722847510304 -0.0570371766472186 -1.8512359582482785
-2.774126963964392 -2.3964830280974936 8.609946455111096 10.647399753427809 7.839127886213138 -5.728705894637787 1.0591449392810268 0.3103681673055753
10.881293868604653 8.492048179798354 7.761515689409537 -4.4251279424506365 -0.7443103931841858 -1.1253929987959035 1.8789598945542658 2.4261321177360586
2.586727740523439 1.112125507308223 0.9034573419962463 0.47250597698483277 2.4063084084669795 7.136873380213451 4.168433315804257 -0.7421559746630113
-0.7482543963947418 -0.06773527257339462 -5.542467192684158 8.334512488479493 13.95242790869888 -2.410367220635418 -0.3292599939276469 -0.9017009647101689
12.444390799521958 10.19625346351979 -3.0886961573672274 0.8230022265400115 -2.269945211145974 -1.6137609600830114 8.037758568805984 0.5080752307673589
-4.3880751819106205 5.365711242206409 1.8158317160549704 -3.9580203273548342 3.0891523648032257 9.89453081159241 -3.414780866065054 4.389988490822235
2.1539984191173063 -4.025367669170489 1.6819929859929614 17.881588360498476 12.960735972815609 5.47707615768392 0.18474901040309716 3.0375702927020773
10.915725693868856 6.526575819008704 -4.66232265963433 4.845835689889167 1.4846698158089324 -4.096398218399828 4.1296595221761105 13.031964518010655
9.930539697299533 2.694693053217126 1.1875423833979526 3.3249913269801623 6.754180886962384 5.644976495444278 -1.7799955483898582 -0.6559688404291569
-1.773257616088353 -1.917603451138922 2.685642172338506 2.581588970776305 1.184458016386574 3.699201465656244 1.2600076684513477 1.1008300509059967
2.9020625012272974 3.2547578610215444 -0.9344602561288373 5.720334546424901 -0.8749046268715867 -1.037226620389343 5.768629597320371 3.3243037262845854
-2.0179907475764196 -0.7954612003219635 -1.9569185559526872 -2.0096022033722742 4.808406445002792 5.696934824998839 0.20263649041899506 7.896851154108489
0.2092861992328714 0.09559451653471411 -0.34073243354386346 2.0524276759986133 1.0494207336041876 4.5327777495374075 1.1735986753089123 2.107605808650093
-1.7573463033582253 -0.26088936924113837 -1.6081080170690365 0.7496728771544782 -0.7282867959394999 -0.03501108758520174 7.698864223249259 6.876657722446264
-1.5608994040489577 6.337585861590867 -1.773636664050038 -0.7723352189453516 0.9529781440452799 -2.975356261438997 -0.8203151521240951 -0.6470534631873753
-0.8629381760662634 -0.5959951678360113 8.617954068361776 7.762062489955944 -2.215187236031878 6.050991744448147 -2.4557715765987873 -1.354159353676438
0.9713000192141661 -3.9948716481752484 -0.10163598704737602 6.846456478940958 -0.14746454083750227 1.3653265190416894 -0.597460024158905 -2.867176580956389
0.5819572767779386 10.308391757589922 0.8466290046192336 1.4212111307657829 5.215045121259681 8.62085903481643 3.7456164184685474 -5.271103280406623
00000000: 385c 987d fa52 0740 17ed d5ee df71 2140
00000010: 4a03 1da3 a1b1 e3bf 3e64 72b4 1481 1940
00000020: 2bbf ee3d 82d8 00c0 1c5f 7f77 1e6f dabf
00000030: 0ac0 c11d 6e15 e83f 8a53 6731 4ccb 2240
00000040: 9db2 7cbc 5fba 0a40 4598 956b 79d4 0640
00000050: 47a8 3b75 807e 1c40 b7ef e5a7 9935 e93f
00000060: 56fa bbcd 8b56 babf a417 a4a5 83ce d5bf
00000070: f260 6e0c 16f2 e53f 22a6 48d1 e45e 2140
00000080: f59f 7dc5 d577 0240 7c2d df5a 0b1c e3bf
00000090: c09d f3ad a722 0e40 a251 585d a965 1b40
000000a0: 3c68 12eb 1f8a f43f cf0c e3ad 2121 1140
000000b0: 9ada fc85 f72a 1040 e402 6e8f f8dc f83f
000000c0: 2628 8c10 2403 e4bf 7883 3fa3 b337 f2bf
000000d0: a77e b308 7a8f 0b40 ce9b 5327 8bf1 e63f
000000e0: ad6e bca0 1e00 2040 e6cd 268b 5bed f43f
000000f0: 7337 1ff8 6d74 1940 23c9 49be d9d5 2440
00000100: be77 3ac9 90a5 ecbf 18a2 af74 fd97 1140
00000110: 80e3 45c2 6898 cfbf af7e 25ca 0a3e ebbf
00000120: fbc0 8957 7332 1b40 5e29 cad2 1b46 2c40
00000130: db95 2c8f 4ebb f2bf 0576 7490 31e9 2740
00000140: be8b 5d81 1218 de3f 1a0d d5d6 500b d1bf
00000150: ecae bc24 65b1 1f40 ab7d da16 f830 f73f
00000160: 324e 2b3c 8ebf e4bf 29e4 dd77 91e3 0440
00000170: 5f5a 7e8f f626 e33f 2068 c3ac 519f d93f
00000180: c61f ac06 b5b6 c7bf 27cf 1649 7c99 0440
00000190: ae96 474e 99f9 d63f b7b8 f2c5 e114 2340
000001a0: e06b ee75 7b6e f83f b33c b8fc 169c a33f
000001b0: 343e 0372 504f 2340 44b4 c292 bcaa 1740
000001c0: 1240 4307 957f 0240 ed15 4842 4d7e 1540
000001d0: 7c69 ce38 2b0e df3f d3d7 ea22 8b50 ebbf
000001e0: b7e1 726b b0d0 0c40 42f9 fdff 08a7 ebbf
000001f0: 4435 819a 7fdc de3f e7f5 9b34 5105 1b40
00000200: fd3c a5db b0f5 f03f b3f4 6d98 5575 fe3f
00000210: 74de 7282 44a7 f1bf b8a5 b0d0 4c20 dabf
00000220: 3e10 fa9f 5895 0b40 a408 037a 64fd e83f
00000230: fb58 3f6c 2778 0340 982a 7de3 d9a1 0340
00000240: 46c3 bc9c bf8e 2740 23f5 c7b9 8df7 f43f
00000250: 47b9 689e 22f1 f9bf e898 22c7 4240 0040
00000260: b49a 44df 0711 f4bf 71ea 9d5e 37f3 d8bf
00000270: 7d02 cbe2 19ec 00c0 f419 6006 21ec 1940
00000280: 288e 240a 6684 c43f 75a7 f96d 1f09 1840
00000290: 87f5 e647 e53a df3f ddd9 baa6 e0a1 ad3f
000002a0: e129 cd83 e3e4 f1bf 9196 03a4 795e 2240
000002b0: 61b6 1d97 ed0f f7bf 1c2e 7e52 5093 1240
000002c0: 7d66 8613 3d5f f5bf bd12 e30f e942 ffbf
000002d0: 8baf efcf caa7 1d40 b1dc ac21 31ff 2940
000002e0: 77c1 54de 919c e83f ec4c e545 b89e 14c0
000002f0: e0fb dc9a 9f71 e93f 4a52 9804 dab7 eb3f
00000300: 48b2 2742 91cb 2740 55a8 62d5 ab07 1b40
00000310: 203a 2468 59de f23f ac1d be21 6c93 fabf
00000320: 8b92 fec3 d834 d43f a3c6 fda4 35f6 f03f
00000330: 97e7 574a 10bf 1740 cfb0 2f14 e428 fc3f
00000340: 7b06 e13d 7733 fc3f 3c16 9fd3 d994 10c0
00000350: 819e e5f3 e59e fc3f 0b54 f950 5e9a 0540
00000360: 96df d291 f210 1640 f2b2 259a 17e5 1b40
00000370: db42 b610 fa33 adbf 72b0 9d98 a99e fdbf
00000380: 416e 497a 6931 06c0 43c8 384b ff2b 03c0
00000390: ce06 dae6 4a38 2140 62d2 00fb 774b 2540
000003a0: c4c9 3157 445b 1f40 a37c c7e0 31ea 16c0
000003b0: 83f9 bef6 41f2 f03f 7300 1372 12dd d33f
000003c0: 05a5 2ff3 38c3 2540 9d94 30bd edfb 2040
000003d0: 929e d5c4 ca0b 1f40 d8c3 45bd 54b3 11c0
000003e0: 3d91 9907 64d1 e7bf c49c cf16 9c01 f2bf
000003f0: eab2 1940 3810 fe3f dd9c abf4 b768 0340
00000400: 16a2 4950 9eb1 0440 c9fa ae1d 44cb f13f
00000410: 138f 265f 1fe9 ec3f e41e 94b5 893d de3f
00000420: d6a4 739f 1e40 0340 c8d6 0e89 288c 1c40
00000430: 97be 7bc8 79ac 1040 2aad f6e2 bdbf e7bf
00000440: fd50 3334 b3f1 e7bf 3006 7d4c 1957 b1bf
00000450: f1ec 0e85 7c2b 16c0 fa3e 8c38 45ab 2040
00000460: 9851 7fa1 a4e7 2b40 17d6 ff9b 6e48 03c0
00000470: c939 7382 9812 d5bf 5b75 46fb bbda ecbf
00000480: 222e dd30 87e3 2840 a516 7f55 7b64 2440
00000490: 8862 b954 a6b5 08c0 f9c8 f0c3 0856 ea3f
000004a0: 91ab ec08 d928 02c0 b8e3 3103 f7d1 f9bf
000004b0: b854 5417 5513 2040 f1b5 81fc 2642 e03f
000004c0: 0ec8 9a94 638d 11c0 6839 0402 7d76 1540
000004d0: 35ee b78e a50d fd3f 4823 b78f 06aa 0fc0
000004e0: ff86 d983 95b6 0840 841b 4af1 ffc9 2340
000004f0: 360c 76a1 7851 0bc0 7297 9724 598f 1140
00000500: cdf4 ed85 633b 0140 1cda 75fb f919 10c0
00000510: f90e 2f7a 71e9 fa3f 0ee0 58c6 afe1 3140
00000520: e6aa de95 e5eb 2940 abd0 fba6 86e8 1540
00000530: 4228 d306 dba5 c73f 0ea7 53a7 f14c 0840
00000540: 1b8c 86ff d9d4 2540 f606 06b1 361b 1a40
00000550: e31d 4ae9 37a6 12c0 4c74 47c0 2262 1340
00000560: 931f 0423 35c1 f73f 01ae ed36 b662 10c0
00000570: 0e72 3d77 c584 1040 f1f9 3ea7 5d10 2a40
00000580: fe0f ffb2 6fdc 2340 889b 423b bb8e 0540
00000590: faed 3471 2c00 f33f 53e8 860d 9599 0a40
000005a0: 3c16 93fe 4704 1b40 cb7c eab7 7494 1640
000005b0: abc2 b59c dc7a fcbf 1fd3 9a5d b2fd e4bf
000005c0: e9b7 c760 435f fcbf 1a6a d5f4 80ae febf
000005d0: 459e 97f6 317c 0540 9796 491e 18a7 0440
000005e0: 8cd8 bd3f 8af3 f23f 7f78 22f0 f697 0d40
000005f0: f152 0bcd fd28 f43f 3b86 b1f8 ff9c f13f
00000600: edc0 6d8b 6c37 0740 3ee4 4b7d be09 0a40
00000610: 4486 ef31 19e7 edbf b84b 1c61 9fe1 1640
00000620: a10a f1fc 37ff ebbf 2cce d1f0 7a98 f0bf
00000630: 21ea 1ca3 1313 1740 e5e7 528d 2c98 0a40
00000640: 40c5 4355 d824 00c0 e5d4 130c 6b74 e9bf
00000650: 9309 ecd4 894f ffbf afa0 eb51 aa13 00c0
00000660: 84a6 2ce6 ce3b 1340 0541 6348 a9c9 1640
00000670: dab3 a915 feef c93f 701a 2126 6096 1f40
00000680: 18cb 9ae2 e3c9 ca3f 138b 31da e178 b83f
00000690: 0779 b068 8fce d5bf fc8d 8e33 5f6b 0040
000006a0: 6430 2965 6dca f03f d632 897d 9021 1240
000006b0: 8d4a 9167 0fc7 f23f 2218 286f 60dc 0040
000006c0: 9eb8 4a28 171e fcbf caf1 3053 69b2 d0bf
000006d0: 64f3 db78 cfba f9bf 6774 42f9 51fd e73f
000006e0: a066 551c 204e e7bf cb06 5a28 f9ec a1bf
000006f0: cfcc 1c10 a3cb 1e40 2cc5 de8f b281 1b40
00000700: 53c7 4ba7 71f9 f8bf c07f ac1b b059 1940
00000710: a14d b1d6 d060 fcbf c86a 5d59 f8b6 e8bf
00000720: ab45 4f05 cc7e ee3f 71a2 6695 87cd 07c0
00000730: fd28 d98f 0540 eabf f9e7 e476 a9b4 e4bf
00000740: 6f95 9585 309d ebbf 19c0 4d75 6412 e3bf
00000750: 8416 c479 643c 2140 f779 ff1b 5a0c 1f40
00000760: 3a30 ea15 b4b8 01c0 4815 0b2e 3734 1840
00000770: 5581 7f91 6ba5 03c0 06ce 99ff a2aa f5bf
00000780: e420 24c7 e314 ef3f e00a 4544 7ff5 0fc0
00000790: b314 77e8 d004 babf a827 ba7c c562 1b40
000007a0: c4bd 1b3a 1ee0 c2bf 4954 ba9e 60d8 f53f
000007b0: 78c1 0d7c 641e e3bf af84 7846 faef 06c0
000007c0: 62c6 eddd 649f e23f cb68 4286 e59d 2440
000007d0: 95e8 d5b5 9517 eb3f 7d9a f5e1 47bd f63f
000007e0: 14e6 cbc9 34dc 1440 e6ec 433c e13d 2140
000007f0: e976 a5bd 05f7 0d40 33bd 2c19 9c15 15c0

arr_2 f8 [10, 6, 1]
90.63024224491322 85.90324510751327 95.14783486977724 91.08703801031989 93.7711409380522 95.57161084896413 105.63470465558899 99.60443585232612
112.54594799313415 124.16908407172313 113.60792900899585 113.26059107076752 90.67125350778592 139.23749918458844 105.83996693327612 90.0801543413407
105.57873935187918 105.58749764659697 70.136104805706 60.87049808805677 177.7881585371172 107.34941313556014 112.43633588550536 113.40893453830603
62.51623716926608 96.42741153132533 166.9410464267231 60.97480460847249 68.29638681009062 74.40373892225172 112.93197731357124 78.2026629937623
99.06048300935888 94.98958609473435 98.92755136523242 98.6738932278624 60.248639137077895 49.542960094897026 103.60042315073028 157.53230279786322
103.72138120965117 97.82341432512196 85.34766065659913 129.52656499636433 98.73219017135173 82.84044983049813 103.85971469557755 103.71082679654425
92.69463418401527 63.846526461364924 101.85617087259456 106.83897555957783 113.33343946667567 101.56891121094924 45.51184272788037 116.99854087478708
92.87984552882476 102.75180297660587 91.30829507306896 91.7499203338594
00000000: 6f9d 91e3 55a8 5640 a842 91c4 ce79 5540
00000010: b5b9 6220 76c9 5740 4df5 df07 92c5 5640
00000020: 9f62 855f 5a71 5740 be95 ab45 95e4 5740
00000030: ea97 4600 9f68 5a40 5191 b613 afe6 5840
00000040: fef4 d9cf f022 5c40 d394 ff45 d20a 5f40
00000050: 52fb 124f e866 5c40 dfa4 2b86 ad50 5c40
00000060: 03d1 45d1 f5aa 5640 4ad4 e397 9967 6140
00000070: 1c09 ab04 c275 5a40 35ac ac3f 2185 5640
00000080: ad4e c710 0a65 5a40 1aa7 ba8f 9965 5a40
00000090: 7c55 eef0 b588 5140 99b7 397b 6c6f 4e40
000000a0: 699f 4098 3839 6640 8381 e9c8 5cd6 5a40
000000b0: 4594 59ed ec1b 5c40 ac0e c5fb 2b5a 5c40
000000c0: 1c7d 3f0f 1442 4f40 703e e5b5 5a1b 5840
000000d0: 6359 650d 1dde 6440 91b0 bc65 c67c 4e40
000000e0: 8513 6200 f812 5140 61cc c6db d699 5240
000000f0: c199 2c84 a53b 5c40 6394 346e f88c 5340
00000100: 3eca 20f4 dec3 5840 775d ea60 55bf 5740
00000110: 23c2 6600 5dbb 5840 8daa 0f11 21ab 5840
00000120: ab20 4168 d31f 4e40 d24e 65b7 7fc5 4840
00000130: 7609 3955 6de6 5940 8a8c e09f 08b1 6340
00000140: a5d9 171c 2bee 5940 3b5d ffd1 b274 5840
00000150: bf8c 7b12 4056 5540 4dd3 d59e d930 6040
00000160: 221a 2a34 dcae 5840 c4fa 15ee c9b5 5440
00000170: 5b59 c990 05f7 5940 cb11 ad2f 7eed 5940
00000180: dfc1 efe2 742c 5740 6761 a5fa 5aec 4f40
00000190: 3665 ea80 cb76 5940 eda1 8bc6 b1b5 5a40
000001a0: 5524 7d12 5755 5c40 b456 910a 6964 5940
000001b0: 8778 0010 84c1 4640 813b fc17 e83f 5d40
000001c0: 63f5 9e63 4f38 5740 b163 3b8a 1db0 5940
000001d0: 5816 421b bbd3 5640 0422 dbb1 feef 5640
