Weights/soybean-small/0/bweights.npz (npz, 584 bytes, 1 tensors)

arr_0 f8 [10, 1, 4]
-0.07082045362205384 0.0987344200230913 0.2818679205050035 -0.3042011450169913 -0.07051752062785493 0.10396636468438653 0.409863009624777 -0.43773111179225827
-0.05582651446536239 0.10316356577936259 0.4105568023002196 -0.4523131117251716 -0.06073261861718621 0.09796803658946263 0.43704415216860865 -0.46869882825183673
-0.08061312296999205 0.04471859596393146 0.3892124820258051 -0.3477372131306954 -0.052704986730388925 0.1075017184216132 0.40419245300209156 -0.4534084428042676
-0.0616548119314721 0.10458891025167678 0.404087358099617 -0.4414407145307723 -0.05840455082571216 0.08683605281258103 0.43271779114830466 -0.4555685512461246
-0.08157669435825135 0.10477475402922322 0.42488076609805214 -0.44249808387997125 -0.06880570880056437 0.08690626706475692 0.40928752907550364 -0.4218073454506456
00000000: b3d1 310c 4a21 b2bf c01b fdb0 a846 b93f
00000010: b912 17bf 1f0a d23f 213d 5014 0878 d3bf
00000020: ac42 e4ac 6f0d b2bf 4415 3428 8a9d ba3f
00000030: 5f6d 8b0f 323b da3f ddb9 655a c903 dcbf
00000040: f5bd c1fb 4a95 acbf 503e 296d ed68 ba3f
00000050: eee7 c109 9046 da3f c157 9ab1 b2f2 dcbf
00000060: 48c3 8585 5818 afbf b07f 34e9 6e14 b93f
00000070: e138 1e09 88f8 db3f 60f8 c05e 29ff ddbf
00000080: c3d7 c8c6 0fa3 b4bf b051 6016 5be5 a63f
00000090: 87bb 5f78 dbe8 d83f bae7 7f95 5341 d6bf
000000a0: 50af afe4 25fc aabf 1377 e28c 3b85 bb3f
000000b0: a9c6 bb05 4ade d93f 82c6 64d8 a404 ddbf
000000c0: f8fd c531 3891 afbf 9d23 0ebd 56c6 ba3f
000000d0: 0df4 f038 91dc d93f 1f15 028e 9040 dcbf
000000e0: 4fcf 7787 33e7 adbf 8a9a f136 e33a b63f
000000f0: e446 58f6 a5b1 db3f 8e0b 2cff 0828 ddbf
00000100: 1a6d 62d2 35e2 b4bf 5180 00ae 84d2 ba3f
00000110: bacb c518 3f31 db3f 34a8 b37b e351 dcbf
00000120: 0997 133d 409d b1bf 814e dc36 7d3f b63f
00000130: 558e 0252 c431 da3f 0614 7b3c e4fe dabf
