Weights/forestfires/0/weights.npz (npz, 2584 bytes, 1 tensors)

arr_0 f8 [10, 29, 1]
000000 fc e6 7b 36 d0 b4 29 40 3c 89 a7 03 ec 56 1c 40
       12.853151037812033 7.084884698010054
000010 cb 62 23 a1 4f a8 f8 bf a8 8b d1 ca 6f e0 23 40
       -1.541091565557667 9.938352907256402
000020 83 78 ab de 5f 8b 08 c0 d4 ce c1 31 2f 52 f1 bf
       -3.0680539508894653 -1.0825645393023722
000030 dd 06 f3 ad 6a f3 29 40 18 fb ee 38 20 67 2c c0
       12.97542327491413 -14.201417712376085
000040 fe 9d fd 63 a0 cd 1f 40 7b 53 7e 12 af 91 e4 bf
       7.95080715403992 -0.6427836762619416
000050 28 2d 12 a6 13 81 c2 bf 56 49 e2 b9 94 01 f4 bf
       -0.14456410988746282 -1.2503859768954348
000060 6c ff 29 45 5a 3d fc 3f 95 40 8c 6e 02 0c d0 3f
       1.7649786664696547 0.2507330016678762
000070 00 ec 43 23 c8 65 c8 bf de 97 aa a4 cd d5 eb 3f
       -0.19060613367022938 0.8698490348949652
000080 e4 78 67 2e 45 7a 16 c0 2a 54 49 76 4e 70 12 c0
       -5.6194045305876195 -4.609674308992036
000090 73 7a 02 41 d4 dd f0 3f d4 89 be de 29 05 dd bf
       1.0541574992600118 -0.45344015838977936
0000a0 09 85 18 2a ad 73 06 c0 fa 01 a8 8b 16 76 20 40
       -2.806482628701478 8.230640758761172
0000b0 d7 93 9e ec 76 58 20 c0 2f 0d db 7e 40 11 0b c0
       -8.172782320363622 -3.383423796710893
0000c0 6f b6 13 8b 5b 55 24 40 18 4b d8 2f 80 ed f9 bf
       10.166714044720008 -1.6204835766736263
0000d0 15 77 74 22 6d d9 02 40 76 aa 52 b6 07 1a e1 bf
       2.3561651889602993 -0.5344275055879979
0000e0 e6 5d 42 42 49 45 fb bf 92 2b e6 a7 55 e0 29 40
       -1.7044155681850213 12.938153502318332
0000f0 da 14 af 34 db a7 02 40 ce f3 06 53 f1 c1 cf bf
       2.331961070626318 -0.24810616067943986
000100 ff 48 15 d7 d5 42 22 40 bf 80 e9 f5 ca 72 04 c0
       9.130537721012386 -2.5560511791119036
000110 e2 39 d8 01 32 71 e7 bf 33 da 3e dc eb 73 29 40
       -0.7325677906063073 12.726408846542745
000120 c2 ed c4 41 a4 d0 2b c0 92 76 f2 8c 63 ae 1b 40
       -13.907503180779603 6.920301630305078
000130 d7 8c be 8a 09 88 e3 bf 48 32 7d 77 14 84 c6 3f
       -0.6103561124658893 0.17590576013971515
000140 36 ff 11 ba 7a f9 f1 bf 3c 24 ab 96 98 a8 03 40
       -1.1234080570574867 2.4573222895601514
000150 da d6 6e 13 c9 91 af bf 5b 90 7b e8 71 a8 d1 bf
       -0.06165912973612615 -0.2759060640657986
000160 32 04 4c f1 b5 21 d5 bf 71 c3 d8 ad 44 10 0e c0
       -0.3301825386443539 -3.757943494966121
000170 b1 e6 b5 21 83 ff 12 c0 e9 7e 0c 4f 0d 9d ed 3f
       -4.749523665168156 0.9254213851854419
000180 ca 9f 3e 17 04 76 dd bf c9 06 ef 3b 24 d2 ff bf
       -0.46032812376006105 -1.9888040867958117
000190 ac 56 ee dc 7d 10 1e 40 d5 f6 60 79 65 eb 20 c0
       7.516105129286796 -8.459758561216782
0001a0 3a e8 40 bd 47 58 03 c0 d8 66 1d 63 2e 31 2c 40
       -2.4181055818017088 14.096057031001166
0001b0 0b 4f 3a 5b ca 0c 01 c0 4d 37 f4 eb 65 65 0c 40
       -2.1312453391236708 3.549510806455976
0001c0 24 df 73 7d 43 e0 e2 bf 48 4d 86 d3 07 d5 16 c0
       -0.5898759317633204 -5.70803766734327
0001d0 01 cb 75 a7 ee 58 24 40 c6 64 c2 0a ec a7 13 40
       10.173695786599184 4.913986366381499
0001e0 ae 57 f6 91 a2 42 e3 bf f1 0b 2b ca 89 21 28 40
       -0.6018841601205531 12.065504377131193
0001f0 c8 68 5e 9e 31 9b 05 c0 8d 6a 96 5e e3 39 eb bf
       -2.7007782337724144 -0.8508164260304781
000200 f6 21 f1 94 43 db 2a 40 7b 6b 4d 42 e2 08 2a c0
       13.428249983248843 -13.017351219130196
000210 81 d3 4e 37 ed 3d 18 40 01 4f f3 13 84 66 e2 bf
       6.060475219904107 -0.5750141515404438
000220 c2 34 82 8b 12 16 d5 3f 64 7b fe d6 5f f2 07 c0
       0.3294721948994487 -2.9933468624507658
000230 4d 5a 77 f2 d9 a0 05 40 15 a1 96 72 6b c2 e7 3f
       2.7035407011674466 0.7424828756384466
000240 10 dd 01 66 5a 0b ca bf 4e 47 09 8e 14 90 f2 3f
       -0.2034714696962756 1.160175852612571
000250 31 cc 4f c6 1b c3 08 c0 00 04 73 49 f0 85 14 c0
       -3.0952678197004606 -5.130799434323308
000260 32 34 e9 44 28 ef ee 3f 91 2c e1 bf cd 03 dc bf
       0.9666940065304799 -0.43773215997925613
000270 fa 1a ac 19 42 90 0a c0 9d e0 1b fe c3 a6 1d 40
       -3.3204385762832063 7.412857027484418
000280 84 aa fd 13 85 db 1f c0 47 57 72 a8 ae 50 0b c0
       -7.9643748401237 -3.4143956336874086
000290 72 ba 31 e9 f0 56 2a 40 b3 69 d2 42 43 98 10 c0
       13.169806754417753 -4.148694080441078
0002a0 ae c4 01 4a 69 58 08 40 41 66 6a 9d 43 46 ca 3f
       3.043169573000873 0.20526929079351144
0002b0 72 8c d3 ee e6 f5 05 c0 6f 1b 9a 2c 62 c1 2b 40
       -2.745069375830604 13.877702134906682
0002c0 c3 d3 27 8d 81 08 20 40 08 09 f9 bd 97 6c ff bf
       8.016613398658484 -1.964011900025584
0002d0 9f b3 f7 7e 1a 1b 24 40 14 99 75 3c c8 88 02 c0
       10.0529365231867 -2.3167881701839494
0002e0 e2 76 aa 3d de 37 ea bf 52 03 a6 cb 86 4f 29 40
       -0.8193198398982668 12.655325283065086
0002f0 b5 d2 2f 8a b0 71 2d c0 ee 3c c6 da 2d e7 1d 40
       -14.722050016725328 7.475760858869064
000300 53 ee 4c c6 81 0e e6 bf 9f 26 2b 49 f2 5e 90 bf
       -0.6892708657318941 -0.01598719188294828
000310 24 5e ff e3 11 98 f4 bf 3a cc 03 41 88 3a 01 40
       -1.2871264368203663 2.1535801963123307
000320 95 28 df c3 a8 de dd bf 9e 32 f0 fb bc 64 c8 bf
       -0.4667150414285371 -0.19057428647683577
000330 13 c3 c3 b8 74 a8 e6 bf 7d a9 42 22 ab de 0f c0
       -0.7080634697614151 -3.9837248493760726
000340 8e ed 5d 9a 34 90 13 c0 b7 50 a5 87 dd 38 f1 3f
       -4.8908256645039625 1.0763831423437702
000350 8a 21 c9 50 5b e5 de bf e9 69 20 ea 16 60 fd bf
       -0.48274882210946457 -1.8359593530245724
000360 27 34 66 73 84 c0 1c 40 e2 0b ac 3f 40 e3 21 c0
       7.188005259621639 -8.94384955382515
000370 3d 3e ce 36 89 35 fc bf 2e 00 f7 e9 a4 06 26 40
       -1.7630703106732561 11.012976943398908
000380 57 a4 e8 a4 e5 be fd bf c4 bd aa 9c 42 52 00 40
       -1.859105724501452 2.0401661147695638
000390 f6 d9 83 c9 e1 5b df 3f c3 3c de 98 22 a3 11 c0
       0.489983031074558 -4.409311665119449
0003a0 55 1c f2 94 44 d3 29 40 8b ed b9 1c 78 71 18 40
       12.91263261275723 6.110809754226817
0003b0 ea 89 b0 ac 71 e0 f8 bf 0f 92 05 58 7b 1e 24 40
       -1.5547959085166618 10.05953478878021
0003c0 2c b2 96 4d 98 5d 06 c0 02 85 d0 0a a8 79 ef bf
       -2.795700651322724 -0.9836006365987091
0003d0 07 86 40 08 5c 73 29 40 bc 93 6f 25 ee 86 2b c0
       12.725311525226983 -13.763535661573648
0003e0 69 8e 67 23 11 c7 20 40 9b 98 6e 68 64 2a de bf
       8.388802629843854 -0.47133741568030424
0003f0 54 3a d8 3a 82 9a 9a bf 76 60 3e 0f dc b1 ca bf
       -0.025980028955070303 -0.20855284447020822
000400 54 2d a3 0b c6 1d 03 40 98 7b bc 1b 2c 6c f7 bf
       2.389537897984761 -1.4639092524955455
000410 d5 f4 9a e8 52 3d cb 3f 8b 79 5f c6 1f 2a f2 bf
       0.21280895574265082 -1.1352842091506286
000420 7a 8d d2 e1 37 ec 0f c0 f4 3c c2 49 02 a5 12 c0
       -3.9903409616833274 -4.661141540985444
000430 13 1b a1 5c 62 9f ec 3f f7 f3 67 7b 22 db 8b 3f
       0.8944560822645563 0.013601560011915466
000440 70 a0 4f c5 c8 8a 07 c0 43 17 a1 b0 75 26 1e 40
       -2.9427657523083823 7.537558326561171
000450 2c ce 3f 3f 62 b0 20 c0 ff ca bb fa 19 90 05 c0
       -8.344499565638294 -2.695362051826464
000460 a6 9a 52 03 d4 93 2e 40 de bf 13 a9 47 49 08 c0
       15.288726905663975 -3.035781212725836
000470 a6 e6 bf 5e d0 0b fe 3f b0 20 26 a0 b7 20 0c c0
       1.8778842641026272 -3.515975238002362
000480 53 fb ce 80 34 8c 07 c0 2b 2c f4 68 26 67 27 40
       -2.943459516827184 11.70146491985914
000490 d4 e6 b7 3d 57 2b 1b 40 20 62 37 f7 2e d2 e3 bf
       6.792324985837428 -0.6194071606105958
0004a0 d8 16 7c 26 47 e5 27 40 65 fa e0 1e c4 39 03 c0
       11.947808458945858 -2.4032061016471737
0004b0 d3 36 cd d8 0a 2c db bf 20 eb 8a cf 73 b8 23 40
       -0.4245631329730319 9.860258565624065
0004c0 67 0b c9 e3 7a f5 2c c0 29 60 0b ce 90 5f 17 40
       -14.47945319966466 5.8433258242076045
0004d0 52 f6 c6 6d dc d4 e0 bf c1 2d d7 38 f8 0b f4 3f
       -0.5259840149007664 1.252922269852988
0004e0 8c 78 7a 48 0b 35 d4 bf 74 b7 a8 c5 a7 3c 03 40
       -0.315737553386392 2.404616874896357
0004f0 7c 76 b2 5e 6c d2 e9 3f 4e 32 c8 e2 42 30 d1 bf
       0.806936440425218 -0.2685706343334332
000500 92 f1 11 c6 d9 57 18 c0 c2 74 36 28 23 98 06 c0
       -6.085791678281014 -2.824285806810253
000510 c1 9e fe cf 18 00 0d c0 6a 64 e0 07 56 c2 e8 bf
       -3.6250473260477922 -0.77372266329179
000520 6f a7 21 b6 06 0b da bf 2f ee da ee c0 07 02 c0
       -0.40692298685336586 -2.2537859592973954
000530 87 a8 a8 8e 2b c5 22 40 cf 0c 3d 52 f4 e9 21 c0
       9.385097940529034 -8.95694214816322
000540 75 f5 73 02 7c c6 17 c0 c0 ea c4 f0 b3 56 2e 40
       -5.943832434012951 15.169341587102622
000550 80 0a dc 17 7e ae 03 c0 46 5f 96 fb 35 c7 03 40
       -2.4602014411951245 2.472270932699675
000560 33 40 99 e0 36 97 ca 3f 07 73 fe 0c f0 72 09 c0
       0.20773969618540064 -3.181121922984292
000570 de 80 3e de b8 f6 1c 40 a9 8f 47 31 e9 d0 f9 3f
       7.240939590992836 1.6135036396962994
000580 60 9d df 39 04 94 fc 3f 2d 53 9f 95 d0 fc 14 40
       1.7861368427928355 5.246889436578198
000590 fd 8d e3 53 90 bc 09 c0 65 77 03 74 24 57 02 c0
       -3.2170721582240263 -2.2925499976690156
0005a0 69 8f f6 65 37 bd 22 40 c0 25 7c 8d d6 18 21 c0
       9.369563280437164 -8.54851190700981
0005b0 55 73 1a 11 47 ae 16 40 14 6c 80 86 79 ad d6 bf
       5.670192973365222 -0.35433805594374346
0005c0 e8 82 48 5e 84 34 f2 3f 02 3f 48 93 c9 2f 05 c0
       1.1378215487422327 -2.648333693163182
0005d0 db 0f 5b df 7e d9 fd 3f 0e 3e 04 e1 c9 fa e0 bf
       1.8655995106537293 -0.5306138415198249
0005e0 67 aa d5 98 e3 9f e3 bf ec 4f 37 29 6f 88 fd 3f
       -0.6132677063990969 1.8458091363909217
0005f0 99 44 e3 9c b9 91 06 c0 fe 0f d2 ec 48 5a 11 c0
       -2.8211548096520116 -4.338168812104412
000600 26 d3 31 59 72 4b e9 3f 20 8b 62 6b 7c 48 e0 bf
       0.7904597990114766 -0.5088483903276462
000610 d4 a3 ec 9e 7c a6 03 c0 cf c0 8d 1b 8b 4c 22 40
       -2.456292382809332 9.149498807004788
000620 4c 5a 5e 06 08 45 1a c0 2a 1e 52 a1 a0 1e 02 c0
       -6.567413424977143 -2.2649548152146695
000630 0e 22 b7 5f 8e 32 2f 40 6f db 47 b6 e3 c2 e3 bf
       15.598742476563555 -0.6175402221841589
000640 42 a7 e4 25 1a d4 1d c0 c1 0a 1e d0 67 97 04 40
       -7.457130996781247 2.5739284762542813
000650 42 d1 c7 d5 c1 6b d8 bf 1c 08 ef 81 ca 52 21 40
       -0.3815769756031565 8.66170126002185
000660 ae 65 79 d7 c6 bd 03 40 cf eb 6c 21 cd 35 4c bf
       2.4676644166872483 -0.000860905801210671
000670 10 ce f0 39 04 b9 26 40 73 85 60 3d 29 20 ea bf
       11.361360369343885 -0.8164259146471252
000680 10 c8 92 12 26 0d f0 bf 35 52 9c cb b2 fb 1a 40
       -1.0032101369402007 6.74579923764809
000690 b1 c1 1c 92 a7 c5 17 c0 5f b6 37 df 85 25 16 40
       -5.9430220441867485 5.536643493438162
0006a0 d9 da 76 c2 32 53 e3 bf 09 a7 7a db a0 d5 dc 3f
       -0.6039060400133521 0.4505388396597572
0006b0 c0 1b 7b 03 e9 3f ca bf a3 40 e2 f7 fe af fd 3f
       -0.20507538480725707 1.855467766090478
0006c0 a1 f8 57 74 72 30 e6 3f f8 42 1f 07 da ab c5 bf
       0.6934139511429472 -0.1693069968009906
0006d0 fb 0d a4 b7 b4 74 04 40 42 36 c8 58 4d d4 09 c0
       2.556985315984773 -3.2286631523227536
0006e0 80 dc 6a 4a 12 3c 0c c0 29 96 02 29 d6 44 fb 3f
       -3.5293317617284288 1.7043058015782526
0006f0 bd a6 df 41 fe 09 d8 bf a1 58 dc b9 45 c3 ef bf
       -0.3756099360749479 -0.9925869588939983
000700 16 92 74 3e c5 4a e0 3f 40 08 4c 0d 94 1c 16 c0
       0.5091272563773284 -5.527908523336066
000710 9a d1 92 32 1d eb b5 3f c4 ed c3 dd 42 c9 f2 3f
       0.08561880573944905 1.1741360342701777
000720 22 42 e1 38 f7 ed ed bf 28 2d b6 29 7c 84 15 40
       -0.9352985487876746 5.379379894012608
000730 69 c2 c4 ae 99 d7 d5 bf 32 13 7b c2 00 b9 e1 bf
       -0.3412841994022871 -0.5538333700611473
000740 3c e4 31 9e 19 8d 25 40 bc ce f0 5b ed de 19 40
       10.775586074438358 6.467702328274466
000750 8c 2a 98 af 92 e0 ea bf a4 ce 99 2c 64 bf 25 40
       -0.8399136952951536 10.873811143660824
000760 e4 95 64 4d 54 26 05 c0 32 5c a1 fc 57 7a f0 bf
       -2.643715481407286 -1.0298690670367816
000770 dc 2b 29 38 9b ac 28 40 e2 1b 7d 93 45 d0 29 c0
       12.33712172987537 -12.906780823728642
000780 47 57 a2 d8 13 36 1d 40 99 35 ad 02 fd 01 e4 bf
       7.30281008234835 -0.6252427150990797
000790 0b e0 70 de f8 26 fe bf 6e 49 1b 4a bb d6 ec bf
       -1.8845146836374649 -0.9012123534578629
0007a0 5e 76 fe 5e 78 80 02 40 62 bb 44 2e bf 9f f5 3f
       2.3127295895963433 1.351500683532969
0007b0 54 24 37 02 5a d4 d4 bf 91 73 d8 45 28 c1 b9 3f
       -0.3254609128603694 0.10060359673702936
0007c0 7b 0a a0 66 75 fc 0f c0 88 40 c1 f9 83 f1 12 c0
       -3.9982707994070643 -4.735855009479685
0007d0 3f 4b 65 ec 00 be ed 3f d4 ce c2 fc 11 f6 d8 bf
       0.9294437996962656 -0.3900189369553406
0007e0 cf 9f 26 bc 9a a6 06 c0 e8 2a 19 c1 1b 44 1f 40
       -2.831349821022719 7.81651212421523
0007f0 7f 20 f3 63 b9 c1 20 c0 36 e0 01 da 20 d4 08 c0
       -8.378367541721898 -3.103578284437414
