Weights/forestfires/0/weights.npz (npz, 496 bytes, 1 tensors)

arr_0 f8 [1, 29, 1]
000000 a8 61 e6 e3 75 41 2a 40 d4 e4 3f 43 f6 09 11 40
       13.127852556107271 4.259728480124256
000010 ac 04 4f 7a 7c cf ef bf 72 65 33 40 db 92 24 40
       -0.9940779103127588 10.28682900073429
000020 4c 76 88 8e d4 cd 06 c0 a1 d5 4b a8 80 d8 e3 bf
       -2.8505030761141708 -0.6201785361324036
000030 12 fd a6 e3 ce 80 29 40 91 f4 b2 6a bc 75 2a c0
       12.751578439840646 -13.229953131051191
000040 19 c0 d0 2b 84 92 1e 40 0e 5d 42 8c 5b ef d1 bf
       7.643082317939865 -0.2802342290610377
000050 2b ed 8f 06 a0 98 b1 bf 91 5d 47 93 d5 6b fb bf
       -0.06873512420854826 -1.713826728160573
000060 66 4d f2 db b9 ea 02 40 1f 06 60 53 07 3e e9 3f
       2.364612310726147 0.7888218525333207
000070 e3 3e 4a 46 8a dc d9 bf ed 86 47 2d b3 42 be 3f
       -0.40408570160160034 0.11820525985197224
000080 47 b4 c2 f7 4f 33 10 c0 d0 40 85 5c 27 ba 14 c0
       -4.050109740504076 -5.181790776856545
000090 85 6f b2 b3 95 3c f0 3f c1 63 72 4d b9 a8 dc bf
       1.014791204396688 -0.4477980858151192
0000a0 39 c3 59 30 f8 bf 06 c0 e4 64 b5 ea 44 a7 1f 40
       -2.8437351014512413 7.913348834344308
0000b0 49 ad ad bd d7 76 21 c0 dd b9 35 03 36 61 09 c0
       -8.732114722681802 -3.172466301991547
0000c0 2f cd e9 f4 f2 61 27 40 f6 b9 b3 31 41 06 05 c0
       11.691306737461302 -2.628054035470309
0000d0 a0 39 2c 47 e6 62 0b 40 49 29 48 fe 43 e2 e4 bf
       3.423290782963889 -0.6526203123515099
0000e0 4a ea 4e 46 32 1b 05 c0
       -2.6382794850190168
