Weights/forestfires/0/weights.npz (npz, 496 bytes, 1 tensors)

arr_0 f8 [1, 29, 1]
00000000: 84c4 2319 5441 2a40 db9e f52f f4f0 1040
00000010: 9c29 941c 3113 f0bf 8f3e 607a ad8e 2440
00000020: 4518 1c46 26e7 06c0 062e b656 b582 e4bf
00000030: 6488 9986 2a78 2940 48f2 a05c 9a75 2ac0
00000040: d9b0 00fa f98e 1e40 d163 4bfd 929c d0bf
00000050: dd9a c10f 1a21 b6bf e766 2805 1175 fbbf
00000060: 1539 b224 dae6 0240 5a06 d14d ba64 e93f
00000070: b173 7404 9e9c dabf 6491 5838 896c c03f
00000080: 0e9d 0349 5330 10c0 91d5 0829 6fb9 14c0
00000090: f30a a4b9 60e3 ef3f ae3d 3d86 34a8 dcbf
000000a0: 88c2 b1c1 5ec4 06c0 89d1 dfef 70b0 1f40
000000b0: 4834 cc2d f36e 21c0 37db a2fd 7f48 09c0
000000c0: 7aec 6393 e56d 2740 5591 70fc 17e5 04c0
000000d0: df70 d7e8 1686 0b40 9ff0 acf4 0764 e4bf
000000e0: 3946 9142 a2f2 04c0
13.127594743362586 4.235306500784385 -1.004685508380681 10.278667282341557 -2.862865970356355 -0.64095560966365 12.73469944595508 -13.2296933123081
7.63962545994965 -0.2595565293864271 -0.08644259342836898 -1.7160806848027563 2.362720762909826 0.7935458679059579 -0.41580915865943796 0.12831225634830468
-4.047192707868147 -5.181088105358314 0.9965060830876084 -0.4477664290361315 -2.845883858907033 7.9223058204992265 -8.716699057748102 -3.1604003730130006
11.714642148921701 -2.6118621560910165 3.440473383974776 -0.6372108248538274 -2.618473548944874
