Weights/machine/0/weights.npz (npz, 744 bytes, 1 tensors)

arr_0 f8 [10, 6, 1]
-48.19469666834934 175.4808121521373 272.78240505182856 158.44026696380195 111.17723492280703 147.1894069957917 -52.35747128391128 167.88458195458963
267.6183606668786 162.7625463006587 116.20301268594181 150.25096959106207 -51.23877826122598 167.79291269319035 266.6479664798835 162.51057391890552
116.564945855394 145.35103276304466 -50.18197338560346 169.10855713228264 270.06962576498137 163.65504601472594 114.16861271929699 144.76308076048298
-48.08918945641634 167.754210114146 269.64872406563467 157.16925583767264 114.14758431973613 146.11438394802116 -49.084691859336196 169.03067319625663
271.4705680815071 150.2120691245804 114.96586900821958 152.10547528300364 -49.5590602781403 164.20023335358223 255.75204956384363 164.33154147017035
113.37056392048564 147.73274577333976 -50.28095626344676 177.13470325527652 250.58948328874027 152.79813545571105 117.15401598504248 112.25260079327617
-51.49867137209638 128.01304574798837 243.93045445964998 151.5147195150814 99.59882063850193 140.87458331921928 -52.527410044298556 177.74642153288474
236.74320247707834 156.88009431854277 115.4323114941355 95.78784234056647
00000000: ac99 07d2 eb18 48c0 5f9e 2ad0 62ef 6540
00000010: 43dd 28bb 840c 7140 3c61 beaa 16ce 6340
00000020: 944a 25d1 57cb 5b40 e391 429f 0f66 6240
00000030: 3cd4 789e c12d 4ac0 04b3 d07e 4efc 6440
00000040: 0596 27ce e4b9 7040 7ae0 7fc7 6658 6440
00000050: c4b2 eb28 fe0c 5d40 de3c 61f1 07c8 6240
00000060: 0d7b 3b49 909e 49c0 bfba 708a 5ff9 6440
00000070: 1080 1912 5eaa 7040 797c 1d9f 5650 6440
00000080: 643b a912 2824 5d40 3ea3 0fa9 3b2b 6240
00000090: 63f4 65e7 4a17 49c0 d99c ce4c 7923 6540
000000a0: ddf8 e72f 1de1 7040 f053 0f23 f674 6440
000000b0: 7ec4 008d ca8a 5c40 66cf 5728 6b18 6240
000000c0: 653a 638f 6a0b 48c0 39d2 3f7d 22f8 6440
000000d0: 7760 7c2c 61da 7040 c1ee 378b 6aa5 6340
000000e0: d2aa 8005 7289 5c40 067e 8608 a943 6240
000000f0: 0f0b cf2e d78a 48c0 27d9 5a46 fb20 6540
00000100: d589 6572 87f7 7040 0e52 3045 c9c6 6240
00000110: 7aa1 3ecc d0bd 5c40 2f61 b30d 6003 6340
00000120: 798d 8549 8fc7 48c0 8826 c74f 6886 6440
00000130: be35 3fca 10f8 6f40 c874 dbfc 9b8a 6440
00000140: 0ee4 bb51 b757 5c40 d998 43a7 7277 6240
00000150: 1b8e f55f f623 49c0 7a82 337d 4f24 6640
00000160: b2d5 0e0c dd52 6f40 d301 5e53 8a19 6340
00000170: 65b4 dc65 db49 5d40 2684 849c 2a10 5c40
00000180: 7e4d a976 d4bf 49c0 c89e eade 6a00 6040
00000190: a653 6e48 c67d 6e40 677c 0f95 78f0 6240
000001a0: 48a2 cc13 53e6 5840 9135 2896 fc9b 6140
000001b0: 0fec 1d2c 8243 4ac0 a518 69af e237 6640
000001c0: 72ab 8f50 c897 6d40 2c71 8fbb 299c 6340
000001d0: cd3f d4fd aadb 5c40 c6c8 4702 6cf2 5740
