Weights/machine/1/bweights.npz (npz, 1066 bytes, 2 tensors)

arr_0 f8 [10, 1, 6]
1.9653726669964544 0.7925707190300639 1.0129233384433811 -16.59885351558687 -8.703794016082552 -7.6809072204491695 0.5366682535818751 1.3724887964835688
1.6360989415913252 -14.907272963425836 -5.938230676460936 -9.168126798321524 1.4556236690898683 6.28510547789375 -6.248528372387478 -23.94267157856547
-11.28457449227695 -0.16406558173228308 0.34737233160245357 7.93864264519958 6.473871022429275 -27.612172471719354 -11.731387562039846 -13.560835285690896
1.8388951892600192 1.33858968128906 0.4391427290460721 -20.52624246909138 -19.317068456431095 -9.790178498449604 -6.225479997758607 4.2063585884421
0.7711672024339227 -11.039745057829126 -17.34644727067981 -0.031462117930649736 1.2591638700107501 1.969791588607869 0.3504832085579863 -17.41945200811409
-7.575172554614595 -7.605572650954923 1.5024560714288653 0.21904927666018714 1.9297751532382785 -9.59241599603627 -17.253618146948337 -7.857249937078201
0.4664219582107151 1.3765565896853704 1.6307511651858464 -15.330061742069027 -8.330225626862774 -5.216894064107108 1.0095071419411823 0.4384766849700312
3.0355624021351093 -11.707456697760518 -10.20827861726538 -5.814038787907068
00000000: ae3b 139c 2a72 ff3f e40a c044 bd5c e93f
00000010: ea82 3f1a ef34 f03f 4d8a c876 4e99 30c0
00000020: df63 74b0 5768 21c0 fec1 0dbe 3fb9 1ec0
00000030: 57f0 bde6 622c e13f 8d5f f0cf b6f5 f53f
00000040: b37a 7215 762d fa3f feea f414 86d0 2dc0
00000050: c403 de8a bfc0 17c0 88be 38b7 1456 22c0
00000060: 6564 600b 3c4a f73f 3fdb bdb0 f223 1940
00000070: 1a21 be38 7efe 18c0 b1ce b0ec 52f1 37c0
00000080: eb35 73bf b391 26c0 4e3d f8d9 1900 c5bf
00000090: b923 f128 593b d63f 710d 9f89 2bc1 1f40
000000a0: 5c6c ff71 3ee5 1940 ce8b c955 b79c 3bc0
000000b0: 1a53 376e 7876 27c0 6ef8 74cd 251f 2bc0
000000c0: d44b aa5c 1d6c fd3f aa64 7e03 dd6a f53f
000000d0: 44dc e11a ea1a dc3f 8683 92d3 b786 34c0
000000e0: faf6 fa65 2b51 33c0 d7af b146 9294 23c0
000000f0: fb19 813a e4e6 18c0 206e 72aa 4fd3 1040
00000100: c472 46d7 66ad e83f 821b d776 5914 26c0
00000110: b65b b1c4 b058 31c0 186b 267f cd1b a0bf
00000120: f603 a003 8925 f43f 601b 502f 4484 ff3f
00000130: cc6f a31f 516e d63f 6f17 f134 616b 31c0
00000140: 7f81 be08 fa4c 1ec0 4dd0 ac3c 1b6c 1ec0
00000150: f96a a760 0f0a f83f 1ce6 bb83 ce09 cc3f
00000160: 31ab 3ce9 5be0 fe3f c234 4126 512f 23c0
00000170: b3d0 6e1e ed40 31c0 e8fe 70ed d26d 1fc0
00000180: e6ae 297c dbd9 dd3f dbab dc33 6006 f63f
00000190: 9431 a688 8e17 fa3f ccb1 47da fda8 2ec0
000001a0: 7a5a 5755 13a9 20c0 6f25 407a 19de 14c0
000001b0: f373 fbf5 f026 f03f 4c4e 8083 0010 dc3f
000001c0: 9719 d1f0 d448 0840 676f a8c3 376a 27c0
000001d0: c938 b37e a36a 24c0 02f2 4e62 9341 17c0

arr_1 f8 [10, 1, 1]
69.64513967912157 69.35551567819901 73.55500669834328 70.68887862836966 69.35166049620982 69.92836830544825 68.67686869098624 64.71462284227792
59.38472940170878 61.52117296016961
00000000: 76cb eff7 4969 5140 1fc5 d4c4 c056 5140
00000010: 809c d03a 8563 5240 b5f0 6296 16ac 5140
00000020: 0ba1 069b 8156 5140 c3a2 e562 6a7b 5140
00000030: 39de 0ed1 512b 5140 ba23 7261 bc2d 5040
00000040: 0e13 23d0 3eb1 4d40 76be a9cb b5c2 4e40
