Weights/machine/1/weights.npz (npz, 3866 bytes, 2 tensors)

arr_0 f8 [10, 6, 6]
1.2068249107268187 0.008576123353504137 -0.15200996505094272 -3.5567459107461783 -1.3821330684024715 -2.4738592675313638 0.9304482355244711 1.097602036296356
1.1021632983992564 8.363870702234339 9.80338702236104 20.526143427277024 -2.5229774231401256 3.817536805282946 1.9218028143637287 15.562176119087717
-5.868770033598256 13.601313404641608 8.780205063414956 1.952795665358126 3.553772137679826 1.5039496880917718 25.86882232885198 -6.637820497187151
1.4118651639287856 1.284095896078496 0.6831161130976913 -4.68513501501318 -1.1405779607067839 -1.2128966424541874 -0.663380174430568 0.4257201187322679
0.4085799821516244 5.349708259802131 9.255811764276409 4.270982318648613 0.7423581155702175 -0.18635336840616334 -0.6523180907396661 -3.116146743758474
-5.637762958209416 1.7943860381815524 -0.4401118326339565 1.2027401229201555 4.183705317111212 6.797031744310814 14.282780877251943 15.147957695567673
5.305797214420927 0.26779539204533165 -0.9070670484051664 12.720569991774772 -6.261005139503032 12.279054307400804 0.9251655370075296 6.296665484434743
8.149297963030293 0.5758878251032548 20.145206677975192 -4.691351071983719 2.842370236095702 0.897634077707938 -0.37992197941733075 -4.612904442711126
-12.686723769067418 9.497639907151637 0.054266536471224786 0.8187631425788342 -0.9999492243430375 6.578899508665198 7.832191642795798 4.003268555481733
-0.9593977876752149 1.762473185464307 -0.8020924463303316 -4.611153052121105 -5.832034625876615 1.4778304418404227 2.2789109997978905 0.6757205822301685
-0.1309422399519274 17.822396856895622 7.211506090621471 13.289641911608866 4.129609298361614 8.092501700137845 -1.9806896554008766 23.701603819802482
15.316171227677449 14.290128101404884 -1.427882521921909 -2.767350295211665 4.1087045088968654 11.129532855326643 25.968230668141118 -1.724884153560219
3.4285363523918697 4.390321504707085 -2.1285814504209424 -5.90153428694998 0.1838593545799329 9.01366023623193 -2.0341966078670097 0.9895857462545244
-4.506570935036416 11.342552476088152 5.359859673357524 7.763829532132099 -0.10235637939777384 -0.8038979245144575 0.8763052832742256 -4.0419345458220155
-2.4762889138158766 1.808592565073703 3.4576869826664316 3.6383491566979766 1.8879550745193998 16.365426850441995 4.830154061356772 18.277013572548764
2.31409891034979 17.271470573686464 12.114088353957754 13.363660393865391 12.390866317688628 10.277158795941936 2.6663251666662866 0.8699684247237245
-0.615765969416271 6.064424939732472 23.70073746341745 3.3271368079024466 1.3422366413174864 6.063859053040132 4.676907076185542 -10.673466572701598
-1.6747173230094823 1.700920711649499 -0.24427917321876286 9.195973344147228 6.849050832064823 15.70366391174797 4.326071541561074 7.203295658887102
-0.8106882952691828 -0.30491543342853505 0.7158278602763202 -3.6441714250049255 -8.146617503098474 -13.758474237753747 7.623654675737864 4.200034922558658
-1.5555662334997067 13.887344946192416 16.330010756300684 6.5931130311715185 -2.349012984526323 0.7394464776702975 5.531095654610805 8.516188092334904
20.71227524156143 12.229253082985199 6.376969881353073 3.6154739535814118 2.2079014778160664 -2.7005571630653384 5.50566612914428 13.6793855671632
-0.9138092979391852 -0.754560702430862 2.5326564977197368 -2.6141316588211367 3.06096118643044 10.164555552481529 0.13684052038479597 -0.43146711803575194
1.586470781546957 14.874306131890592 -1.5378348118768377 8.55948670526892 2.1312762254428446 -1.2297570637250843 -0.18187916717877847 -4.963263376478593
-4.91238539075025 3.744651999754098 16.118069700268777 4.177247742681249 1.122619397599264 17.380945688788007 10.316656107736229 11.90500953127144
10.382852360956523 3.0054032524032084 1.4011531706865512 -8.002624201298607 15.394518833819001 15.441291075561924 -5.430553404497768 8.46814181495974
6.564559529238773 28.86322115719082 -5.439128642593284 -1.1623088487768884 3.6764630670172584 -2.504582840419259 0.3571280208360961 -6.819519374594096
-2.781898000446992 7.738348086058189 2.328464749006745 5.017058746578029 0.3748681908909731 11.20517504326989 16.66917982341378 9.025069344995458
-0.20654954160431094 -1.1630687057301412 1.0598366460445732 -4.210400101205209 -4.169264756805537 0.5744517740781108 2.796746564539105 4.835510704559008
-0.7900839956286365 9.06239114177256 17.212900616627497 18.009892924988616 1.5413153790098415 -2.656426599323165 4.741265612800916 13.05852977034644
-7.210264391092866 11.706449939624626 5.577593927548987 9.30446518496875 3.4346550610501554 2.936736539262062 19.08574955831656 -4.945482481465557
1.2633232848275202 -2.2772273030346137 2.0848040920673405 -2.927408490596766 -10.073734642241787 3.4729942811646137 -0.9625294423601439 -0.7891146669587459
1.7510769083166926 8.907185509314685 11.878703665053658 5.257056663704993 -0.24429958415415837 0.6277260751275158 -0.42491827022302353 -2.2670226256939587
00000000: ed1d 39a3 274f f33f 525a a3ca 5b90 813f
00000010: deaa 4702 1075 c3bf 4cb1 3633 3774 0cc0
00000020: d323 7890 371d f6bf 39a1 47ba 76ca 03c0
00000030: 2f5a c660 3bc6 ed3f 57a7 1e27 c78f f13f
00000040: e89e 97fb 75a2 f13f 5923 bc42 4dba 2040
00000050: 9a24 368b 559b 2340 0129 ed55 b186 3440
00000060: 2e77 87c9 0e2f 04c0 8bbb 8fbc 508a 0e40
00000070: fbd8 d04e b4bf fe3f dc25 5c8c d51f 2f40
00000080: 8432 08da 9e79 17c0 0c2a bf59 df33 2b40
00000090: e914 bf09 778f 2140 48bd e7aa a63e ff3f
000000a0: ba2a 2616 206e 0c40 ddef 528c 2d10 f83f
000000b0: 2d74 e023 6bde 3940 918c 00d1 208d 1ac0
000000c0: 17f9 16ed ff96 f63f fa5b 6923 a88b f43f
000000d0: d001 a452 16dc e53f e74d 8b08 94bd 12c0
000000e0: 5862 fcac ce3f f2bf 944d 4c4f 0668 f3bf
000000f0: 61cf 3f0f 693a e5bf b413 cd98 ff3e db3f
00000100: 2e0e 49a7 2c26 da3f 03f7 0bec 1966 1540
00000110: 9cff 72c2 f982 2240 688f 9163 7c15 1140
00000120: ae6a 89ce 65c1 e73f 90e6 665b 6dda c7bf
00000130: e31c 4a30 cadf e4bf 18d6 0f58 deed 08c0
00000140: 4a70 a0bb 118d 16c0 6c38 6622 ceb5 fc3f
00000150: c2b5 efd1 ca2a dcbf 2577 586d 6c3e f33f
00000160: 3860 243f 1dbc 1040 50c1 ee16 2930 1b40
00000170: 6b76 b7a7 c890 2c40 324f 6f1c c14b 2e40
00000180: 4895 ace7 2239 1540 2eab b648 8f23 d13f
00000190: f6bd 8579 b106 edbf a34d ca8c ee70 2940
000001a0: 8603 69ee 440b 19c0 5330 c834 e08e 2840
000001b0: feac 9ac1 f49a ed3f 33ff a513 c92f 1940
000001c0: 2826 59c8 704c 2040 1f75 df4d ac6d e23f
000001d0: 7310 cd43 2c25 3440 01e6 1089 f1c3 12c0
000001e0: 1c3d 399b 2cbd 0640 a1fb f019 6bb9 ec3f
000001f0: e041 2847 a450 d8bf cf11 e438 9d73 12c0
00000200: 930f 0342 9a5f 29c0 30cd 6ca8 cafe 2240
00000210: ec7b d2ce d2c8 ab3f 1c7b 11c3 4e33 ea3f
00000220: 60d8 0684 95ff efbf cb8c 6508 cb50 1a40
00000230: f73f c70b 2a54 1f40 c998 0bd5 5803 1040
00000240: 006f 3dfd 62b3 eebf 9856 3a15 1733 fc3f
00000250: e66f 2bc7 bdaa e9bf c9d7 0e1b d271 12c0
00000260: 5e1e 8de2 0054 17c0 37ce 8b88 31a5 f73f
00000270: 4803 b5b0 353b 0240 7334 3dc5 809f e53f
00000280: f316 211f b7c2 c0bf 2cb3 b499 88d2 3140
00000290: 027f 780d 95d8 1c40 6fd2 d3f1 4b94 2a40
000002a0: efe1 c64c b884 1040 38d5 0162 5c2f 2040
000002b0: 708e d7a2 e7b0 ffbf e3cc d44e 9cb3 3740
000002c0: 239f f531 e1a1 2e40 7d5e a6ab 8b94 2c40
000002d0: 21f4 e257 9bd8 f6bf 9314 348d 8823 06c0
000002e0: 228f 1a3c 506f 1040 57c5 6221 5242 2640
000002f0: 7ca6 0ef7 ddf7 3940 64e0 4e20 2099 fbbf
00000300: 985c 9577 a46d 0b40 dc91 c670 b08f 1140
00000310: 0971 23b6 5507 01c0 feb0 dacd 2b9b 17c0
00000320: 6e03 7e0d b488 c73f 59be 7779 fe06 2240
00000330: 3062 03df 0846 00c0 ad07 18ba afaa ef3f
00000340: 9a57 fc87 ba06 12c0 c4ec c309 63af 2640
00000350: 15e1 e00d 7f70 1540 c7e7 3054 290e 1f40
00000360: 76e7 0c16 0734 babf 7494 e323 88b9 e9bf
00000370: af31 9f60 b10a ec3f 3f83 bbe3 f02a 10c0
00000380: dc4a e28f 70cf 03c0 227c ecc1 feef fc3f
00000390: a2db f2ca 57a9 0b40 6f93 7bcd 561b 0d40
000003a0: 8e0c 5661 1035 fe3f 89ba 339d 8c5d 3040
000003b0: f8ac 00e8 1352 1340 23a5 8a5c ea46 3240
000003c0: ed4a 1d4a 4683 0240 4acf 7318 7f45 3140
000003d0: c034 eac9 693a 2840 3201 f5b1 31ba 2a40
000003e0: 4529 47a1 1fc8 2840 1cbd f8c1 e78d 2440
000003f0: e8aa fa49 a254 0540 8eb6 9705 c8d6 eb3f
00000400: 6d3e 94d5 5ab4 e3bf 7cca 849c f841 1840
00000410: bf75 c887 63b3 3740 1c12 1ae7 f99d 0a40
00000420: 4a39 df20 cd79 f53f 8f71 8144 6441 1840
00000430: 6f97 ea20 27b5 1240 b767 519c d058 25c0
00000440: 23ed 4564 a4cb fabf 73fa d9a2 f836 fb3f
00000450: cac4 083a 8a44 cfbf 0d00 409e 5664 2240
00000460: a570 d194 6d65 1b40 7aaa e0a2 4668 2f40
00000470: fca4 bcb2 e54d 1140 025b b9bc 2cd0 1c40
00000480: d5cb 6d94 28f1 e9bf 1fc2 a705 bc83 d3bf
00000490: 7e7a 2ed4 0fe8 e63f 9c4f 1b59 4327 0dc0
000004a0: 83a8 0973 114b 20c0 9105 3cbc 5684 2bc0
000004b0: 9c2a d154 9f7e 1e40 11ca 69f4 d5cc 1040
000004c0: 4d4a 3a6b 99e3 f8bf a955 a813 52c6 2b40
000004d0: c1a3 bd95 7b54 3040 37da be05 595f 1a40
000004e0: fa5b d351 c7ca 02c0 f38f d7a8 8ba9 e73f
000004f0: 8c67 0e8a d71f 1640 7a53 3ece 4908 2140
00000500: c041 94ab 57b6 3440 72db fba8 6075 2840
00000510: 2cf4 7f64 0482 1940 3a60 b19b 7dec 0c40
00000520: a214 0040 c8a9 0140 dbc0 c2b6 bd9a 05c0
00000530: 777a 7d57 cd05 1640 43ae d06c d85b 2b40
00000540: a2be 2dff ec3d edbf e431 797c 5c25 e8bf
00000550: 54aa ed68 e142 0440 a099 f0db bde9 04c0
00000560: 505a f037 d97c 0840 1791 18a0 4054 2440
00000570: 3f00 e97b fd83 c13f c9d3 5042 289d dbbf
00000580: 1fdc ac2f 2f62 f93f 2053 a60d a5bf 2d40
00000590: cf94 faac f89a f8bf 865a 9b0a 751e 2140
000005a0: 9c27 b88c da0c 0140 6d96 2bbe 15ad f3bf
000005b0: 17a4 6d09 d147 c7bf efa3 edb6 61da 13c0
000005c0: 667b 1a5b 48a6 13c0 41c2 8e1b 0cf5 0d40
000005d0: 8c4d ddd0 391e 3040 546c a86e 80b5 1040
000005e0: 78b4 e8c1 3ff6 f13f 8de5 1aa8 8561 3140
000005f0: 8c9c d5bf 20a2 2440 1dc2 c668 5dcf 2740
00000600: 6202 8339 05c4 2440 17e9 42dc 100b 0840
00000610: 2d91 4c96 1f6b f63f e382 95f5 5701 20c0
00000620: 3dd1 615f fec9 2e40 3a1c 63e7 f0e1 2e40
00000630: 5cff ddfd e2b8 15c0 ca48 b248 b0ef 2040
00000640: 1ae7 aae4 1b42 1a40 9059 cf0f fcdc 3c40
00000650: 3ab3 5af0 aac1 15c0 0192 d529 d198 f2bf
00000660: ee53 ee77 6569 0d40 bdc9 6dba 6209 04c0
00000670: b57a 7e7c 2fdb d63f b247 4116 3047 1bc0
00000680: 2dd2 25bd 5341 06c0 89bc 4a85 11f4 1e40
00000690: 88fb 5620 b2a0 0240 4fa7 1ad9 7711 1440
000006a0: 9afe 0b27 d7fd d73f 6099 09b4 0c69 2640
000006b0: 8bb4 705e 4fab 3040 78c6 a1e3 d50c 2240
000006c0: 0cdf 1823 3770 cabf c5ca 61ee ed9b f2bf
000006d0: 00d2 5d45 17f5 f03f 7f01 c71f 73d7 10c0
000006e0: 7661 8bbd 53ad 10c0 e86d d9af e861 e23f
000006f0: 9e2a afa9 bc5f 0640 ca27 3e1e 9057 1340
00000700: 102d 4a3b 5e48 e9bf 4df2 52bb f11f 2240
00000710: 9db6 a1a7 8036 3140 b349 bd57 8802 3240
00000720: b1b4 9a50 3aa9 f83f 388a c296 5c40 05c0
00000730: 7084 3255 0ef7 1240 f0f5 329d f71d 2a40
00000740: 6307 6d8c 4fd7 1cc0 dce5 75ce b369 2740
00000750: aec3 54c8 744f 1640 396c 58dc e29b 2240
00000760: aa02 c26e 2c7a 0b40 4bca 08ba 6f7e 0740
00000770: b79d dcae f315 3340 8c57 438f 2cc8 13c0
00000780: 7bc0 097a 9236 f43f 4fbc c0f2 c237 02c0
00000790: 38f8 8fc4 adad 0040 ab2a 8924 556b 07c0
000007a0: 7f05 0a8c c025 24c0 5960 c639 b1c8 0b40
000007b0: 47f7 8b8b 0acd eebf 4237 ec66 6d40 e9bf
000007c0: 0904 6038 6904 fc3f c7d2 7b9e 7ad0 2140
000007d0: c58f 6072 e5c1 2740 c753 afdc 3907 1540
000007e0: 562b 2f72 3545 cfbf a09c 70fe 5416 e43f
000007f0: 722b 8566 dc31 dbbf 4a2e 25c2 dc22 02c0

arr_1 f8 [10, 6, 1]
136.59833216944747 136.5474217864635 136.7782059220805 174.8258872226093 108.66482452080574 107.69599052647413 136.09796486496035 136.1634631140975
136.275711434311 177.3905174238814 100.11400634293337 115.73932891251347 141.33005039082047 143.5728195275618 91.66783097379967 190.10808312704376
136.46310738107138 123.75629478248298 135.40829567437856 138.507790834508 138.38824788778433 176.5779043475615 111.82841397062123 106.15565937827556
136.1981132524017 136.20777721886597 136.2412706764815 165.09337446416896 133.47790753200545 91.82638977329854 113.19915859585832 137.11096999745902
136.6175366981112 97.88921975721861 176.60945311381096 123.41143737999069 134.8315899842195 134.74192722520576 134.8267930877296 175.21980086812042
103.66373181083866 114.49561203498129 126.92103018782986 126.92652435233472 127.04990005683092 94.12586304271228 162.38308056634392 105.00869852921737
116.15858737753477 116.05955088484109 116.19005221838721 143.1084311347583 100.75589915874627 94.55996808814069 120.33295985529071 120.2985727282933
120.51484631463988 139.19070983272417 105.31914604572458 94.25072999134794
00000000: 7e7d 8189 2513 6140 51bf b17a 8411 6140
00000010: 751c 1b10 e718 6140 5269 0aab 6dda 6540
00000020: 219c 257c 8c2a 5b40 1062 d91b 8bec 5a40
00000030: 2d65 3687 2203 6140 d624 ff16 3b05 6140
00000040: f82f c9a0 d208 6140 d782 651e 7f2c 6640
00000050: dd9b 42e1 4b07 5940 e30e 372a 51ef 5c40
00000060: 6453 d6c5 8faa 6140 6b2c 9e89 54f2 6140
00000070: 6dee 1fbe bdea 5640 e0fc be6a 75c3 6740
00000080: 9c07 92c6 d10e 6140 9739 3b22 67f0 5e40
00000090: bc11 17c2 10ed 6040 746d 90d2 3f50 6140
000000a0: cb98 d586 6c4c 6140 c61f 4231 7e12 6640
000000b0: 88d7 07bc 04f5 5b40 97c0 c052 f689 5a40
000000c0: 067f 9af1 5606 6140 43fc 681c a606 6140
000000d0: 191f 487d b807 6140 64bc 71ec fca2 6440
000000e0: 378f bc04 4baf 6040 3b84 ee91 e3f4 5640
000000f0: 71fb b103 bf4c 5c40 8fbd f310 8d23 6140
00000100: f54e 52dc c213 6140 810d fcf9 e878 5840
00000110: 6e08 d1a3 8013 6640 5dda 72fd 54da 5e40
00000120: ed3c 9962 9cda 6040 aa08 2ade bdd7 6040
00000130: 710b c716 75da 6040 b586 d49b 08e7 6540
00000140: 7b37 fd94 7aea 5940 ea6f 8a1b b89f 5c40
00000150: e9d6 9928 f2ba 5f40 6a0e cc2c 4cbb 5f40
00000160: 120a 0290 31c3 5f40 5b0e dd23 0e88 5740
00000170: c505 2d32 424c 6440 c3a0 4684 8e40 5a40
00000180: 7f04 ac4b 260a 5d40 c8b5 83ae cf03 5d40
00000190: 57a0 c7d0 290c 5d40 f634 9244 78e3 6140
000001a0: e878 dda6 6030 5940 8c57 6484 d6a3 5740
000001b0: b056 da36 4f15 5e40 d2df c9d0 1b13 5e40
000001c0: 0bf6 f43d f320 5e40 6ed2 814b 1a66 6140
000001d0: 3a42 89e3 6c54 5a40 cf3d cef5 0b90 5740
