Weights/machine/1/weights.npz (npz, 842 bytes, 2 tensors)

arr_0 f8 [1, 6, 6]
00000000: 10f2 241f bc97 ea3f 4103 3f7a 07f4 37c0
00000010: c949 da72 9539 d93f 46c9 5d1c 3348 ed3f
00000020: 9ad1 d932 207c 10c0 48cb dd72 417f 22c0
00000030: 2f46 2213 581e 0740 5179 333f 414f 18c0
00000040: daad 978d 27ef 3140 98d8 332e 4f05 1940
00000050: 433d 5dfb 7818 3340 a46a 63db d36b 2240
00000060: 3601 9814 38b2 fa3f 581d 2c5f a33f 3040
00000070: cd96 442e 0d56 0c40 1f7b 42e6 1617 1ec0
00000080: dfd3 bc13 344d 3140 c3de 9e8c 0529 1e40
00000090: ceaf b975 80c5 1140 36d1 d398 789f 3040
000000a0: 0681 d152 23eb 2140 f707 21a7 1059 1740
000000b0: b252 4a69 cc2a 0b40 dba1 b5c0 88a6 2340
000000c0: bd9c 6655 861f f13f 8fd5 8f20 2247 2b40
000000d0: 6f4f 9d61 aef8 1240 4d4b 34b4 8f7d f63f
000000e0: e873 6d7d 49a7 1dc0 5f9b 9d6f 7c3e 20c0
000000f0: eb54 dc4a 8777 b6bf 4840 053d 6bb4 03c0
00000100: 1b0a 4a27 8776 2240 08d9 fa53 b578 0d40
00000110: f5c1 014d 0af1 1340 d197 198d c078 1440
0.8310223205840561 -23.95323909796139 0.39413963523943757 0.9150634340315171 -4.12121657804928 -9.248546208929511 2.889816426738228 -6.077397334591596
17.934197282343895 6.255184862055238 19.095596037162306 9.210600715528308 1.6685105137294847 16.248586605329677 3.5420173277551386 -7.5225482919766185
17.301575883484357 7.540060231396356 4.44287284799425 16.622933913911048 8.959253871988505 5.836977588072833 3.3958976960951412 9.825262090846925
1.0701964698762787 13.638932244832885 4.742852711893518 1.4056546248654798 -7.413366279416529 -8.12204312132752 -0.08776135995534033 -2.4630951659419544
9.231499889171621 3.68393960580136 4.985390856964377 5.117922024428439

arr_1 f8 [1, 6, 1]
00000000: 5e25 b453 8fad 5e40 895d 1833 9c4d 5640
00000010: 7d48 797f 021d 5f40 0b44 2d2c 6316 5f40
00000020: 9aed aa6d ef63 6040 4f2a 4b24 518a 5940
122.71187298385982 89.21265866641455 124.45327746242579 124.34980301304329 131.1229770983162 102.16120250072821
