Weights/abalone/1/bweights.npz (npz, 1226 bytes, 2 tensors)

arr_0 f8 [10, 1, 8]
00000000: 3861 b9ca de3b ca3f 1180 2de6 be2a bb3f
00000010: 5d81 595f 04f5 9ebf 438b 5f4e d232 e5bf
00000020: 455f d89b 3e47 d53f 581f 8aab 3214 b4bf
00000030: 8487 a072 037e e6bf 8f25 35a7 612f d43f
00000040: 0da9 86df 7a8a cb3f 9616 cf3a 95f7 b2bf
00000050: 0ef9 8712 23cf a3bf 5954 c390 8bc3 e4bf
00000060: 87b7 3d9f 82fe d43f b3f7 dc81 46e8 a5bf
00000070: 52db 7749 e8a8 e6bf 8208 867f 1688 d33f
00000080: c015 0e83 5967 c83f 8dfd 3366 5518 7b3f
00000090: 74ba d5f5 2a0f afbf 4f7c 6eb4 5587 e4bf
000000a0: c838 eb6a ed14 d53f 3c28 5133 2ad4 b3bf
000000b0: 268a dedc 3df8 e5bf 8490 a6cf e973 d13f
000000c0: 310b 17e0 5323 c53f c6d2 9c39 886e b8bf
000000d0: c127 bfd0 68a2 e7bf 5652 b2e1 49fb d03f
000000e0: 9f25 45de b843 d33f f552 7d56 33fe cebf
000000f0: e16b a7d7 cb04 ddbf 84b2 9a65 38d7 d23f
00000100: 820e 6c38 aa5c c53f 0d68 507a 3a0d bbbf
00000110: 2648 87b2 3eab a8bf 4fb8 3684 6ebb e1bf
00000120: 2882 f343 ca5c d23f 5155 9333 7fbb b8bf
00000130: 1482 946f ab37 ebbf fafc 8e15 066a dd3f
00000140: 5e6a 3eda 5d3f c63f 9ab2 bb39 f358 e8bf
00000150: 0e9b 2779 21ca 85bf 7ec2 eb57 0503 e6bf
00000160: 2954 3c1e b64d d03f 8338 9e66 daa9 acbf
00000170: 2755 ea93 6d08 c1bf cf62 314c 59be cb3f
00000180: 92c2 4312 8562 d03f e5bb 64ca 004c c13f
00000190: fd0c d3ed 565f bebf bb89 e7eb 1c42 e3bf
000001a0: fb11 2a27 009b d83f e2e4 e8cd faa4 bcbf
000001b0: cf56 c7ce bf8f ecbf 01f1 a7a7 3e02 cc3f
000001c0: c098 a957 c8d4 cb3f 8232 0ab6 d4b2 b73f
000001d0: 55bc ddc2 efb1 e7bf 7139 a8f5 70c0 ac3f
000001e0: 4d20 e999 4411 d73f 5641 a81c fc72 d2bf
000001f0: 4558 6c88 db73 e4bf 4ddf 2d1d 36ef d13f
00000200: 45e7 d6d0 bb2d bb3f def9 27af cdc1 c73f
00000210: 51d0 bd1d 1ae7 a3bf 1fc5 d06f 12d8 e3bf
00000220: a787 763e 956b c93f e09b 9295 548b abbf
00000230: f5e0 4fdf 91ea e8bf 58d9 06fa 670e b63f
00000240: 6d08 2b87 5551 c43f 6be3 ac5c 88dd bbbf
00000250: 516e 7074 bb32 e6bf b6ba 4ad5 04bf cf3f
00000260: 3f14 581c d277 d13f 59e4 83f6 9f12 c9bf
00000270: 2769 0c14 0e4e e7bf 283e 63d0 d7d5 cf3f
0.20495209597243913 0.10612099761556261 -0.030231540984801842 -0.6624537974097183 0.33247342318781065 -0.07843319595315046 -0.7028825033960264 0.31539193467013943
0.21516357340198802 -0.07409031568303201 -0.038689704906561415 -0.6488702609446008 0.32803407240759735 -0.042787745811878074 -0.7081185755658714 0.3051811452243173
0.19065398120089405 0.0066150031955197865 -0.060662596234455274 -0.6415203594259625 0.3294023079041719 -0.0774561286245054 -0.6865529359677722 0.2726997878874118
0.16514061395545235 -0.09543658644254113 -0.7385753705104819 0.265337438971334 0.3010084314924714 -0.24213258479235092 -0.45341774043998667 0.2943860046605453
0.16689040904030966 -0.10567059980567724 -0.048181494992278126 -0.5541298467922021 0.2869134582124695 -0.09661097535293563 -0.8505456141757031 0.4595961771519367
0.17380879551349698 -0.7608581664658971 -0.010639440069053954 -0.6878687588887968 0.25474312737179844 -0.05598337652837506 -0.13306970331601883 0.2167464849506104
0.25601317199383644 0.13513193018431405 -0.11864226633320026 -0.6018204314717005 0.38446048569338104 -0.11189239050954172 -0.8925475157400004 0.2188185042031208
0.21743110924143672 0.09257249302226891 -0.7404707723598088 0.05615571020836086 0.3604289534600909 -0.2882681159835746 -0.639142767383199 0.2802253041222585
0.10616659020061288 0.1856019120459242 -0.03887254345946246 -0.6201259788414609 0.1985956721301225 -0.05379738164747727 -0.778634010464002 0.08615732053917691
0.15873211956028702 -0.10884907019216221 -0.6936929010584639 0.24801693358081928 0.27293827789282327 -0.19588088547587537 -0.7282781974384179 0.24871347117594778

arr_1 f8 [10, 1, 1]
00000000: 1fb9 061d 673c 0140 8066 b69b 0f3d 0140
00000010: 74a2 77ec 9ca5 0140 7ae6 2052 3235 0240
00000020: 9360 acc5 6c7c 0040 16b9 6a09 bf1b 0140
00000030: 3cdd 56d6 d740 0140 775e f639 cc24 0240
00000040: 8d89 1548 1df4 0040 33b8 dcc9 27b5 0140
2.154493548171686 2.1548149266280348 2.2058657144555642 2.2759748855867743 2.0607543414335594 2.1385479675001404 2.1566616769083833 2.2679676559744695
2.1191964751789727 2.2134547968371634
