Weights/abalone/1/weights.npz (npz, 1210 bytes, 2 tensors)

arr_0 f8 [1, 10, 8]
-0.3999847134612785 -0.19773176456789535 0.3957870568635438 -0.6751631517254644 -0.16871843754712434 1.0732529057373101 -0.11969660084548797 0.026169094401777674
0.7014553563288776 0.2950070460221227 -0.8949900265959233 0.1030998483920684 0.603156960207912 -1.6403880930484795 0.0784984021667909 0.008981561378633329
0.0019446717442654356 -0.02182710685229081 -0.7971816169491082 -0.8782780777753133 0.06496384675868745 1.1247215844857144 -0.027916215589991047 0.0956754301532402
-0.6383543857868741 0.9613693265355565 -0.01887326005960505 -1.1682315834994286 0.3363033693612068 -1.1801301078302366 0.9675296841002252 -1.0467890594793683
0.13054403329964065 1.3315580671819855 0.03886185625770931 0.36449589828781465 0.8046329208529777 -0.3878553060547914 1.220694723283328 0.3446764446346867
0.6693254199665982 0.8077627975126564 1.8084412507314302 0.9479940881835116 0.7710326799078001 0.3176990652117505 1.008367993739336 1.0555732261529618
2.821865726517589 1.199219632929272 3.0842373392169713 4.474593804915429 1.5481152726101126 1.851155278202202 1.2275383455579463 3.39928916630728
-1.6279063198561587 -1.0662537442053672 -0.7792579120070582 -4.173929055032709 -1.2953407279316718 -7.518811176651729 -0.8722847677368921 -7.502970779156192
-0.17829481801253952 -0.13679959476688536 0.7312413485085622 -0.1538903393850636 -0.18672110748549123 -1.5249934037693063 -0.08136940391563444 -1.3113979401189935
2.032482122102739 1.5947585037580998 1.8526983563382395 3.0227490577103913 1.5329382672126985 2.8478307724217267 1.4675174574618022 4.1214086805280745
00000000: f2d4 cd7b 5999 d9bf a188 1943 464f c9bf
00000010: 452d 5a3c 9354 d93f 4601 04c1 ef9a e5bf
00000020: 8ca1 bfd5 9098 c5bf d4a8 273d 0b2c f13f
00000030: 6ae0 12ba 6fa4 bebf 517d 7c32 12cc 9a3f
00000040: 772b e180 5272 e63f 1a4b b03b 65e1 d23f
00000050: 9d38 cf1f c2a3 ecbf 9e05 116d c064 ba3f
00000060: 0354 4ed3 0f4d e33f a341 c695 073f fabf
00000070: 2d39 18a6 7818 b43f 2621 1bc3 ec64 823f
00000080: febe c162 8bdc 5f3f 3936 6358 d859 96bf
00000090: 2a9a b805 8382 e9bf c1d6 9aa0 da1a ecbf
000000a0: 2d3c 407d 78a1 b03f 098b 670f dcfe f13f
000000b0: 87c9 f283 1196 9cbf 48f5 895b 2f7e b83f
000000c0: 30cf 462d 666d e4bf da20 1b9b 89c3 ee3f
000000d0: f14d e60a 8353 93bf a78c d499 13b1 f2bf
000000e0: 3539 3c91 fe85 d53f 3d7e a21b d0e1 f2bf
000000f0: 68d4 e3cf 00f6 ee3f 4b64 84e2 a5bf f0bf
00000100: badd dab8 aab5 c03f 7858 f4d4 0f4e f53f
00000110: 2e9f 6083 b3e5 a33f 1107 ab9a e653 d73f
00000120: e026 0b8a 8dbf e93f 3177 c50f 9fd2 d8bf
00000130: 376d ae30 f787 f33f 0a15 5aca 2d0f d63f
00000140: 896a a424 1d6b e53f 2ac1 c75d 31d9 e93f
00000150: af0f ca17 60ef fc3f b095 b1b2 f755 ee3f
00000160: 573d 0bba 4cac e83f aa78 c375 2e55 d43f
00000170: e818 377a 4622 f03f 4fc3 4dc0 a0e3 f03f
00000180: 46c5 8856 2e93 0640 0470 02ed 0030 f33f
00000190: c54f 48a0 84ac 0840 e0fb 1beb fbe5 1140
000001a0: e5c6 2485 14c5 f83f cc23 3bff 549e fd3f
000001b0: 021e 8c3f ffa3 f33f b77e b784 be31 0b40
000001c0: 20be 4b7f e70b fabf f897 0916 600f f1bf
000001d0: a406 e749 aeef e8bf 39c2 4c75 1ab2 10c0
000001e0: 384b fa32 b7b9 f4bf e612 b23c 4313 1ec0
000001f0: 3653 c7be c1e9 ebbf 2747 9dc5 0a03 1ec0
00000200: 1b7f 3456 5dd2 c6bf 1e9e d02c a682 c1bf
00000210: 8778 aa41 5466 e73f dd22 6abb adb2 c3bf
00000220: 45c1 0f2d 7ae6 c7bf d8e0 bc7b 5f66 f8bf
00000230: 2a71 b610 a0d4 b4bf 3fa5 0d68 7cfb f4bf
00000240: 6916 a1fc 8542 0040 fc8a 2a7e 2184 f93f
00000250: 0a36 1d08 a7a4 fd3f 2e0c d70e 972e 0840
00000260: 7b72 c746 ea86 f83f f8bf 0080 5bc8 0640
00000270: 5eb8 e195 f37a f73f 3d46 a18e 527c 1040

arr_1 f8 [1, 8, 1]
1.7450148672343413 3.6353081735373793 2.1803362401345896 1.6241045609765126 2.8558349457947454 2.090549747913628 3.4888316289213264 2.1014182839424485
00000000: 6be2 9cb5 94eb fb3f dacb a173 1c15 0d40
00000010: 174b 6d20 5471 0140 61db 6a10 55fc f93f
00000020: ecb2 f7fd bfd8 0640 c299 6f25 72b9 0040
00000030: 73bd 9b8e 20e9 0b40 7bfe a563 b4cf 0040
