Weights/abalone/1/weights.npz (npz, 7546 bytes, 2 tensors)

arr_0 f8 [10, 10, 8]
0	0xbfb7fa0602ef3774	-0.09365880557672118
1	0x3f9c5f550ec6c8e6	0.027707413699041526
2	0x3fc3d2c994c775a3	0.15487022175413498
3	0xbf9e5411fffd4d02	-0.029617577790600265
4	0xbfd6b7d299685407	-0.35496964436725914
5	0x3fafd0ef19569fda	0.06214091476732593
6	0xbfe6deaa60aabe8e	-0.7146808517481575
7	0x3ff11543aafa95b6	1.0676914862500388
8	0x3fe2bd07412c1d26	0.5855747483155127
9	0xbf5f4689c11c6010	-0.001908907438012978
10	0x3fb43a80ed746c8e	0.07901769444690585
11	0xbfe566c676233580	-0.6687958056806309
12	0x3fef0a435d571db6	0.9700028250744512
13	0x3f920b6aa41fb0be	0.017621675746270375
14	0x3fc2817dc176b0e2	0.14457675882784488
15	0xbffa067790a66cd8	-1.6265788698572603
16	0x3f89dfb9a9536d65	0.012633753280559554
17	0x3fd246dbc77d1521	0.2855748603945632
18	0xbfc165b213028b8d	-0.13591600349635904
19	0xbfe127a50a4cca2d	-0.536089439503774
20	0x3fc5a412c0f5f258	0.16906961843405344
21	0xbfc4e778339ba40b	-0.1633138896934557
22	0xbfe793064457fd99	-0.7366973242605354
23	0x3ff3f821d50aae7c	1.2480791398947124
24	0x3fd1bd67541bd454	0.2771852799772365
25	0xbff4ec35d92796d6	-1.307668541202863
26	0x3fe653529a599199	0.697671224083524
27	0xbfe84605f898f309	-0.7585477691096411
28	0x3f9e9acf987b8473	0.029887431794922436
29	0x3fee68c3843f33cc	0.9502885420748668
30	0xbffa710eddb98fcd	-1.652602068054864
31	0xbff073d972da55d7	-1.0282835470619511
32	0x3fe8c88b10043042	0.774480372697788
33	0x3fdf112309251caa	0.4854209508234343
34	0x3ff177c7e293a9ab	1.0917433596283483
35	0x3fd1585bbe222b14	0.2710179669162909
36	0x3fe69f8120733155	0.7069707521236902
37	0x3ff439d028b1d95b	1.2641145314824687
38	0x3fdbb624a8dc9057	0.4329921387709467
39	0xbfc7803eca49eb05	-0.18360123517398833
40	0x3feb737385d739f2	0.857843171508476
41	0x3fee056850aedd79	0.9381600929108763
42	0x3ff137aca177f6f3	1.0760923678748753
43	0x3ff2b5c18a9152b8	1.1693740284728573
44	0x3fdd64d4ed5cf48f	0.45927928142538915
45	0x3fef4967a32e4d5f	0.9777105509878473
46	0x3feca756cdb3b724	0.8954271333329626
47	0x3fcf2a9f3e58e39b	0.2434882215909767
48	0x3ff82c52c4618966	1.5108211203701898
49	0x400c5c28dbe4c904	3.5449998072809894
50	0x3ff36e4abeb0d04a	1.2144267510275477
51	0x4011d1cb6835ce75	4.454877498897635
52	0x3ffc3f4e78782be3	1.76545569475524
53	0x3ff0ab9ef6762227	1.041899645557473
54	0x40125cad7b2e5f0b	4.590505528168943
55	0x3ffe1190af1b1419	1.8792883720464089
56	0xbff370a88aa064f5	-1.2150044837092626
57	0xc01e372cf320ad2c	-7.5538824070638775
58	0xbfde12651f46429f	-0.46987274221559433
59	0xbffa86a490c00feb	-1.6578717855745662
60	0xbffcdd89bfd4b6fa	-1.8040864461322017
61	0xbfdb644342e3b24c	-0.42799455196544467
62	0xc00f4219fe6f86db	-3.9072761419091484
63	0xc01e338dacc77a9e	-7.550345134425383
64	0xbfa563c574ceb9d9	-0.041776819714289544
65	0xbff6fc87a520acb0	-1.4366527986810915
66	0x3fc23f1a3e29f375	0.14255073581071157
67	0x3fe1266b087838bd	0.5359397092268164
68	0xbfbf5adbf682d87d	-0.12248015182817258
69	0x3fc5be1c969fe0c5	0.16986424784386692
70	0xbfd11a62f01dc502	-0.2672355027089709
71	0xbff86ca3561775c8	-1.526522957129929
72	0x3ff768ef282e79dc	1.463118702849548
73	0x401051ee3f6e2481	4.080010405633517
74	0x3ff204df211ae885	1.1261893551987054
75	0x4005b61f90ad8f8b	2.7139273932425048
76	0x3ffb202838d19100	1.6953508586385055
77	0x3ff26d7063a07371	1.1517185107870456
78	0x4007800730b92285	2.9375137144564314
79	0x40043bb176952516	2.529147077967205
80	0xbfbc4b306267facd	-0.11052229311460877
81	0xbf97662f45902082	-0.022850741024769146
82	0x3fb15e01586efabd	0.06784065636655164
83	0xbfc0353c4ca5fa25	-0.12662461989016652
84	0xbfd25714ec91316e	-0.286565047285669
85	0xbf8d9d5d924c1c34	-0.014460307147159047
86	0xbfe5ef52752f91d9	-0.6854641236100704
87	0x3ff2bb13d79df36e	1.170673219922914
88	0x3fe45f6c73135f4f	0.6366483924457301
89	0xbfa3c7feaa61ebb2	-0.03863521413673911
90	0x3fb4e156c13746a0	0.08156339852510053
91	0xbfe574bb2b53ca06	-0.6704994055019717
92	0x3ff03147ac9a82a7	1.0120312444998179
93	0x3fbd25e1f28d8a78	0.11385929271413342
94	0x3fc29cb4a3d45d02	0.14540727614869559
95	0xbff94e13929ceb9e	-1.5815616347378874
96	0xbf6fe39accbc449e	-0.0038927100594113436
97	0x3f7f6515da349ee4	0.007664761887361957
98	0xbfb2f5ee62cf37a7	-0.07406511223163524
99	0xbfda4d076f491b19	-0.410951479604067
100	0x3fa8a83893df8283	0.048158424425996514
101	0xbfbe2de60f6e5fea	-0.11788785816895567
102	0xbfe8ee4322568559	-0.779084746424057
103	0x3ff1437b396d822e	1.0789749377510236
104	0x3fd1a9ffa76b246e	0.2760008940645723
105	0xbff5e1920c543634	-1.3675709230041209
106	0x3fe72a46f8aaddee	0.7239107949052916
107	0xbfe43de847391502	-0.6325570479463354
108	0x3fa4529d25d7bcb3	0.03969279372165015
109	0x3fee156942802f3b	0.9401136683313561
110	0xbff774ba30fa1eb0	-1.465997878376509
111	0xbff54b2360064830	-1.3308442831953577
112	0x3fe98e9d7ad56edb	0.7986590766044758
113	0x3fe19617bcf878e5	0.5495718661148002
114	0x3ff07e9a404c4f43	1.0309088241237567
115	0x3fbfeba4f44290b8	0.12468939746264851
116	0x3fe9847d8f9496da	0.7974231533341609
117	0x3ff32fd4b6b2fd7b	1.199177468937562
118	0x3fdefdc1c79ee90e	0.4842380952283215
119	0xbfd6a534508f4b4f	-0.3538332735744704
120	0x3fea99b65904e081	0.8312637079861959
121	0x3ff02b66d934e917	1.0105961308132174
122	0x3ff107e2292ba850	1.0644246681427099
123	0x3ff593c9dfa5ffed	1.348581193567948
124	0x3fe02561785a0c93	0.5045630789394572
125	0x3fed7a3fa6939721	0.9211729291389227
126	0x3ff0178e1f5173db	1.0057507727972197
127	0x3fc3e89c9cdcf0d9	0.15553624781921974
128	0x3ff979369045f6c3	1.5920930514979978
129	0x400fe821ae417914	3.9883454908114206
130	0x3ff4b63c99a5bbfd	1.294491386590152
131	0x40113628ebf9fde6	4.302890479214943
132	0x3ffe20a31c965bc4	1.8829680554097061
133	0x3ff1a51c86d6cb93	1.102810408320441
134	0x40123f7e7e041922	4.562005967140324
135	0x4002044f0af1c576	2.25210388708427
136	0xbff4608f7cfc4ccf	-1.2735743410346918
137	0xc01e150e9f09a8cb	-7.520563588108597
138	0xbfe3843547bc8b25	-0.6098886872390251
139	0xc000511c416b5c84	-2.039604674424085
140	0xbffc154af0cf5f65	-1.7551984221117547
141	0xbfe252588a7fbeda	-0.5725519852694234
142	0xc00de82b163693e1	-3.738363431492403
143	0xc01e1cf1e50b133e	-7.5282665050515885
144	0xbf9b0bb12560409b	-0.026411788851021894
145	0xbffa806f2fa0b2af	-1.6563560352762285
146	0x3fbd5c66c071e884	0.11469118307459963
147	0x3fe2f80b10f0064e	0.5927787142574716
148	0xbfb11a4811cae116	-0.06680727419268737
149	0x3fbf6e1cc494e29f	0.1227739314971452
150	0xbfd4518d68676921	-0.31747756190965687
151	0xbffd616647ac1ab6	-1.8362791824053324
152	0x3ff6c63a44a8050b	1.4233954126251003
153	0x400e390b47876637	3.777853545016821
154	0x3ff20d56e700f3fb	1.1282567046721386
155	0x4003bc593074000e	2.4669669900322395
156	0x3ffabb7223658036	1.6707631476092621
157	0x3ff2af47385bf376	1.167792530205785
158	0x4003ff593c52c6fb	2.4996819222222917
159	0x40020cf3ad6b62b5	2.2563241527935483
160	0xbfc5b1b6e4540fc1	-0.1694859137425038
161	0xbfb57f62cbb81b18	-0.08397500489818943
162	0x3fa42fb5603fd714	0.03942648696822296
163	0xbfa76ffd288628f1	-0.04577628249815458
164	0xbfd88a4ad41140ba	-0.3834406920405048
165	0xbfaf335aeac80e03	-0.06093868366226831
166	0xbfe63e3b1c157172	-0.6950965450774176
167	0x3ff313ee8eac65fb	1.1923661778622534
168	0x3fe468385af104cd	0.637722184772565
169	0xbfb21d7246faf00d	-0.07076181633868846
170	0x3fc19c3bbfcb2374	0.13758036484639613
171	0xbfe72579f5c47353	-0.7233247566360695
172	0x3ff0dac41ac78a05	1.05340967617724
173	0x3fc4e197b6bc659a	0.1631345407738934
174	0x3fbd622b32952947	0.11477918610504388
175	0xbff9d3b4d7972a5f	-1.614186136389115
176	0x3f78b357182cb46a	0.006030407154679821
177	0x3fd0fea63e5aa9f2	0.26554256524346365
178	0xbfc28de10b8c509c	-0.14495480598327937
179	0xbfdb17d1146943a3	-0.42332865708618267
180	0x3fbbad36fcf4a2f2	0.10811179805444818
181	0xbfc83c765e23f3f6	-0.18934516522122607
182	0xbfe62b4048c66a47	-0.6927796765697359
183	0x3ff06cc00764990b	1.026550320509673
184	0x3fd3d33bf112a640	0.30976770918150365
185	0xbff113bf0089c5b5	-1.0673208256742843
186	0x3fe69620646fbc1e	0.7058259927415553
187	0xbfe415cfde4d6d7a	-0.6276625959248314
188	0x3f9ed25257e0ec43	0.03009918843620719
189	0x3fedfc5424487aac	0.9370518406538699
190	0xbff6bd0ba98fc3ce	-1.421153700208595
191	0xbff32c128b6fafc0	-1.1982598730782996
192	0x3fe90572ace1b9f5	0.7819150330158765
193	0x3fd97f4229626fd9	0.39839223901230764
194	0x3fedb7d948dee589	0.9286924765830672
195	0x3fc8d7f0c4e976bd	0.19408998122064772
196	0x3fe99326478edc02	0.7992125890367563
197	0x3ff1dced0879cc93	1.116436989887721
198	0x3fce6a5bdd18e4c7	0.23762081428302492
199	0xbfda53ea59251eb1	-0.4113717909390103
200	0x3fe9abe6c10307cb	0.8022340554964499
201	0x3fecd692385436c5	0.9011927700209631
202	0x3ff18d020eb31a1a	1.0969257902339735
203	0x3ff3ce9562ec9745	1.2379354347444445
204	0x3fd8407a411dbda9	0.37893539771081436
205	0x3fed94ea97b312a0	0.9244282687073628
206	0x3fefdef8e89ec8be	0.9959682982792157
207	0x3fabacd2c0d93976	0.05405291179760045
208	0x3ffb09403929d404	1.6897585137314772
209	0x400dec4eb110a5cc	3.7403844674306352
210	0x3ff775a5865dcc0a	1.4662223099410334
211	0x4011105a947a28ad	4.265970535236346
212	0x3fffc79221ec382a	1.9862233471972197
213	0x3ff3d333aa9d86c9	1.2390629448567998
214	0x40133ba87f38d3fa	4.8082599523959235
215	0x3ffecd68b8db3796	1.9251486988973503
216	0xbff2be6a386964b1	-1.1714880183774705
217	0xc01ec4494530f3b7	-7.691685753929895
218	0xbfe1355f876d3ff2	-0.5377652783445213
219	0xbffc8e9e75c50cbb	-1.784819088018408
220	0xbffb9f910d19b033	-1.7264566909534664
221	0xbfe0c94387e171f3	-0.5245683339995239
222	0xc01140e3957c7af2	-4.313368163798019
223	0xc01d56fe54dd6f42	-7.334954572692199
224	0xbf96e6cad6c21558	-0.022364777906223793
225	0xbff8c1d5a142f733	-1.5473228740006106
226	0x3fc1821d835d5413	0.136783303397039
227	0x3fda5e7ca4ebac05	0.4120170221855804
228	0xbfb986fb299b847a	-0.09971589818771234
229	0x3fc36241bf7f53cd	0.15143606043298377
230	0xbfd25b9b2e80c9c1	-0.28684119740787756
231	0xbffb4a3814a09a20	-1.7056198888545921
232	0x3ff76d945e0eb25e	1.464252822314982
233	0x400deddfd67a7b73	3.741149592984067
234	0x3ff24de3e70d80de	1.1440161729333833
235	0x4002a40e5b15bdd5	2.3301055065164555
236	0x3ffbdbc99c179fcc	1.7411590669016617
237	0x3ff34c6390d85b8a	1.2061496408475443
238	0x4007eac1e6f2de1c	2.989627651488048
239	0x3ffe3666e250a9b0	1.8882817116196797
240	0xbfc461f6002e107c	-0.15923953064714513
241	0xbfc361d67d970b40	-0.15142327434849712
242	0x3fddd32ccd8c973c	0.46601409981882447
243	0xbfd3b8c198fa4849	-0.3081516260073199
244	0xbfd6f8a0f71844d6	-0.3589250958476219
245	0xbfbfbff9f8bf8d40	-0.12402307818370151
246	0xbfdfcaabd16e2582	-0.49674506618665515
247	0x3fecfa4bfd94c1b3	0.905553813243435
248	0x3fe055d55883b262	0.5104777077481908
249	0x3f98b94a881f4688	0.024144329603422082
250	0xbfefe082137751ea	-0.9961557750889913
251	0x3feae39ff0a2fb3e	0.840286226266336
252	0x3fee0aacc690dfd5	0.9388030889740501
253	0xbfc9eff225619a2d	-0.20263506722695138
254	0x3fd0e024f55441a9	0.26368068654940174
255	0xbff9c6ebc9dc951c	-1.6110647092076027

arr_1 f8 [10, 8, 1]
0	0x400677482f7ddc5b	2.808243151691881
1	0x4001efe6a4f30033	2.242139137903018
2	0x400921c4f278a557	3.1414889281337923
3	0x400006a9d1a4eb7c	2.0032535913900897
4	0x4005e92b96d067e3	2.7388526708937078
5	0x400ab66048175969	3.339050830090106
6	0x3ffbc6d3857152c3	1.7360415661434423
7	0x4001515407055b7b	2.1647110508451397
8	0x40069115f8cd9af5	2.820842689299179
9	0x40028cd56cf6f3fe	2.3187664521087745
10	0x40084e17c12b9cf0	3.0381312457499163
11	0x3ffef8738acd293c	1.9356570646219344
12	0x4006a012af4ce3de	2.8281606383647917
13	0x400a20d3f8483ee7	3.2660293004081384
14	0x3ffb3171ec60a9e5	1.6995715363979056
15	0x400256f5efb0eabf	2.2924612737527634
16	0x40077a18135a4738	2.93461623305566
17	0x4002fb764dc2f756	2.37278424025764
18	0x4008c4000361358d	3.0957031501809014
19	0x3ffe813573fec5f1	1.906545117479592
20	0x40078e7006266e7c	2.9445496063688648
21	0x400acfa2ba2311f0	3.35138459605718
22	0x3ffdddb42818c1dc	1.8666268888738307
23	0x400398557c9d4565	2.4493818030829737
24	0x4008588ee0bbfd02	3.043241267907093
25	0x400066175e4ee4ce	2.0498492591692417
26	0x40022b1bd797b593	2.2710491984532353
27	0x3ffe7c949a3a4da2	1.905415155841958
28	0x40097e74669dedf0	3.186745454496979
29	0x400e08ad5f166c5c	3.7542369297712366
30	0x3ffa0e574376e1cb	1.6285011897399382
31	0x4001929e20eab424	2.1965906688333394
32	0x4005bbfb565371aa	2.7167879814353073
33	0x3fffa1123b18f793	1.9768240269181419
34	0x4008a847bd4751cc	3.0821680819883337
35	0x3ffef0535b8552f3	1.9336732459097987
36	0x400558ab511c735b	2.668295510941261
37	0x4009d182afe648a5	3.22730004712601
38	0x3ffacf817140b9aa	1.6756605552614965
39	0x4002c16310ec748f	2.344427234855693
40	0x4005b8ae704514b7	2.7151764651376555
41	0x3ffcf9f2641cf80f	1.8110221777601543
42	0x40085e19fcea1e9a	3.045948005575906
43	0x3ffe5a819b3b224e	1.8970962585173257
44	0x4006bbad93d554e5	2.8416396665075916
45	0x400a2052f12dccd0	3.2657831995107713
46	0x3ffeb646ce241492	1.9195011188869882
47	0x40036c83a478f1fe	2.4279854630860873
48	0x4006802780760984	2.81257534370633
49	0x4001032e265606ba	2.126552867412866
50	0x40058c3318f9ef4a	2.6934568358682656
51	0x3fffbf20a1999a65	1.9841619789600824
52	0x40066aac9728fc4b	2.8020870026953495
53	0x400b4c04d19aa3d1	3.4121185660664897
54	0x3ffb80c351a14685	1.7189362705870803
55	0x3fffede5a34061e8	1.9955803277026636
56	0x4008fb5cf840d01e	3.122735919454512
57	0x40017342dae248d9	2.1812798595720833
58	0x4001dcee8d9b2d06	2.232876879022686
59	0x3ff7e136077f2337	1.492483166965213
60	0x4008d8be2f252877	3.1058314974989645
61	0x400e94175a7e659d	3.822310168249443
62	0x3ff9c8419086eb91	1.6113906522357164
63	0x4000e0e9cab4fad6	2.109820922515932
64	0x4005f22d260d2f0c	2.7432501766942377
65	0x40010d2ea831960e	2.1314366474277966
66	0x4006496405c8dd1e	2.7858353092120884
67	0x3ffe0b53268d9018	1.8777648454643039
68	0x40074bd857674f00	2.9120337322618752
69	0x40096ff5714c344b	3.1796673632984827
70	0x3ff9d428aafe6aa7	1.614296596474256
71	0x4000f93ad5a3b66e	2.1216942492090345
72	0x4007bc2a9677dcf8	2.9668781047181447
73	0x40011ec8c394d4e1	2.1400313644213473
74	0x4000fe7effe0ba0c	2.1242656698661957
75	0x40006dde569a27df	2.0536467328829384
76	0x400800d2d29ee6eb	3.0004021124594735
77	0x400cc30426d0db9c	3.5952227623451574
78	0x3ff8006f94d7567b	1.5001064123256629
79	0x40018fecccc9c1bf	2.195275878817682
