Weights/soybean-small/1/bweights.npz (npz, 1146 bytes, 2 tensors)

arr_0 f8 [10, 1, 4]
00000000: 1c0e d6e5 05ef d9bf b65d 7308 3f31 b6bf
00000010: 29de bad0 3f95 9cbf b876 816b e92b e2bf
00000020: 793e c021 5e95 dbbf 9ce2 14cb 8517 b3bf
00000030: 143d 9000 02dd b0bf 3579 5ba4 f257 e4bf
00000040: fa14 2142 1317 dcbf b9ad 8515 9f09 b7bf
00000050: 70b7 131f 60ba a0bf 1f1a aad9 57e1 e3bf
00000060: adbf cf1c 5745 debf f119 85fc f8d6 b6bf
00000070: 961d d0df 28d2 94bf f905 a00a 7ce5 e3bf
00000080: 572b 39da 3752 dabf f6ee a515 755f babf
00000090: d2c3 74d3 210b 93bf 1cd2 8a51 8c5b e3bf
000000a0: c154 0468 b445 dbbf 5b85 3126 cc56 bfbf
000000b0: ce84 5aba 3a73 88bf bb5e d878 2e38 e3bf
000000c0: f0b5 479c 2126 ddbf 0e79 6cac dd58 b8bf
000000d0: 4bf1 4212 85ff 96bf da12 a743 3cc6 e3bf
000000e0: fb05 46b4 8df0 dbbf d5e0 a2fb 9633 b4bf
000000f0: 6dd5 3c1a d6e8 adbf ea94 ee9f 99a6 e3bf
00000100: 8714 d6c8 d032 debf 39ff e3d2 58ff b7bf
00000110: 47ee 7b24 67d8 a8bf 8753 d750 108f e3bf
00000120: 6042 1e92 15e3 d0bf bded 793b b86a b7bf
00000130: 4c96 4530 f8af a1bf ab30 b376 dc27 dabf
-0.40521380848824307 -0.08668893772425332 -0.02791309081541563 -0.567860326740365 -0.43099168106071023 -0.07457767684980826 -0.06587231172328628 -0.6357358179191467
-0.43890840013439425 -0.08999056125110529 -0.032671932023602746 -0.6212577105769163 -0.4729821950304494 -0.08921772160565646 -0.02033294549985739 -0.6217632491608917
-0.41126819907065254 -0.10301906374473532 -0.018597153216606994 -0.6049253075239593 -0.4261294379987924 -0.12241817409951265 -0.011938532650051317 -0.6006080971009945
-0.455452349297814 -0.09510598620952157 -0.022459105720132027 -0.6179486581173379 -0.43655722241246026 -0.07891219752753227 -0.058417025282703296 -0.6140869258566941
-0.4718515359202872 -0.09374003552147493 -0.04852602310526471 -0.6112138346603481 -0.26386012334208964 -0.09147216274316512 -0.034545665638500894 -0.40868293372910597

arr_1 f8 [10, 1, 4]
00000000: cbc0 06e0 5a06 c3bf 8132 941b be64 c43f
00000010: 8177 78fa 424a d4bf 6ff0 6a39 dbf3 d23f
00000020: c67a 3105 aace b4bf b118 6e8f cb8d cc3f
00000030: c0cf e1c0 2dd5 d7bf 39a8 60ae 7835 cc3f
00000040: a154 06a2 33fc c1bf 05af bb25 d571 ca3f
00000050: a3b8 4914 c7aa d3bf 977a 505e 8091 cd3f
00000060: 5293 5799 d757 c5bf 96c4 3443 ea95 cc3f
00000070: a7df 292d ddd6 d1bf 1ef2 e869 3b21 cb3f
00000080: 3fdf d626 c32b c8bf dfa1 6069 8a96 cc3f
00000090: d07f 9197 2364 d3bf 5fd0 05d3 8987 d03f
000000a0: b027 7d9d e601 cdbf ea9b a27c 2f73 cc3f
000000b0: 9680 75da ae06 d1bf 66f8 9b47 d4a6 d03f
000000c0: e9b2 3dae 11e5 c8bf 7808 ae3c aecd cc3f
000000d0: ad78 4b6f 627b d2bf 7dff 9809 bcbf cf3f
000000e0: c0b4 9d35 312c bbbf bd0e 4989 4f08 cd3f
000000f0: 2574 3daf 523f d5bf 4f17 7329 02be c93f
00000100: 53cf fa1f f9bb c3bf 5cd3 3961 4269 ca3f
00000110: 01fe aee1 f08a d4bf bead c81d 168d d03f
00000120: ca19 d668 c069 bebf a1bb 167c 11e6 c63f
00000130: 0bcd e480 b682 d6bf 7b27 c8b9 e702 d23f
-0.14863143862522174 0.1593244204199387 -0.31703257045762007 0.2961338101120025 -0.08127844454564145 0.22307724479123217 -0.37238639675274143 0.22038181795625336
-0.1405090848099109 0.20659889547766155 -0.307298440754389 0.2310028515357387 -0.16674323069960423 0.2233250454096704 -0.2787392560053327 0.21195166274436955
-0.1888355197568163 0.22334413667091632 -0.3029870014343006 0.2582726059693012 -0.22662050905119946 0.22226518235876763 -0.2660328992260558 0.260182447367589
-0.19449063308584094 0.2250268741882484 -0.28878079289087105 0.24803877323756388 -0.10614306982980093 0.22681612208736182 -0.3319899283722541 0.20111109756379128
-0.15417398511419353 0.20633725879056442 -0.3209802822056816 0.2586112299784097 -0.1188011413524698 0.17889612731002294 -0.35172808253555904 0.2814273180271056
