Weights/soybean-small/1/weights.npz (npz, 12986 bytes, 2 tensors)

arr_0 f8 [10, 35, 4]
000000 12 ce ce d2 2f 04 b8 bf b8 f6 09 94 e8 66 cc 3f
       -0.09381388565707763 0.22189051845992025
000010 1e 63 60 88 c2 a5 d7 3f 7f 84 9c f1 49 b4 dc bf
       0.36949218099612036 -0.4485039576994225
000020 15 e9 ea dd fd ce b5 bf fd f6 77 f4 fd c4 de bf
       -0.08518969219122526 -0.4807734382046503
000030 f7 aa 22 d2 9e 44 e4 bf 9c 66 3e 53 bb 28 d6 3f
       -0.6333765129287191 0.34623606805107854
000040 6d 4e 9c 21 05 15 bb 3f 62 76 c5 56 5c 5f e4 bf
       0.10578949041910742 -0.6366407103302658
000050 1d 09 d3 6b 3d 9f b8 bf e1 50 22 ec f9 90 d5 bf
       -0.09617980844908343 -0.33697364864316454
000060 03 f7 39 48 12 6e cf 3f dd 8e 38 21 e5 7d d6 3f
       0.24554661299401212 0.35143402332526624
000070 81 62 23 ba 47 84 d5 3f 7c 12 d5 56 17 20 be 3f
       0.3361987416988442 0.11767717237405323
000080 16 92 e9 44 9a 78 9a 3f be 53 52 11 df 3c b5 3f
       0.02585068746192761 0.08296007321253193
000090 5e 59 62 3e c4 f3 c2 bf 73 d9 62 7b 32 44 de 3f
       -0.14806416555502272 0.4729124264662438
0000a0 a7 14 24 17 3f 66 d0 3f c6 8e 12 6b 4e 2e a5 bf
       0.25624062785966334 -0.041368914194462245
0000b0 60 02 1a cf f3 33 b2 3f cb 47 36 86 32 07 c6 3f
       0.07110523039046646 0.17209464600870059
0000c0 22 23 45 92 60 0a e3 bf 37 5d 60 46 11 0e d1 3f
       -0.5950167519414189 0.2664836108464956
0000d0 77 d5 4c 17 c2 16 ba bf ef c5 b0 1c 68 a3 d3 bf
       -0.1019097620854462 -0.3068485527211057
0000e0 5f 04 ad 4b 81 17 d0 3f f4 32 e9 de 55 96 d2 bf
       0.25143463506907965 -0.29042574661870835
0000f0 93 95 b1 91 63 dc d2 bf c1 b3 ef 7d 12 0e e1 3f
       -0.2947014735021522 0.5329678020185541
000100 47 7e 7a 33 34 13 b0 3f 3f bc 87 57 64 28 90 3f
       0.06279302841948563 0.015779083101673527
000110 80 9b 57 88 89 72 a9 3f b4 94 66 6b fd 02 b1 3f
       0.049701974767052626 0.0664518725594288
000120 4d ee ab 7a d3 d2 d0 bf be 7f 0c 22 01 d6 c0 bf
       -0.26286780337952537 -0.13153089678325885
000130 0e 43 25 f0 c5 d5 a1 bf b6 10 f4 a9 c7 4b d7 bf
       -0.03483408504928863 -0.3640002402974106
000140 9c 2b 1f e8 dd 9e 98 3f 48 cd 6f 74 36 c2 63 3f
       0.02404352883585724 0.0024119437762181485
000150 08 b1 fb cd 41 88 8b 3f ef ed ce a0 c3 95 72 3f
       0.013443483446700558 0.004537357494821744
000160 23 a9 7f d0 53 44 f0 3f 7c 73 81 04 e7 52 c7 3f
       1.0166814941863513 0.18221748085025158
000170 41 37 ff ca 76 4f d4 3f e5 73 4c 85 6e 8c eb 3f
       0.31735009979171386 0.8608925441254739
000180 d3 d5 c5 4d 08 36 95 3f 4f 59 39 0f 18 5b 75 3f
       0.02071392988860572 0.005213827116298766
000190 69 2e 46 a3 38 db 78 3f df 65 4c 2d c1 7e 87 3f
       0.006068440667501209 0.011472233958147391
0001a0 7c b7 5f 1a 41 f5 4c 3f d5 bb 0d 7f 22 b2 97 3f
       0.0008837287793974492 0.023140467648257463
0001b0 cf af d1 b5 c8 b7 99 3f 03 a7 3c f4 99 b4 8b 3f
       0.025115142915112017 0.01352806355096759
0001c0 60 83 54 58 0d 59 93 3f ca a6 db d5 84 4b 89 3f
       0.01889439441322638 0.012351072098187105
0001d0 d0 c7 ec 8b 87 47 99 3f 8d a0 30 97 27 4b 86 3f
       0.024686925807323068 0.010885533620310884
0001e0 38 5b 63 c7 94 9d 95 3f e2 17 a0 84 23 ab 94 3f
       0.02110893694847535 0.0201840924928759
0001f0 8b 27 62 72 9c f1 84 3f bd 35 d4 27 e8 ff 99 3f
       0.010226461640076475 0.02539026969048107
000200 d4 1e 07 77 11 89 96 3f 09 6a 34 b4 05 c5 91 3f
       0.022007248773461566 0.017353142856430668
000210 76 45 de e1 e5 64 93 3f 4a 0a c0 69 a5 51 8a 3f
       0.018939582739738246 0.012851040162790945
000220 3e 23 d4 32 4c d4 7c 3f 1a 8b d1 21 8d f8 76 3f
       0.0070384003167952 0.005608130738525197
000230 f0 c4 48 b5 0f ad 94 3f 41 cf b4 5b e2 1c 83 3f
       0.02019142669650348 0.009332436011937896
000240 40 49 3b dc f1 b1 88 3f 8e 84 fb 04 71 98 8b 3f
       0.012058152707514425 0.013474352802804537
000250 15 54 6d fa 90 e0 90 3f 9e 2e 09 26 e3 3f 94 3f
       0.016481652531485553 0.01977496070530426
000260 7b 64 a3 76 a1 40 b2 bf 3e e4 ae 5e e6 93 b1 bf
       -0.0712986864704294 -0.0686630231056293
000270 5d fa bd d8 b2 ab a9 3f 20 6f ab 2c 64 a0 bc bf
       0.05013808151033026 -0.11182237711494425
000280 ce e6 8a fe be 9d e6 3f 29 1c bd 48 f3 3e d3 bf
       0.7067561122450685 -0.3007171831454252
000290 dc f2 59 b8 b0 23 d7 3f 4c 8e 03 51 58 9e b1 bf
       0.36155336382925696 -0.0688224027431314
0002a0 a8 7c 3a 4d 6a 14 cf bf d0 34 a6 da 08 ee d0 3f
       -0.24281052370949863 0.26452847816910907
0002b0 b3 2a d4 8a ad b0 c1 bf c5 63 cf 2d b0 79 c3 3f
       -0.13820428160427908 0.15215112912008358
0002c0 aa 50 ab 96 4b f9 e5 3f 58 fd 33 f7 c3 d3 aa bf
       0.686681551242619 -0.052396892477185986
0002d0 c0 90 7f d7 d7 24 e7 3f b4 bf 18 e6 19 bc d7 bf
       0.7232474526358814 -0.37085578413370546
0002e0 be bd 19 3c 33 2f d8 bf 5a 13 cb 78 82 ca dd bf
       -0.3778808676642845 -0.46548520847527686
0002f0 b8 14 27 b6 08 14 bc 3f d3 4b f4 22 86 99 f0 bf
       0.10968069502912925 -1.037481438198246
000300 df 97 b3 f9 21 72 e3 bf 44 f9 c4 c6 1a 65 ca bf
       -0.6076822163565757 -0.20621046739138127
000310 70 87 d9 31 45 9f d3 bf bd 4b fb 24 3a b9 d6 bf
       -0.30659608715188025 -0.35505536662565956
000320 8e a3 25 1d 86 d0 e4 bf 15 71 3a 85 b2 80 e3 3f
       -0.6504545754697675 0.6094601251711845
000330 64 c0 a9 b5 01 c4 c0 3f 54 14 80 5b e3 58 da bf
       0.13098164911525878 -0.4116752999837605
000340 6c 8c e4 33 98 66 e5 bf f9 5a bf 8a 31 7c e3 3f
       -0.6687737477808589 0.608910342208076
000350 88 04 e4 10 02 c9 c2 3f 22 e0 90 9c 1d 3f da bf
       0.14675927948704648 -0.41010227479591965
000360 b5 0e 49 a7 d2 69 db bf f3 af 04 1e 3a 2e e3 bf
       -0.42833391510451274 -0.5993929468436349
000370 59 88 03 1e 64 b6 eb bf 44 60 42 1c c5 f5 c8 3f
       -0.8660145364958779 0.19500030402991986
000380 1a bc 79 2e 19 80 75 3f b4 91 3b 33 78 96 8e 3f
       0.005249117246065383 0.014935435355661088
000390 c5 11 30 55 33 fa 75 3f 48 0a 8a 36 70 44 6e 3f
       0.005365562933552008 0.003694743314839575
0003a0 4e f6 10 10 07 b4 96 3f 0d ca 38 a9 f5 2d 5d 3f
       0.022171125751120173 0.0017809771569657934
0003b0 9d 6f 40 94 80 51 6b 3f c8 33 7b 16 93 71 89 3f
       0.0033347617445666626 0.012423657535146307
0003c0 55 ef 5b a6 8c 92 5f 3f b9 37 1a 3e 7c dd 90 3f
       0.0019270299466702296 0.016469899454527346
0003d0 55 15 d7 60 a5 e9 40 3f 12 ee a9 c7 72 74 8f 3f
       0.0005161340247289795 0.01535882636857536
0003e0 4a ff 2e 7c c6 9e 8d 3f 03 22 1b ad 48 32 7a 3f
       0.014462996163160508 0.006395610705745461
0003f0 d4 29 83 a4 64 a6 90 3f 10 b0 86 6d 53 13 96 3f
       0.016259739438092627 0.02155809741968545
000400 f4 67 98 2f 63 57 87 3f 68 31 13 55 fb 77 91 3f
       0.011397147073740378 0.01705925661808419
000410 87 1a 81 27 40 06 92 3f b4 69 8a 50 cc fb 87 3f
       0.017601969157363697 0.011710735519319872
000420 03 69 89 4b 81 99 7a 3f c2 b9 73 55 5a 09 93 3f
       0.006494050082063166 0.018590365853862208
000430 f9 f5 0a 9c 70 0f 64 3f be 3d 8b d7 2f b0 7f 3f
       0.002448768558990674 0.0077363842799082466
000440 3d 0b 8d eb dc 5f e6 3f 0e fc 7f 9f 73 3d d4 bf
       0.6992020226101442 -0.31625071121374126
000450 74 75 2e 26 1c 98 da bf a7 24 13 5f 2e 4b f0 3f
       -0.4155340550294888 1.0183547700747029
000460 c1 84 0b 51 3a d7 95 bf 53 65 60 f8 a8 51 cd 3f
       -0.021328841396898172 0.22905456664811172
000470 05 43 96 4d af f3 d4 3f 94 67 6f d3 49 81 da bf
       0.32737333847858024 -0.41414113662687524
000480 b3 17 af ea ed 48 b3 bf 49 03 df 85 63 d2 de bf
       -0.07533156375492815 -0.48159111092904944
000490 ab 1f 24 ca 48 e9 e3 bf ea 4f 3f dc 0b ef d6 3f
       -0.6222270916050453 0.35834023006941484
0004a0 0c c6 24 15 00 8c a7 3f 50 4f 15 93 66 29 e4 bf
       0.045989992695819465 -0.630053794166523
0004b0 d9 7e 1a d8 0b 83 a1 bf c1 00 1c 5c de cc d3 bf
       -0.03420292866689829 -0.30937918658311153
0004c0 b4 0f 76 48 9b f5 d2 3f b7 f4 68 2d d8 a3 d7 3f
       0.29624063564574077 0.3693752711731792
0004d0 ac 90 20 cf 62 84 d1 3f 7c c5 26 78 8b b4 b2 3f
       0.27370519854799613 0.07306739505181342
0004e0 e3 26 c9 38 00 04 7a bf 95 2d 9f 1d cc a0 c0 3f
       -0.0063514717736070396 0.1299071449887889
0004f0 24 ac f4 02 d0 2d d0 bf 93 00 4c bf d6 7c df 3f
       -0.25279617584846137 0.49199455911003404
000500 af 2b 4a 6b a6 80 d7 3f 3f e9 75 d2 27 bb 69 3f
       0.36722717740547756 0.003141000535547139
000510 4b 7d de 61 74 ea a3 3f 07 55 18 50 d2 f4 d1 3f
       0.03889812178317217 0.2805677206209371
000520 71 8f aa fb 47 5f da bf 39 a0 f7 e9 ec 4c d0 3f
       -0.41206550194532726 0.2546951565586855
000530 9e b8 72 67 a3 ce c7 bf 28 4e 10 cb 5b 22 c4 bf
       -0.18599360037973595 -0.1572985402604996
000540 dd ae f5 91 5f 3d d4 3f 2b a8 c5 17 f1 4e d1 bf
       0.31624593023182773 -0.27044322320455433
000550 3a cd a0 fd f8 a5 c6 bf 1e 15 0d 6a 20 e9 dc 3f
       -0.1769400823992358 0.451728919568568
000560 c8 74 40 cd 25 5c bd 3f c3 dd c6 b7 ac 65 81 3f
       0.11468731175451119 0.008494710310386183
000570 ff 86 e2 b2 8c 3b b2 3f 60 6b a1 65 22 0b ae 3f
       0.07122115485483603 0.058678698450157496
000580 f3 58 04 b9 e5 59 d6 bf 6b f9 d7 00 71 37 b8 bf
       -0.3492368990713565 -0.09459596891972459
000590 53 b2 f8 4f 52 7e ae bf 9f 79 cb 41 e8 5c da bf
       -0.059557506811277826 -0.41192060876155695
0005a0 9c 2b 1f e8 dd 9e 98 3f 48 cd 6f 74 36 c2 63 3f
       0.02404352883585724 0.0024119437762181485
0005b0 08 b1 fb cd 41 88 8b 3f ef ed ce a0 c3 95 72 3f
       0.013443483446700558 0.004537357494821744
0005c0 45 23 60 c7 f7 af f0 3f 64 13 2b d8 79 6f cc 3f
       1.0429609096629104 0.22215197615710303
0005d0 9c 34 32 48 7b 3a d0 3f e4 a8 79 8f ca 05 e9 3f
       0.25356943178560143 0.7819569399119044
0005e0 d3 d5 c5 4d 08 36 95 3f 4f 59 39 0f 18 5b 75 3f
       0.02071392988860572 0.005213827116298766
0005f0 69 2e 46 a3 38 db 78 3f df 65 4c 2d c1 7e 87 3f
       0.006068440667501209 0.011472233958147391
000600 7c b7 5f 1a 41 f5 4c 3f d5 bb 0d 7f 22 b2 97 3f
       0.0008837287793974492 0.023140467648257463
000610 cf af d1 b5 c8 b7 99 3f 03 a7 3c f4 99 b4 8b 3f
       0.025115142915112017 0.01352806355096759
000620 60 83 54 58 0d 59 93 3f ca a6 db d5 84 4b 89 3f
       0.01889439441322638 0.012351072098187105
000630 d0 c7 ec 8b 87 47 99 3f 8d a0 30 97 27 4b 86 3f
       0.024686925807323068 0.010885533620310884
000640 38 5b 63 c7 94 9d 95 3f e2 17 a0 84 23 ab 94 3f
       0.02110893694847535 0.0201840924928759
000650 8b 27 62 72 9c f1 84 3f bd 35 d4 27 e8 ff 99 3f
       0.010226461640076475 0.02539026969048107
000660 d4 1e 07 77 11 89 96 3f 09 6a 34 b4 05 c5 91 3f
       0.022007248773461566 0.017353142856430668
000670 76 45 de e1 e5 64 93 3f 4a 0a c0 69 a5 51 8a 3f
       0.018939582739738246 0.012851040162790945
000680 3e 23 d4 32 4c d4 7c 3f 1a 8b d1 21 8d f8 76 3f
       0.0070384003167952 0.005608130738525197
000690 f0 c4 48 b5 0f ad 94 3f 41 cf b4 5b e2 1c 83 3f
       0.02019142669650348 0.009332436011937896
0006a0 40 49 3b dc f1 b1 88 3f 8e 84 fb 04 71 98 8b 3f
       0.012058152707514425 0.013474352802804537
0006b0 15 54 6d fa 90 e0 90 3f 9e 2e 09 26 e3 3f 94 3f
       0.016481652531485553 0.01977496070530426
0006c0 45 92 3e 56 86 e5 b3 bf ff 8b c8 f3 54 60 b5 bf
       -0.07772101979805608 -0.08350115730040385
0006d0 11 c1 ad 31 ff 80 b2 3f a6 af 78 45 94 c5 c2 bf
       0.07228083575114776 -0.14665463821563413
0006e0 34 f8 7b 09 0d 9a e6 3f 3f f3 0b cc 17 1d d2 bf
       0.7063050446738601 -0.28302569319184906
0006f0 30 c4 98 bc ff e1 d8 3f 81 3b 74 b2 78 35 9f 3f
       0.3887938825383257 0.030477414981813226
000700 54 d2 ea 23 25 72 cd bf 50 9e 4a 82 2a 4a d1 3f
       -0.23004593137524643 0.27015173648621715
000710 86 fc 34 97 88 5f d0 bf 81 63 c9 1c e0 8e b3 3f
       -0.25583090559298005 0.07639885618972465
000720 f1 1e 09 c9 c5 b6 e3 3f 60 1d 41 5d fc 75 9c bf
       0.616061108253204 -0.02779383010081682
000730 b9 0e 0c 7f 7d fb e7 3f e3 d2 ab ca 30 94 d7 bf
       0.7494494897259393 -0.3684198359690482
000740 7d 3d db 11 05 8e d9 bf 80 b6 3a c2 11 8f de bf
       -0.39929320091047044 -0.47748226134977045
000750 ec 3a bf c8 bc de c4 3f 1d 78 57 10 ab ee ed bf
       0.16304740717028865 -0.9353843039677973
000760 c5 fa 85 3a e0 fc e3 bf fc 80 f5 77 58 95 cd bf
       -0.6246186392816858 -0.23112016541836755
000770 91 06 c0 5c d8 16 d2 bf 99 42 60 49 67 63 d6 bf
       -0.28264435823084805 -0.3498171059191378
000780 a5 d3 61 b2 96 ce e3 bf ff 34 bd c9 e5 b7 e3 3f
       -0.6189683422113502 0.6161984386650657
000790 41 cc f9 27 df 49 9f 3f 30 f5 37 75 59 85 e0 bf
       0.030555235686233088 -0.5162780084062089
0007a0 72 bc 20 c9 a8 64 e4 bf e0 1e 42 cf 64 b3 e3 3f
       -0.6372875145224397 0.6156486557019569
0007b0 be f6 e5 00 f1 b8 a7 3f 0e 5b c0 95 76 78 e0 bf
       0.04633286605802088 -0.514704983218367
0007c0 ae b3 d4 c2 00 be da bf 5c dc 0c 15 b7 c0 e3 bf
       -0.4178468611378844 -0.6172748004090738
0007d0 0b 0d 04 c7 d2 af ea bf e6 62 76 7b 3e 62 cc 3f
       -0.8339628111865819 0.22174817112388395
0007e0 1a bc 79 2e 19 80 75 3f b4 91 3b 33 78 96 8e 3f
       0.005249117246065383 0.014935435355661088
0007f0 c5 11 30 55 33 fa 75 3f 48 0a 8a 36 70 44 6e 3f
       0.005365562933552008 0.003694743314839575

arr_1 f8 [10, 4, 4]
000000 ca c9 f9 f3 bc 0a fe 3f 34 e9 79 82 5f e9 f0 bf
       1.8776216059019242 -1.0569758507468352
000010 df 70 b7 96 bb f7 f9 bf f8 e3 36 ee e5 b8 f2 3f
       -1.6229816329351292 1.17014115383631
000020 28 03 50 60 d9 2b d7 bf 14 39 cf ef 9a 7a 05 40
       -0.36205133824846536 2.6848658309091977
000030 8f 66 25 e1 01 8c f4 bf b7 2f 9c 7e 1c d4 e9 bf
       -1.2841814799088842 -0.807142493520124
000040 14 51 44 d7 c0 a2 fb 3f 9e c2 74 6c c5 a0 e6 3f
       1.7272346886503032 0.7071253889353846
000050 07 77 fd 2c 9e b0 f2 bf d8 96 03 2b f9 c3 f0 bf
       -1.1681195981431658 -1.0478450470194982
000060 5f c9 53 74 74 84 ec bf c3 17 57 1f 9f 80 eb bf
       -0.8911688110368167 -0.8594508754838376
000070 1c 10 77 da 8a ce e9 bf 36 35 2e 44 ed 06 07 40
       -0.8064626948257714 2.8783822371102827
000080 c5 b9 1a 0c 5f fa fb 3f c4 53 1e 3f 54 53 ed bf
       1.7486258004024517 -0.916422007826093
000090 19 43 45 3d 98 66 fb bf e4 06 b9 19 6b f8 f3 3f
       -1.7125475304966982 1.248149013976609
0000a0 10 65 b1 fe 37 49 d3 bf 27 b4 fa 6f 5e 97 06 40
       -0.30134391662939297 2.823910593832369
0000b0 a8 40 40 a7 99 12 f8 bf e7 b6 e3 a3 4b 2b e9 bf
       -1.5045410664788879 -0.7865350914923653
0000c0 5d 6b f1 d6 dc 39 ff 3f 6b a2 df 71 a2 94 d3 3f
       1.9516266246998477 0.30594693298784276
0000d0 c7 bd f7 59 f2 b2 ef bf 49 d0 ef 10 00 c7 f0 bf
       -0.9905940777952588 -1.0485840474693922
0000e0 72 b4 79 8e e9 2c ea bf 07 99 96 b4 5e c5 ef bf
       -0.817982462188992 -0.9928430106272409
0000f0 01 18 9c 63 08 bb e4 bf 93 d2 50 d2 59 3d 06 40
       -0.647831148672367 2.7799564772524916
000100 97 aa ab 5c 66 b0 fc 3f 91 64 e9 39 d6 93 ed bf
       1.7930663700050553 -0.9242964869582854
000110 6e 85 68 09 c4 53 fc bf b9 e0 b0 92 d0 4f f4 3f
       -1.770450627089612 1.2694860200991072
000120 ab d4 48 4f f0 80 db bf 11 c4 86 4c 1d 0d 06 40
       -0.42974479429842444 2.7564035395266804
000130 06 f3 62 52 f7 33 f5 bf 5c d9 82 97 af a3 e8 bf
       -1.3251870363448588 -0.7699811896516553
000140 ce e3 01 ee ca e8 fc 3f a7 f4 72 0e 4b 62 e3 3f
       1.8068341538585062 0.6057486803253099
000150 47 8a 6c b1 b7 b4 f1 bf 07 2f 51 8e ac 66 f1 bf
       -1.1066204958557522 -1.0875669059050226
000160 1c a1 94 da 75 36 ea bf f9 67 02 0d 7f d1 ef bf
       -0.819147993960573 -0.9943232778634857
000170 cb a5 1b 62 df 84 e4 bf cf 64 12 bb 3a 35 06 40
       -0.6412197986766669 2.7759909262646043
000180 ee 08 61 59 00 8d fb 3f d1 97 66 c0 8f d3 eb bf
       1.72192416108788 -0.8695753820254543
000190 66 2d d8 b0 88 fb fd bf f7 c3 a9 00 d8 3a f6 3f
       -1.873909655378918 1.3893661523727567
0001a0 fb 55 26 15 21 39 e0 bf ef 03 7a cc aa 1d 06 40
       -0.5069737828331989 2.7644859289871344
0001b0 dd dd 87 0e 85 c0 f4 bf 35 18 84 31 21 54 e7 bf
       -1.2970018928152662 -0.7290197341069474
0001c0 d9 ed ca 5e 93 e1 fc 3f c9 5c 70 9d 49 ac e3 3f
       1.8050721838798067 0.6147811961153816
0001d0 e2 c6 bf f9 44 a8 f1 bf 59 b0 45 fe e6 90 f1 bf
       -1.103581405241521 -1.0978765423306156
0001e0 d4 34 5e 80 84 81 ea bf 11 4b 11 3e b7 ab f0 bf
       -0.8283102519214034 -1.0419228004945504
0001f0 2e 5a 98 10 40 9a e0 bf 54 02 ec 6b d2 ae 05 40
       -0.518829376613956 2.710362284793783
000200 9a 52 c5 d4 a7 e3 fc 3f e3 fa 6f 06 94 f1 eb bf
       1.8055799781188058 -0.8732395292025469
000210 ab de 6b 98 a3 50 fb bf fd dc dd 8f 4d 48 f2 3f
       -1.7071872667274117 1.142652093867411
000220 00 14 2b 1f a7 23 e0 bf 91 76 a4 9a 71 02 06 40
       -0.5043521507983542 2.7511932450714274
000230 e8 78 cd 63 34 b9 f3 bf 0e ef 9d b5 57 0b e9 bf
       -1.232715978483208 -0.7826345965581554
000240 94 4f 91 3a c7 b7 fb 3f 40 c7 df d5 51 72 e7 3f
       1.7323677337453534 0.7327050378064328
000250 50 9e 71 2e f4 8c f2 bf 36 f0 91 c1 6f 65 f1 bf
       -1.1594125570499223 -1.0872647820788308
000260 90 ee 7b 6d da 43 eb bf 08 b5 eb c3 3a 0f ed bf
       -0.8520328653680327 -0.9081090761734751
000270 73 85 f2 83 79 1e e8 bf 1f 43 fc 55 69 ae 06 40
       -0.7537200524422317 2.835161849747592
000280 1a 06 d8 f2 b1 72 fc 3f 39 bd af 2a 97 ef e9 bf
       1.7780017362678167 -0.8104968866081556
000290 ad bc 17 56 5d 18 fc bf b6 e8 96 c1 fe 7f f2 3f
       -1.7559483874318105 1.1562488138284102
0002a0 d7 5d e7 ef 9a d6 e2 bf b3 16 c8 48 3f ef 05 40
       -0.5886969266529672 2.741819923979017
0002b0 05 d9 d6 70 1c 5f f2 bf 38 65 5d 83 ca bf e8 bf
       -1.1482204826148188 -0.7734119954795124
0002c0 c3 31 19 68 b4 8f fa 3f ad 19 c6 c4 c0 64 eb 3f
       1.6600841585487707 0.8560489505041936
0002d0 b7 5c ba ba 5a 2b f3 bf ff 3c 44 da 2d 98 f1 bf
       -1.1980845731793985 -1.0996531034505208
0002e0 7e 8f 74 3c 72 34 ec bf 12 99 5f 2f d2 fe eb bf
       -0.8814021282928335 -0.8748560834181112
0002f0 25 46 48 48 61 2c e8 bf c8 d4 ac 15 ef a9 06 40
       -0.755417481590659 2.832975549065484
000300 e9 fe cf 55 06 c0 fb 3f da fe 8c eb 7d 3e ed bf
       1.7343810417223102 -0.9138784027672628
000310 74 47 6b e5 91 6e fc bf 4d 1b 61 4e 52 30 f5 3f
       -1.7769946061784738 1.3242972432796762
000320 45 47 b1 3c fa 4e e0 bf d1 74 c2 45 2d 19 06 40
       -0.5096408067131298 2.7622933816879613
000330 70 43 26 a9 f0 30 f4 bf 7b 1e de b9 7a 4b e8 bf
       -1.261948261966804 -0.7592137937762823
000340 dd 01 8f 8f ea 1a fc 3f 4b 71 55 df a8 aa e5 3f
       1.7565713508375815 0.6770824777591228
000350 08 f0 ad 59 5b 75 f2 bf a3 25 0e 70 57 fc f0 bf
       -1.153651571569755 -1.061606824603907
000360 05 6d a9 f3 c1 9e ec bf 6f 43 8a 3d 3f 44 ee bf
       -0.8943795928020398 -0.9458309366183196
000370 d9 21 d2 51 c2 89 e4 bf a5 2d 67 89 36 6d 06 40
       -0.6418162916243616 2.8033266768085974
000380 46 55 69 2f d4 66 fb 3f 9a b0 2f f4 53 4f eb bf
       1.7126046993265205 -0.8534335870040366
000390 8a e3 da 8f 89 81 fd bf 0f ba 88 23 e7 a4 f5 3f
       -1.844125329908112 1.352759493641887
0003a0 b1 d8 12 08 63 db d8 bf 5c 8b 60 02 d5 8c 06 40
       -0.38839031017722464 2.8187656579697613
0003b0 07 da 41 7c d0 36 f7 bf 04 27 c7 be a2 ef e7 bf
       -1.4508824209020774 -0.7480024076587317
0003c0 50 19 e0 29 8e f0 fe 3f db 49 b7 42 af 4a d7 3f
       1.9337293277508998 0.36393338694793237
0003d0 6f 3f 90 03 b9 aa ef bf 95 27 48 43 51 6f f1 bf
       -0.9895901746367438 -1.0896771076390668
0003e0 a2 20 06 b8 ad a2 e9 bf 8f b0 c8 e4 e2 15 f1 bf
       -0.8011082262246598 -1.067843335807115
0003f0 8c fc c7 2a 24 c8 e0 bf b7 98 bd 93 ab b7 05 40
       -0.524431308323885 2.7146827261195443
000400 0e 0c c3 8c 71 9b fc 3f 50 88 7b 86 39 b8 ee bf
       1.7879500864517044 -0.9599883677112846
000410 4b 0e 31 f6 89 0e fd bf c5 19 ab f5 bc b1 f5 3f
       -1.8160495392666174 1.3558930965824498
000420 8a 7a 98 02 bf eb d9 bf bd 50 fb 54 90 ea 05 40
       -0.4050138020847177 2.7395331038661355
000430 21 f9 bb 79 e0 76 f5 bf 75 2d fb 10 42 5e e8 bf
       -1.3415226702923706 -0.7615061122573211
000440 e6 ee 23 f1 19 96 fc 3f 03 4f ee c3 9c 2b e3 3f
       1.786645833925769 0.5990737749839073
000450 a7 07 93 fb 80 98 f1 bf dd 69 0a 22 db 14 f1 bf
       -1.0997323824999314 -1.0675917939867
000460 25 2e c7 ca d4 51 eb bf 6c bf 41 98 c9 66 ef bf
       -0.8537391624935863 -0.9812972997442393
000470 d6 b6 75 d1 f6 a7 e2 bf 4a 62 c5 f5 2a ea 05 40
       -0.5830034342777377 2.739339752279453
000480 8a 70 c3 e3 70 60 fd 3f 81 a1 21 8a bc e9 ec bf
       1.8360451600083558 -0.9035322854879696
000490 33 73 8b 27 ac 3c f9 bf c6 26 d8 51 a1 33 f0 3f
       -1.577312616798008 1.0126050183338733
0004a0 56 75 81 bb c2 c6 da bf 24 a1 ba 59 a4 05 06 40
       -0.41838138877013387 2.7527548799590864
0004b0 79 59 92 14 a4 01 f5 bf d2 30 d7 11 89 47 e9 bf
       -1.3129006198483621 -0.7899823521088598
0004c0 5b f6 a5 e8 54 f2 fc 3f cb f0 bc 30 a6 b5 e3 3f
       1.809163006574997 0.6159239723124527
0004d0 d4 5b 87 42 c9 07 f2 bf 48 6e ff 88 d2 46 f1 bf
       -1.1269009207514857 -1.079790625712933
0004e0 89 d2 aa 32 54 65 e9 bf d4 ce 07 b7 8e 75 ee bf
       -0.7936192502589431 -0.9518502783598373
0004f0 12 88 d0 b4 96 95 e9 bf 49 83 46 10 24 ee 06 40
       -0.7995103389296239 2.8662797233122643
