Weights/forestfires/2/bweights.npz (npz, 2748 bytes, 3 tensors)

arr_0 f8 [10, 1, 15]
000000 a4 5c 00 83 f0 5c e2 bf c6 7f 5a a1 1f c7 05 c0
       -0.5738451536771163 -2.722228298734964
000010 5b e1 1b 1a 96 7b 02 c0 4c 6f 13 1b 2e 63 0d c0
       -2.3103448905714408 -3.6734277835184113
000020 f9 55 62 1c 33 92 f7 bf 25 73 be cc 06 c1 02 c0
       -1.4731932743792397 -2.344251250803057
000030 6c c7 a1 10 c7 d1 eb bf a2 7e b1 71 a5 e8 f3 bf
       -0.8693576168864019 -1.244298404802898
000040 5b 92 fb 0d 9c 76 04 c0 08 11 91 23 48 d8 ee bf
       -2.5579148380659666 -0.9639015860234688
000050 ee ac 8a 58 4e 02 f1 bf 09 ca f2 6f fc 5d 08 c0
       -1.0630629976902202 -3.0458916421860107
000060 cf ac da 8b 2b 14 da 3f 2a b2 59 52 30 8f 08 c0
       0.4074810853732744 -3.0699163850424798
000070 8b 2d 7a 7d 3f bd f3 bf f5 64 8c 01 77 a3 c9 bf
       -1.2337031270461434 -0.2003010518608687
000080 b8 2c 9c a9 bc fb ff bf 75 b6 c9 57 c6 dd de bf
       -1.9989592194931856 -0.4822860581688027
000090 d5 3a 5a b5 68 2d 08 c0 1a f4 2a 89 75 27 02 c0
       -3.0221723716889337 -2.269267150519693
0000a0 e3 38 61 77 62 60 fc bf ef 32 4a ec ab f8 06 c0
       -1.7735314048073227 -2.8714216671127057
0000b0 6b dd 85 28 9c e0 02 c0 9e 84 de 2d b1 09 02 c0
       -2.3596728483059244 -2.254732473710262
0000c0 f9 a9 ef a7 c4 60 d7 bf 50 74 03 fc 70 ad 00 c0
       -0.36528126144426626 -2.08468815694372
0000d0 c0 32 a2 ca 7d ed ee bf 99 a3 2d f8 ea 30 f5 3f
       -0.9664906461417431 1.3244428343261687
0000e0 37 7f 93 3a be 62 05 c0 cd 22 df ed 63 f0 ca bf
       -2.6732143951666347 -0.21046113123727253
0000f0 b9 bd f0 1b 07 b1 eb 3f fd ef bb 55 54 18 f3 bf
       0.8653598352156485 -1.1934398030271034
000100 ec fe d2 c2 01 76 bd 3f 69 00 3d 92 eb 77 f8 bf
       0.1150818920750642 -1.5292773926194292
000110 59 d1 2c d9 22 6c 94 3f ef f7 21 55 dd 8a ba bf
       0.01994375658542089 -0.10368140533861923
000120 1f 0f ed af 27 cf f3 bf 1c 98 1f 9d 69 0a f4 bf
       -1.2380749580488055 -1.2525421273835553
000130 91 39 fd 27 0e 73 f8 3f fe f7 ad 99 1c aa fa bf
       1.5280896722866582 -1.666531181631853
000140 e6 53 42 c2 0e a0 f8 3f 94 ad f7 af f3 c3 f2 bf
       1.539076575111943 -1.1728398202638788
000150 b0 0a f6 34 89 69 d2 3f e2 40 25 7d 53 c8 d0 3f
       0.28769140407545546 0.2622269365429145
000160 f9 bc 75 4b 72 9a f7 bf 85 5f 5c 96 4d bb ed bf
       -1.4752066562321586 -0.929114144967557
000170 9b 59 22 c2 2f 27 f8 bf 16 a5 ae c7 4e 99 f5 bf
       -1.5095670302740476 -1.3499286460958664
000180 42 d2 70 3d e0 62 0f c0 41 2f ec 11 09 0d 10 c0
       -3.923279266362699 -4.012729911842883
000190 f7 7b bc 8e 64 70 dd bf c9 a6 d2 a1 9d d8 e2 bf
       -0.4599849122914174 -0.5889423523523983
0001a0 42 16 ab c5 4b 1e 01 c0 1f 5c f1 43 ef 6e ef bf
       -2.139792961391124 -0.9822918250091596
0001b0 8d fe 23 69 0c b4 df bf 91 89 3f 78 b0 86 f0 bf
       -0.4953642870677662 -1.0328831383891137
0001c0 35 3b d0 6b f0 22 fd bf fd 8b 47 d5 7a e9 a2 bf
       -1.8210300647221633 -0.03693755963811183
0001d0 87 02 f7 a5 a6 6b e9 bf 7e 37 79 94 7e 37 f4 bf
       -0.7943909875394447 -1.2635484504457675
0001e0 1b 2c b4 83 a3 11 db 3f e5 0d 44 5d 56 f9 0c c0
       0.4229515825433638 -3.6217467581170575
0001f0 1b 5d 6e 9e f0 9e d1 bf 9f 2a af 7e a0 85 ee bf
       -0.27532592269695194 -0.9538118814756052
000200 c7 9d 07 b6 b8 5c f4 bf d8 e1 21 b3 83 a8 e2 bf
       -1.272637091687885 -0.5830706118277318
000210 74 85 2e 5f 43 bb a5 bf d0 ba 03 82 2f 7b 0e c0
       -0.04244432961355474 -3.8101492078197694
000220 4f ba 35 1c 5b 03 c7 3f b4 8e e5 36 ea a1 00 c0
       0.1797899139159704 -2.079060009842431
000230 ec 90 c3 49 3a 5e 05 c0 cd 30 ae 95 c3 d6 f2 bf
       -2.6710096133048093 -1.177432617844761
000240 56 0e c9 bf 0f 26 d4 bf bb ca 58 9c 5f 72 f3 bf
       -0.31482309083023574 -1.2154232127474376
000250 c2 56 f8 d6 98 7c ea bf ad b3 98 d2 6d 23 fe bf
       -0.8277095984110121 -1.8836496569085555
000260 6d b8 61 c7 ba 91 0d c0 bc c5 69 36 e3 99 f6 bf
       -3.6961570336052803 -1.4125702023996913
000270 13 fc bf 71 97 61 f2 bf 6d 1b 36 2e 70 b2 a8 3f
       -1.1488260691983256 0.0482363754663798
000280 9d 00 4c 99 b3 f6 e1 bf 18 e1 9a 05 b2 a4 f3 bf
       -0.5613649362640164 -1.2277088374085618
000290 0d 5b 6a d0 64 bf 13 c0 cb 16 51 a6 a7 a5 da 3f
       -4.936908012858805 0.41636077157850754
0002a0 56 9d 49 f6 ea 87 01 c0 24 60 8f c8 98 5c dc bf
       -2.1913661233153716 -0.44315166078513557
0002b0 b4 e4 76 34 48 59 f3 bf d0 bc c7 e0 ee f1 04 40
       -1.209297375621003 2.618131404967791
0002c0 93 cf 79 8e b3 2a f4 bf cb 3b e7 df c1 51 e1 bf
       -1.26042514471644 -0.5412301419363471
0002d0 d6 5a 10 4f 9e d3 03 c0 70 2d 79 c1 af 66 f4 bf
       -2.4783292939058397 -1.2750699574997633
0002e0 86 b1 dd 5a 1c 11 f3 bf ce 73 25 64 3c 32 e4 bf
       -1.1916774320080505 -0.6311323123915089
0002f0 e0 3c 67 84 50 44 f5 3f 83 3d 51 58 61 40 ce 3f
       1.3291783496859395 0.23633972942705492
000300 9c 9f c7 75 25 5b f3 bf 4d 42 ac f3 65 57 d2 3f
       -1.2097525215885758 0.28658436580829943
000310 af dd 8a a5 1e c5 f1 bf 29 59 40 de 41 93 d2 3f
       -1.110624930048157 0.29023787216410085
000320 91 c3 9d 2a 7b 8c 01 c0 6c 67 8e 1b a0 b9 c5 3f
       -2.1935942963977557 0.16972733827133923
000330 cb 7b f3 f2 31 22 f7 3f 79 6c f1 e8 22 a1 f1 3f
       1.4458484163549084 1.1018399333322846
000340 78 67 c8 03 a8 19 d8 bf 25 2c 07 48 cd 38 d0 3f
       -0.3765659367505729 0.2534669116400344
000350 a4 22 08 80 30 68 ce 3f 8c 2c 70 26 a5 5f 00 c0
       0.23755460979034126 -2.04670171766117
000360 d9 ea c7 52 90 6a f1 bf 28 9d 8f 49 3d d8 e0 bf
       -1.0885165437345476 -0.5263964115846749
000370 00 ab e2 ed 5c c5 a9 bf c3 66 dd e7 c5 dd cb 3f
       -0.05033388522982385 0.2177054769661507
000380 5f 9d 0f ec b2 eb 91 3f 1a a2 61 c6 89 ed c1 3f
       0.017500682504672734 0.14006159006682212
000390 be 82 15 c5 1c 8b f3 bf 64 34 d1 d1 b9 03 78 3f
       -1.2214629839510702 0.0058629282548966245
0003a0 b8 58 cb ab 64 56 cd 3f 5e 5c 55 87 ef e3 c7 bf
       0.22919901264567044 -0.18664354427412183
0003b0 52 e5 61 96 ce 37 e0 bf fa ef 13 7f d6 f3 04 c0
       -0.5068123757511478 -2.6190614631614126
0003c0 a6 f8 54 5e 6f 21 f4 bf 0e 4b f4 26 5d 6f f5 bf
       -1.258162849887904 -1.3396884462023908
0003d0 9a 45 1b 85 d1 32 d2 bf e9 33 d3 48 bd 49 fa bf
       -0.2843517112606492 -1.6430027813651071
0003e0 c0 c9 b5 7f d2 ba e6 bf 61 6a 70 3d b0 0f 0b c0
       -0.710305451806839 -3.3826603698665143
0003f0 7b df e1 f7 15 59 04 c0 c9 f1 c4 bb 1e 2d f6 bf
       -2.543498932438465 -1.3860156378496973
000400 02 50 af fd 93 12 f4 3f 3b fd c7 06 24 25 12 c0
       1.2545356664240903 -4.536270242649432
000410 ca 11 53 b4 29 0b 09 c0 08 0d cb 7f bc 68 a6 3f
       -3.130450638566093 0.04376782474494162
000420 57 c3 63 d5 ec 0d ec 3f 1b 14 bb bb 73 49 e1 bf
       0.8766998451011244 -0.5402163187615118
000430 16 e2 6c 1b 00 06 f5 bf 12 cb d4 e0 cb 8d e0 3f
       -1.3139649459172964 0.5173091307864033
000440 9b 05 3b 3f 12 19 e1 bf a8 71 33 42 b2 67 ff bf
       -0.5343104586574329 -1.9628164850210883
000450 62 dd d5 60 6d 90 ca bf a9 ec af bd 3a 7e 88 3f
       -0.20753257015506238 0.011959513582033248
000460 cb 2d b2 4f 4a 9e 08 c0 47 e5 69 d5 33 2d 8d 3f
       -3.077290175080383 0.01424637312924183
000470 6b 74 06 fb f6 e3 05 c0 38 88 c3 a2 b2 c0 dc 3f
       -2.73631092179726 0.4492613400926788
000480 87 b7 45 79 eb cb d2 bf 52 5b 5b 6b 61 73 f6 bf
       -0.293696278028499 -1.4031690782191686
000490 e5 84 84 9e f4 f1 da bf d6 8e 93 42 ef a2 f4 bf
       -0.4210177944206193 -1.2897789574280316
0004a0 8c a7 09 e0 ce 6a f9 bf f4 76 74 c1 11 57 04 c0
       -1.5885761977646977 -2.5425143350283808

arr_1 f8 [10, 1, 9]
000000 93 07 cb 17 f1 3b c9 bf fa ce 84 95 63 cb de 3f
       -0.197141777627675 0.4811638794082992
000010 42 5f 18 4e 61 f4 e7 bf b0 07 ef a3 33 a2 ea 3f
       -0.7485815549179977 0.8323000146704
000020 49 49 56 4c 0f 89 00 40 4d 2a c7 cc 96 82 fd 3f
       2.0669237102348785 1.8443820952549175
000030 51 39 c5 50 58 dc e1 bf d4 dc a7 42 bd db fd 3f
       -0.5581475808665265 1.866147289632683
000040 d2 27 ec 76 14 f9 00 40 37 70 ad 80 bd b2 e0 bf
       2.1216210642641977 -0.5218188775284095
000050 59 51 59 aa f4 71 a0 3f 32 6c 12 f6 88 34 e7 bf
       0.032119413179915575 -0.7251629644482647
000060 13 bf 76 fc 80 f7 fc 3f f3 3c 20 4d 1e 37 00 40
       1.8104257451886425 2.026913263841942
000070 92 ba 9c ae 26 09 fc 3f 9c f9 95 fe 71 6e e4 bf
       1.7522341557302394 -0.6384820911769569
000080 c8 0f 68 3c c9 8f 03 40 fc 32 13 a1 47 1d f0 3f
       2.4452080458886236 1.0071483890525874
000090 9d 18 42 32 f9 4f f2 3f ff 5a eb b7 27 6b d5 bf
       1.1445247615061256 -0.33466523133158427
0000a0 4e 41 77 cc a5 59 e5 3f 56 7e ca 2c a7 5d dd 3f
       0.667193316790909 0.4588411271488203
0000b0 c6 de 5b 25 24 35 e1 3f 46 7a 21 be cc 0c e3 3f
       0.5377369622865096 0.5953124726764336
0000c0 e4 77 e5 c6 46 72 ed 3f 45 3c 65 f9 99 93 fd 3f
       0.9201997646994156 1.8485355131158638
0000d0 18 3a 71 88 a3 44 01 40 77 7e eb 65 a9 a7 ff bf
       2.158515039401447 -1.9784330350156816
0000e0 4a 9e 14 df 4d 7d ef bf 0f 4a 25 71 5e f7 01 c0
       -0.9840459210435679 -2.245785602522353
0000f0 37 98 98 20 61 e9 fd 3f 2d 9f b0 9c 4b f6 04 40
       1.8694773934635245 2.6202614060784044
000100 8d 57 5f 94 0e a0 02 40 25 81 aa 02 7d 8f 00 c0
       2.328152808341605 -2.070062657192596
000110 17 5c aa 88 a7 93 f6 3f d2 45 90 bd d3 88 af 3f
       1.4110484446043807 0.06159078301437727
000120 d2 3d ba ff fb e0 02 c0 6d 46 67 6a 5b 6c 03 c0
       -2.3598556498252288 -2.4279087364928302
000130 a4 6d 2f e5 a1 9b 01 c0 17 52 22 11 1c 87 fe 3f
       -2.2009923844431842 1.9079857510852258
000140 ff 53 8d e8 f8 20 fe 3f 64 40 25 58 1a 6a 02 40
       1.8830498775544127 2.3018080602997077
000150 c1 31 9a 59 7c 49 01 c0 e5 e3 71 5b 4d e8 00 40
       -2.160881710069788 2.1134287971622023
000160 bf 21 ed c0 d2 d8 04 40 fb b6 e0 6c fc 1f f0 bf
       2.6058707306258095 -1.0078090909041169
000170 ec ff 10 94 ff d6 a2 3f b7 e6 e1 49 08 bb 02 c0
       0.03679655725909456 -2.341324403006037
000180 d2 8d 77 ce 6e b4 fe 3f be c4 4b 32 3d 32 09 40
       1.9190509858243456 3.1495307855007857
000190 a0 31 f8 c7 7f 04 06 40 f8 b6 b4 99 38 2e 05 c0
       2.7521968481652976 -2.6475688942217595
0001a0 c5 53 8d e3 3b d8 09 40 14 5a db f8 be ca f2 3f
       3.230582978964295 1.174498531434101
0001b0 97 10 a5 54 39 90 ea bf 45 90 b1 0e 8a 46 d6 bf
       -0.8301054623812146 -0.3480553763859045
0001c0 a1 d6 97 ef 2a 98 e8 3f 45 74 0e 67 7a 9d 03 40
       0.7685751609376049 2.4518936206136765
0001d0 48 19 8c 76 11 1d f6 3f 5e e2 b5 3e 4b 52 f1 3f
       1.3820967322113393 1.0825912904384931
0001e0 42 bf 0a 75 81 da fb 3f 8d 5f eb db f4 44 f1 3f
       1.7408461162521722 1.07933507829691
0001f0 ab 23 84 d8 36 a9 ed 3f 55 18 c0 9c 79 f4 cf 3f
       0.9269060353118354 0.24964828637911532
000200 64 56 6f 95 bd ce a1 bf b0 9a 7d f2 de fe e7 3f
       -0.03478043030888214 0.7498621688981384
000210 2b a4 8c 34 f9 07 e5 3f c0 97 ba a6 13 5b e2 3f
       0.6572233225207403 0.5736177689002417
000220 9b 84 ac 99 a8 64 a6 3f dc cf 29 fb a8 2c ce 3f
       0.04373671413328247 0.23573791755518314
000230 11 ff cb 07 fd 80 e2 3f e8 b3 ac fc 88 98 e5 3f
       0.5782456543238103 0.6748700079966712
000240 c5 eb 12 72 ae 45 d9 bf 41 10 43 26 76 6f f8 bf
       -0.3948780168536213 -1.5272122854812695
000250 9a 6d 5c 6e 09 01 f3 bf 33 65 4d 5a 61 92 09 40
       -1.1877531348207868 3.1964747481221365
000260 9c 30 a7 d1 65 2e 02 40 0b 9b 3b 7f 1d 5b f4 3f
       2.2726551417491248 1.2722449274094199
000270 24 0d 0e ab 7e 6f dd bf c8 fd 0e 6a aa 4f 0a 40
       -0.4599301023919955 3.2888992582154266
000280 34 9e dc 8d 0a 03 0b 40 9e 78 3c 6a 60 31 e5 3f
       3.3764849741890206 0.6622774195600589
000290 ff 1d 45 7f e7 31 e0 3f b1 6c 81 11 99 d4 ed 3f
       0.5060918317548725 0.9322018949418603
0002a0 a0 0a fa 74 9d 85 03 40 a0 11 73 08 72 01 f6 3f
       2.4402417315298663 1.3753528909738648
0002b0 fa 9d b4 0a 87 69 f4 3f fd 3d 45 7c 82 a8 f0 3f
       1.2757635515389425 1.0411400656047356
0002c0 7b 15 49 00 86 8e 05 40 b9 ed 3b 66 b4 7a f5 3f
       2.6945915243438185 1.3424571984786395

arr_2 f8 [10, 1, 1]
000000 66 95 0b e4 22 26 14 40 4a 8e 32 6e 7e 8b 14 40
       5.037242472846037 5.136224481425936
000010 e1 e9 8a 8a 4e c0 00 40 87 a0 a1 e5 b2 3f 20 40
       2.0938998054163993 8.124411750774255
000020 36 fe fe ee 98 03 16 40 4f 80 11 15 78 22 15 40
       5.503513082803286 5.283661202614964
000030 d9 58 ce c5 9a 9f 20 40 55 7e bc 00 63 6b 24 40
       8.311727696837282 10.209739707002123
000040 d9 ca 09 d5 42 bf 21 40 9e f2 6e 43 12 ae 13 40
       8.873556764073713 4.919991544386589
