Weights/forestfires/2/weights.npz (npz, 47068 bytes, 3 tensors)

arr_0 f8 [10, 29, 15]
00000000: 8760 3926 5b20 1140 9aad 2670 6f14 00c0
00000010: 0aef 541e 861e d63f 6fa8 4be3 36c1 0f40
00000020: 0763 5fe1 8fe6 f53f f853 7ea6 3ab0 0f40
00000030: ecf1 65d6 b2f5 1740 a08c 57da 863b 1940
00000040: 0946 f8e3 6ee7 b43f 7aff 78e2 d888 1a40
00000050: 4961 f5d9 c86b 2340 3436 63e9 13e4 02c0
00000060: cfd3 7429 a7c7 0640 4d65 2d8f ff2d 0140
00000070: 855e 4e5d a884 1b40 1e37 2f25 f085 1240
00000080: 06f1 c33b 8852 8fbf 99d8 89fc f071 f13f
00000090: 12a8 f38c fd9e 0c40 6d8f f284 1a83 d63f
000000a0: 4f97 0b0f 51d0 0940 3ff0 1026 8577 1440
000000b0: a2b0 17d9 880f 1740 90dc a3ce bcd0 d9bf
000000c0: 1477 e0ae a3b5 1440 eb3c 1500 b75e 2240
000000d0: 808b b36c 6d49 d0bf b2d1 8449 1dda e83f
000000e0: b801 9d0a 3552 f23f 5908 6de2 56fb 1340
000000f0: d584 72f0 6282 f0bf 4b39 3a8a 48d2 11c0
00000100: 1534 c812 37cc 0ec0 3df6 a76a d1eb 17c0
00000110: 68ce 711a 28d6 03c0 9d97 1a34 cf03 0ec0
00000120: 9c2d 1f9b 2b44 e8bf 3583 a082 0bba f7bf
00000130: 887c a11d 420c 0fc0 fb5e 091c a2b5 e1bf
00000140: cefd bffc 4a42 e2bf 8bb3 d17f 560e 14c0
00000150: 6c6b d480 e811 f73f 68d4 f7bc be1d 14c0
00000160: 557a 9e94 4b4e f4bf faa9 2f66 bd66 0040
00000170: 69e2 a296 3c94 0840 c0f3 19ed 62c5 0340
00000180: 574e d20d 2f46 1640 3047 9578 4f3b f23f
00000190: d743 f7d7 8f4f 0840 85b9 b7a1 e680 1a40
000001a0: 5123 ec82 3974 1840 c49e d40d 6e5e 0640
000001b0: 0924 a3f9 d604 1d40 5099 e48d 03e0 1f40
000001c0: 110a f85a 1aef 1040 3d9a e369 ce7e 1340
000001d0: 888a 90fa 9cd5 0540 8e7c 67bc 2f60 2040
000001e0: e683 01c8 b8a8 dbbf f4b1 fc9e 4945 06c0
000001f0: 3e7a 8892 7d02 fabf 6c02 8d34 1e4d 0ec0
00000200: ff44 cee6 09f4 02c0 f10f f9a6 2c9e f9bf
00000210: f166 805c 58ea ef3f a22b 62da 1c2d c63f
00000220: 075f ea56 0104 f4bf a21c 7da6 38ca eb3f
00000230: c263 0077 0106 ee3f ba87 cf64 d84a 0bc0
00000240: 13a9 5576 e827 fb3f 8b43 e8bd d35c 01c0
00000250: 06fe d168 1410 d73f 1230 2bdd 1b98 dfbf
00000260: 05bc 25fe da23 f6bf 69fc 3acd 7aba f2bf
00000270: f634 d686 8dd7 f0bf 6c7b 5cb0 9baa e9bf
00000280: af21 6ce6 d414 ebbf f6b1 5eb6 d1a4 99bf
00000290: a330 33c2 e2c1 d9bf f8be 96fc f367 edbf
000002a0: eca5 4eb4 2e43 d0bf 225c a5bd ce23 e1bf
000002b0: 39f9 272e 4a46 fdbf 049a 4dde d603 cf3f
000002c0: 5244 2df5 460e f3bf e2d5 a2f2 0488 c9bf
000002d0: 69eb 0fa3 a940 1040 14d9 cf0d 15b4 fb3f
000002e0: ae63 dd35 9372 0040 d630 526c 48c4 0440
000002f0: b49b b6b8 7892 ff3f 0855 b9c0 2b2e 0e40
00000300: 9ade ae71 1193 1640 49f1 77de 6575 1440
00000310: babc a2dd ce99 fb3f 1a5d d431 2aa4 1c40
00000320: 1839 cf31 cbcf 2340 1b2b 2e11 34dd 0340
00000330: 5587 ce0c bb02 0440 2488 4a68 fe20 f63f
00000340: e958 987d ba70 1840 857c 131d 67e5 07c0
00000350: cc44 c8e5 0e87 14c0 82ac 2f7d 82bf 13c0
00000360: c68d 3405 79be 1cc0 402a a094 2d15 0cc0
00000370: 7e1e bb5d d0a6 1ac0 81a0 4ded 3474 16c0
00000380: 53f9 5836 c341 17c0 bf94 0dbc 9fcc 12c0
00000390: 6a7f c1a1 0099 1bc0 fea1 8027 9fa1 23c0
000003a0: 2fdd 0ac2 0da6 14c0 dd1a 03a0 ae87 c6bf
000003b0: 5aa7 c8c6 5d39 16c0 84d0 d8bc aa90 17c0
000003c0: 5590 a3fd 654c 1140 4b7c 0651 5f62 e4bf
000003d0: 8d73 fca7 1a02 f73f 80d7 3484 5495 0a40
000003e0: 9a6b 14f7 7480 f43f 8610 f484 1d4d 0240
000003f0: 554d d7e6 e3c6 0c40 6618 a8cb 9882 0f40
00000400: 57c3 e0c5 ee8c e03f bf32 cfef 2ff1 1140
00000410: 207f 8222 9cb0 1c40 6d14 be6c b965 f5bf
00000420: 3a52 579c 17a6 1040 ad73 4df0 78fe e73f
00000430: 0716 ad79 071c 1240 bf0a f4b1 e465 c5bf
00000440: 486c 20eb b90e c6bf c665 482c 4a37 c5bf
00000450: 35c6 bae4 6203 dabf ae3a 443e 52f9 c0bf
00000460: e5d0 e726 d454 c6bf 94b6 1aa5 966a c6bf
00000470: 7e43 ceb3 be15 c7bf c741 b129 534e c4bf
00000480: 9dae 9764 4f78 cdbf f75b 72a8 4699 d5bf
00000490: 2158 a1d5 48e5 c3bf d545 b2d8 2202 b1bf
000004a0: d28b d954 003a d1bf 35a6 ad14 be23 d4bf
000004b0: c8ec dea2 79d5 b2bf 7ea5 d2f6 8715 d1bf
000004c0: 3a22 6f65 b5e4 c5bf 5cfe fbfd 3c7b c93f
000004d0: b22c 24cd 14ef b43f bd7d 54b9 a46b cebf
000004e0: eb78 4d63 e61c d6bf 6e6c d587 fe48 d1bf
000004f0: 2f12 155e 4efa cbbf 3672 0ba3 1611 e1bf
00000500: 1dff 3fb4 8fd5 d1bf edda ee4e 634a d4bf
00000510: bd0a 36ad ff20 c2bf df1a f981 cbd8 d7bf
00000520: 6959 7e55 2893 dabf 3a97 9735 ae2c d33f
00000530: 90f5 714a db1c 06c0 baee 2241 b1ab 05c0
00000540: 8954 c24a cb71 0340 a0a3 8667 7f67 fbbf
00000550: c489 7146 648a f0bf d7d7 bca7 0e3a 1940
00000560: 338f c301 9dcb 1440 f6f2 81bb 6088 f5bf
00000570: 6b88 0ada 957a f63f 3d21 0d6f 7b98 bf3f
00000580: 891f e2a6 f961 03c0 7d71 e3da 3a54 1240
00000590: 3f7f 67e3 2da2 0bc0 7858 99e2 48a9 1040
000005a0: 3f1b 429f f5f5 cb3f 3bc2 8a90 9bcd c23f
000005b0: 9da1 a0f8 faed d83f af85 9cb5 4952 c43f
000005c0: 142f 0dd9 7497 d43f 89bc 57f2 64b0 d13f
000005d0: ee10 270a 1d26 df3f bae2 cdc3 cefb bc3f
000005e0: aa45 07fb fe5d df3f 4c7d e104 2cec c83f
000005f0: 2f16 8605 2ce4 d63f 553a 61cd 035c b73f
00000600: 1e63 a00f 42b8 d53f 7b66 43b6 3884 d63f
00000610: 6afc 6928 aa14 d63f e71b 2135 4153 e1bf
00000620: c11a 2f3a 01ec f1bf ced4 2223 6e82 efbf
00000630: 7025 d980 1e83 f0bf b225 36bb 8c80 e6bf
00000640: 585c 7d09 4030 f4bf 0a56 8a89 5016 f3bf
00000650: 9a3b a693 58cd f3bf 5fb3 db2e eec4 eabf
00000660: 85ac fc7b b7ac f8bf fc31 be3c 0d0c 01c0
00000670: a80b 0a51 2b37 f2bf 0085 d65a b5bc c13f
00000680: b6ad 0226 a1cc f2bf 3105 75ff 85b8 f1bf
00000690: 88eb 4914 2905 babf 2149 76a3 90f2 9cbf
000006a0: ae13 923d bd99 adbf 9611 2249 0c57 a3bf
000006b0: 2727 822d fcd3 a9bf 1750 1034 dc34 8bbf
000006c0: 9e0b b3df 4edc 97bf 3419 8086 780d a5bf
000006d0: 8ae7 b9ea d87a c8bf 7596 0c08 f62c b0bf
000006e0: 715a c29d de36 acbf 6582 bdec a1b1 a3bf
000006f0: 33ed 4809 5742 d7bf 3c96 9b98 74cf abbf
00000700: c927 b973 6c65 a7bf 473a 86b1 62e5 0440
00000710: c1d9 312c 1227 e2bf 36c9 cc7c 5dcb 82bf
00000720: 877f fa69 7ba6 e5bf d4b3 b7b4 3e00 0240
00000730: 4dd2 f378 8977 f5bf e710 0d44 16b2 f0bf
00000740: aa05 6151 0240 febf 21a8 5b71 ffa6 efbf
00000750: f50f 6fb3 78c7 02c0 c410 8a8d ce65 f0bf
00000760: 977f d906 a512 f0bf 61b0 bb9d efcf 04c0
00000770: 760a 622a 0bbb f3bf 4fc2 c66f 880e f1bf
00000780: 943f ddb3 6500 f3bf 0275 af28 90f8 f1bf
00000790: 0ad2 6dcd b66a fdbf cc9a 2ee3 55d8 01c0
000007a0: 1f01 1fff 587e f6bf 017f f902 09c7 fabf
000007b0: 951f b525 b1a0 fabf a5cc 6fbc 3d7c fbbf
000007c0: e37e 89a5 cb15 01c0 328f 0ee6 a98b 01c0
000007d0: 93bb 9ccd bdf9 01c0 948a d6f5 9742 f3bf
000007e0: a6f5 7f09 199e f5bf f682 e089 d2e0 fdbf
000007f0: f54e 2ca4 5b1e 00c0 aca3 f69a 7818 f6bf
4.281597707035082 -2.009978176288951 0.345613031025764 3.9693429715599033 1.3687895587556242 3.961049366693711 5.989940023395757 6.308131610482775
0.0816563898627224 6.633639849314813 9.710516749576202 -2.361366103496744 2.8474868048456083 2.1474600969055815 6.879548509510305 4.630798893935006
-0.015294136356253773 1.0903177132400172 3.5776320468767233 0.35175192816881556 3.2267171073353107 5.116718859466402 5.765170471259042 -0.4033653276414464
5.177382214021936 9.184989931671643 -0.25448165526739075 0.7766252933420701 1.145070115526421 4.995448625473807 -1.0318326370691484 -4.455354842952441
-3.8497144191119426 -5.98029104852827 -2.4795686784726065 -3.7518600531211193 -0.7583215741846518 -1.482921133290984 -3.880985480776477 -0.5534220264043762
-0.5705923973582061 -5.01400184361854 1.4418721229946767 -5.029047920824361 -1.269115047972851 2.0501659377380266 3.0723811882456187 2.471380092958924
5.568538871728001 1.1394800863531138 3.038848578675679 6.62587979015223 6.113500638640134 2.7961083488952188 7.254726315100023 7.968763558461731
4.233498975171202 4.873834280506853 2.7293033194885687 8.187864196426997 -0.432172961538582 -2.783831827246326 -1.6256080364179435 -3.787655268243091
-2.3691595107744656 -1.6011168024424445 0.997356587092524 0.17325173056846405 -1.250977839959832 0.8684352161152626 0.9382331203697662 -3.4115455509026704
1.697243177647185 -2.1703257404810237 0.36035642849307725 -0.49365898703104094 -1.383753769648821 -1.1705272690594717 -1.0526252047596336 -0.8020761913829637
-0.8462929249226842 -0.025042797809577487 -0.4024588486179345 -0.9189395841003423 -0.25410049064757234 -0.5356210426351746 -1.8296605875944592 0.24230466704030118
-1.1909856393069913 -0.19946348044838574 4.063147113653806 1.7314653911140043 2.055944844073074 2.595841261156333 1.973259660278683 3.772544389396561
5.643621231363477 5.114646411963187 1.7250507981914738 7.160317209803248 9.905847126527576 2.483009466382453 2.5013333321120776 1.3830551217911387
6.110086405204336 -2.987013079793146 -5.131892767284807 -4.937021213564664 -7.1860085309339805 -3.510340844285821 -6.662904228731007 -5.6134831503515
-5.814221238308465 -4.699828089074059 -6.899416472850001 -9.815667375995869 -5.162161857522093 -0.17601568997471065 -5.556021791455203 -5.891276312573726
4.324607813938276 -0.6370083410764747 1.4380137025793573 3.3229151085496937 1.2813615466645616 2.2876539599402035 3.597114375539301 3.938767996852266
0.5172036995701131 4.485534426709534 7.172470607008819 -1.3373350379709124 4.162199442701018 0.7498135274323566 4.527372265996298 -0.1671720379746002
-0.17232440930169646 -0.16574980890508878 -0.4064566835105297 -0.1326086811099762 -0.17446376704868452 -0.17512782155738604 -0.18035110263420145 -0.158640284879324
-0.23023407375091134 -0.33748022508501613 -0.15543470793881034 -0.06643884458960454 -0.26916511808502463 -0.31468154925696307 -0.07356987215364363 -0.2669391546611094
-0.17104213192784973 0.1990734329374274 0.08177309044201556 -0.23766001748388801 -0.34551391313097096 -0.27008021607406973 -0.21857623666632395 -0.5333359894244214
-0.278659750008943 -0.31704027851394195 -0.14163204152653988 -0.3726071137684083 -0.41523178433398883 0.299602081619344 -2.7640901390102 -2.708834179762417
2.4305635300211788 -1.712767986677342 -1.033787036104159 6.306696530247755 5.198841121254918 -1.3457953762546686 1.4049280659897032 0.12342044316495034
-2.422839454437 4.58225576413349 -3.454189087482433 4.165317097291442 0.21844358707695652 0.14689964826313137 0.38952516822839717 0.15876122825379244
0.3217441672938872 0.2763912550571566 0.48670125953164145 0.11321728020073865 0.49011206163876386 0.1947073959190483 0.35767651118689775 0.0912477852263945
0.33937121892954447 0.3518201618113392 0.34501127192192504 -0.5414129293138757 -1.1201183579266145 -0.9846716581584134 -1.032011512101544 -0.7031921059107644
-1.2617798205081012 -1.1929479000731384 -1.2376333015015235 -0.836539355773862 -1.5421671717874983 -2.1308846231024727 -1.1384690442653014 0.1385714238686333
-1.174958370664951 -1.1075496653359773 -0.10164124245959105 -0.028269062020236938 -0.05781356216997523 -0.037773498465898545 -0.050445442729211636 -0.013284416521891313
-0.02330134621002921 -0.04111839906549833 -0.19124900304069242 -0.06318605133545836 -0.05510612178584474 -0.0384646035661305 -0.3634240713760903 -0.05431713450324735
-0.045695675970435064 2.61200464907532 -0.5672694075754451 -0.009176950808612899 -0.6765725202458136 2.250119602066187 -1.341683838339253 -1.043478265594837
-1.8906272105090047 -0.9891354764961343 -2.3473981874722036 -1.024855187309229 -1.004551913028967 -2.601531250276864 -1.2331649451813553 -1.0660480848565788
-1.1875969911525077 -1.1231843556664107 -1.8385532402581952 -2.230632567271959 -1.405846592490043 -1.6735925785250745 -1.6642314408254368 -1.7178323136147722
-2.1356423313699096 -2.1931951497262157 -2.246944052072146 -1.2037582018898876 -1.3510980959975796 -1.8673882852382895 -2.0148232294103487 -1.3809743932017495

arr_1 f8 [10, 15, 9]
00000000: 27e9 02a7 abe5 f6bf 0874 ed60 724b fd3f
00000010: 61e5 6d27 b83c febf 27a4 96b2 e953 09c0
00000020: 6a8c a67d 9b62 c83f b8eb 970f de80 aabf
00000030: 376a 3b54 01ae eebf d9cb 389e 3b3a b7bf
00000040: 8d81 bc7e c033 f73f bbf2 9447 29bd 0540
00000050: 62e4 f10f 3f2a 0140 7962 845e e414 0d40
00000060: 5760 718e 37dc f5bf 6b6d 7c1f 0777 debf
00000070: fcd1 1993 a4c7 d3bf 615c bd3d d5dc 1040
00000080: 3983 f64d 5c1c d7bf cdaa 7018 ba04 edbf
00000090: 4507 8819 99e7 ff3f 5911 1043 500c 0e40
000000a0: 168d 8162 dd51 fe3f c340 9dec 8829 03c0
000000b0: 9e91 df61 2408 d3bf 3941 354a dc2d c13f
000000c0: 485f 2f3d 57bc 0940 f579 b2e9 7b16 c03f
000000d0: 96ec e87b 2e80 e53f d3c8 84ff 2af7 0d40
000000e0: fcc9 8ca5 7d8f f73f 8621 af0e 9157 1140
000000f0: 87fe 7302 10c3 fabf f942 35b4 56bb c33f
00000100: bf13 c912 9218 b03f 4d8f 438f 8178 1440
00000110: 7edc 8c91 099e bd3f 1a98 ebfe db62 d03f
00000120: 4c88 f2d2 59ec ddbf 27cb 4e5c 974d fc3f
00000130: e257 666f 902c e93f cb3b 2765 e684 ffbf
00000140: eb8d a980 4716 933f b3da 18dd 4d5d cabf
00000150: 135f 7792 483a dbbf 41f6 a3fc 25af cabf
00000160: 8ca2 4063 c304 e5bf 4656 e2da 4271 0440
00000170: 9e3f cae3 335e fc3f a69f f170 99c2 0b40
00000180: 2a5d 799c 8921 d1bf 4a35 9597 b54f dfbf
00000190: bda4 0e91 4249 d1bf 2fdf 1243 e193 0940
000001a0: 0646 74d4 e584 d2bf 94bd 11bb 69a0 e6bf
000001b0: 0d5c 108f 595e 0340 de5a e746 48b3 f13f
000001c0: d839 63d7 3b36 e53f 13ab aa94 b011 f6bf
000001d0: e495 4077 a753 cb3f b976 3a45 1428 be3f
000001e0: 7b99 5f76 d4ac 1140 f683 be30 9393 bc3f
000001f0: daba a760 4205 c63f e9aa 904e de47 f13f
00000200: 6168 d46a dc14 1040 b6bd 368c e247 0a40
00000210: 699f 653e b203 b63f 441c 2e11 effc d53f
00000220: eb0a a571 8030 a53f cfe8 8ea4 5a4b 0d40
00000230: 8358 c610 fe62 8b3f cfda c836 cca9 ccbf
00000240: 8231 08bd 8a4d 0940 b3a1 b43c 066b f93f
00000250: d277 9a6c d8a9 0140 0e58 ab0a c80f 07c0
00000260: 2686 3fb9 e31b f13f c3f7 be38 badc f23f
00000270: ac54 27b3 17eb 1340 3ee0 5dcb e827 f33f
00000280: 77d7 7bd0 981f 0340 2ff8 fc01 2e14 1540
00000290: 5601 7989 80c4 f53f 9666 6251 6996 1240
000002a0: b2c8 b2b6 5f1b b53f b778 2986 6e25 d43f
000002b0: 35f2 b76c 9d8c b83f e0b0 0cd2 d6dd 1140
000002c0: 16df 371d 291d a63f 6c04 0db2 10c5 ce3f
000002d0: 28e2 158b 44ce 1840 3c9a 5acd 8304 0540
000002e0: 04e6 d239 0517 1740 7802 4b93 2578 e2bf
000002f0: ed56 23e9 bb33 d3bf 036d 98ea 72ad 99bf
00000300: f3a5 22fd 8f34 1c40 7797 9edb de33 b0bf
00000310: e7b0 b95d e694 e63f 5602 d458 4fd0 1040
00000320: 8d90 16b4 4866 0540 d713 5bc9 8414 1040
00000330: 733e a910 2f2b e9bf 572e 6633 2548 d4bf
00000340: f1fc ddb7 00f0 cbbf 3cd7 f127 54a6 1340
00000350: 6ff9 1771 e6df ccbf 882b cfde ad74 e5bf
00000360: 5661 4190 31b0 c6bf c52f 56dd 381d 0440
00000370: 7f5f 6586 71d1 f9bf de4d 0c60 c94d b7bf
00000380: 6906 a945 3038 0140 0c18 abdb 52a0 fe3f
00000390: 3e54 9594 4826 e5bf 84e1 2437 2872 fe3f
000003a0: 8dfb 1434 a93b 0440 ef8f aa59 20b1 1440
000003b0: 2bd5 5984 f7d3 0140 0bdd 1905 4b25 0c40
000003c0: cc47 f9d8 d698 05c0 59c3 444a af07 a93f
000003d0: ea12 ca6d f20e b7bf 361f c0c9 ff08 1840
000003e0: 0fb8 9c0e 3e60 c1bf cbd2 223c 31d3 ef3f
000003f0: 4d03 1f01 2e2b 0540 a8d4 536f 12dc 0940
00000400: 25ae 2602 b899 0f40 78f9 6c10 e6a0 f3bf
00000410: 156c b52c 43a8 e03f b872 36f7 7308 d43f
00000420: 26f6 0726 c741 1040 8e02 b1c9 4a91 dc3f
00000430: c8f8 300b d914 ea3f 317c 6522 c62c 0940
00000440: 724c 5b6d ef68 ff3f 740d 59d6 3d76 1040
00000450: 98e4 650b 568b eb3f 51cc 22e6 fd3b eb3f
00000460: 68b3 0044 15cb ec3f ccf5 efc5 ae4b 0440
00000470: 965c ddf7 4371 f43f af42 7414 c984 fe3f
00000480: 4293 df26 29f3 0440 af84 5222 2447 f83f
00000490: 5873 5eea 8eb8 0440 d7fe f9c8 fbf7 d73f
000004a0: 08c5 ce36 7fb7 e43f 9ba3 4b52 e363 e13f
000004b0: e3d4 7d53 9b6b f63f 631d 2ba4 1e02 0540
000004c0: 8dc2 4b88 9738 adbf 99c0 0d5e 8e2e 0040
000004d0: 57e9 132a 710a f53f cbc0 74ab 32da f03f
000004e0: 9229 a57c 3650 e7bf 9b6a eb8c 0d20 eabf
000004f0: d7d4 0282 2fbb dbbf 09a6 2a2b ec34 fb3f
00000500: 4b6d 054a 0860 e13f e0a9 d5d8 3e6e e43f
00000510: 1525 ca53 3e30 0440 b6b9 8365 e975 0340
00000520: eadc 35cf 403c 0140 5bbb 60a1 f2df cb3f
00000530: 2c68 2d00 3c86 9b3f 84f5 3737 2982 bb3f
00000540: 0fd4 62dc 1e7b 1240 c7e4 e8b4 8901 a8bf
00000550: e37d 0c22 ebcc b53f 11cf 50e8 5f63 e13f
00000560: 49b6 73e0 b98c fd3f eb4e 3a55 cd7f 0140
00000570: b1da b122 cadf d73f 07b0 89ff a988 c63f
00000580: caa8 c17f 24cb c13f 72c8 4640 6039 fc3f
00000590: a1a1 6f74 40fc cf3f e627 6fbc 4656 c0bf
000005a0: 2c70 7072 aa27 fc3f f8c6 b6b1 49cf f53f
000005b0: f91e 37bf eec9 f33f b00d 8729 a6a0 d4bf
000005c0: 8c9f e334 4e38 c53f 4bb6 3fe9 bce3 c0bf
000005d0: 972b 922e 8e57 fd3f 7f84 58db 610f 06c0
000005e0: e5a0 db83 f6b2 04c0 5c91 7242 049c 0040
000005f0: 0bef 22f2 1a08 0540 50e7 862e ca3c 1640
00000600: 15ce adf7 5e0d f53f 8bb3 dc69 e438 d23f
00000610: 276d 1d80 8a45 c93f 0d64 9f9f a041 0940
00000620: 2504 79e0 d2fc 01c0 dae0 3261 28f9 d0bf
00000630: d2eb 59e9 c55f e83f 9437 fae2 24c8 f43f
00000640: c53e 93eb 3688 ff3f 968d 71cc fad2 f0bf
00000650: 2f7b 887a 68f5 d7bf 0497 903a 0778 e0bf
00000660: 57b2 df13 0edf 0240 05d1 635e 0e93 f7bf
00000670: 9cc4 b305 9041 00c0 79ff 4b86 0b79 0b40
00000680: ed8f 3200 b303 0440 6868 4255 a215 0940
00000690: 9706 ecb2 4db1 eb3f 76ab 6888 d7b9 c8bf
000006a0: bf6a ae7b d661 b2bf 8b22 e496 0727 fc3f
000006b0: 1293 6a7d 54f0 fbbf b672 f405 a1b7 ff3f
000006c0: 6234 1650 f0c0 0140 e841 8d08 6ed7 0240
000006d0: e858 76eb f8b7 0240 2784 49a2 9a19 f93f
000006e0: 1650 0fee 08ae e03f f20f 3337 b11c ed3f
000006f0: 4ee6 36fc dbb6 fa3f 8f2f dbad fe19 fabf
00000700: 161e 83b4 6ba6 d7bf 2a8a da4c 6ae5 1140
00000710: 361c d5e1 2903 1040 bfde e657 0aa6 0640
00000720: 27c4 04fe cf1a b53f b910 804e acbe bd3f
00000730: 22a8 c86f d55b b7bf de9d 4ce4 061c 1240
00000740: d31d 2226 154c 0840 0885 8cfa d518 f5bf
00000750: 8b68 7f2f 666b 0a40 12f6 af4a 44e2 eb3f
00000760: 6f58 5dce e702 fd3f 53e3 8aac a7b9 eb3f
00000770: 0ee1 da72 d516 c03f 853a 49e9 7ced 7f3f
00000780: 3fde 9e05 da99 ea3f 71a8 88fb 879e b6bf
00000790: bdb0 b751 8a38 d23f 9b8f 5718 03cf eabf
000007a0: afcb e12a 4d7f be3f c8e0 c344 8a29 ecbf
000007b0: b094 b382 cfec fc3f cd26 a760 a5a9 0040
000007c0: 4086 1495 0c5d ff3f c2e9 86bd 462c efbf
000007d0: 44cd 7d8c d9b7 0a40 301a 2c6f a775 e43f
000007e0: 33ba 6b52 5953 1640 9d7c 82cd b658 1440
000007f0: 0f0f f2e4 f44f 0540 b177 7484 170c e93f
-1.4310719035989423 1.8309196268303385 -1.8898240604597378 -3.165973086569028 0.19050925860674123 -0.051764430430885466 -0.958740868106651 -0.09073231327856436
1.4501347494734518 2.71736389087013 2.1456280942625634 3.635201204695758 -1.3662639202284674 -0.4760148818474678 -0.30906023373907465 4.215657200510663
-0.36110599149292316 -0.9068270184846711 1.9940424916571413 3.7560124625471585 1.894986519612592 -2.3952806935777473 -0.297371955470476 0.1342120516151313
3.2169632701951834 0.12568615828509136 0.671897165309377 3.745687481155167 1.4725319353861996 4.335514287413735 -1.6726226898025816 0.1541546230241904
0.06287491758946738 5.1176817307458125 0.11569270900223391 0.2560338963943437 -0.4675507125886085 1.768943176820082 0.7866899657990383 -1.9699462844180171
0.01863967631142131 -0.2059724168372746 -0.42543234160756177 -0.2084701045604778 -0.6568314493680005 2.5553032970736096 1.7729987047241376 3.4700192283380202
-0.26767196922942793 -0.4892400722790923 -0.2700964371275168 3.197206996930525 -0.2893614363430007 -0.7070816663453336 2.421069257437472 1.1062701005627598
0.6628703314580049 -1.3793187911312017 0.21349042246690353 0.1177990597738824 4.418779229721959 0.11162681522411319 0.17203550071231782 1.0800459927510764
4.020372075285281 3.2851000742154737 0.08599390052188273 0.34356285741563775 0.0413856638647497 3.661793981181382 0.013372406851697832 -0.22393181490925548
3.16286227875952 1.5886289950668526 2.207932327713004 -2.882705767969134 1.0693089710479255 1.1788885323180558 4.979582595134314 1.1972434944164116
2.3904281890672183 5.269706755700141 1.3604741449381286 4.646886130934623 0.08244894228372138 0.31478465177304876 0.09589561371098727 4.466639787697403
0.04319122773807586 0.24038895315064523 6.201433346949251 2.6272045176768 5.7724808726284245 -0.5771663548294574 -0.3000325943697664 -0.025075717514579498
7.051330523719559 -0.06329148160747687 0.7056762533734656 4.203427684726725 2.6749433583627877 4.020037790473871 -0.7865214658176697 -0.31690340060661043
-0.2182618043698095 4.912430404792584 -0.22558289072180623 -0.6704930640929527 -0.17725200217933929 2.5142686168601096 -1.6136336564868257 -0.09103067965434472
2.1524358217437123 1.914141519622265 -0.6609232809083847 1.9028703836503107 2.529131323709811 5.172974968943875 2.228499444953419 3.5182094954030894
-2.699628539187847 0.04888675481414024 -0.09007182293323593 6.008788254119102 -0.13574958528028033 0.9945303129703346 2.646083840140284 3.232457036729631
3.950057999425342 -1.2267819062832057 0.5205398438660064 0.3130159296213537 4.064236253963406 0.44636792847089957 0.8150449007587435 3.146862286302643
1.9631189605468333 4.115470265565239 0.8607588026635709 0.8510732169000993 0.8997904136827914 2.5369544471602463 1.277652710172139 1.9074183272352163
2.6187308346729035 1.51736844451106 2.590116339690592 0.37451071383109763 0.6473995275938771 0.5434433562596611 1.4012711774242284 2.626035006109008
-0.05707238711136595 2.022732481760681 1.3150493281996967 1.0532709786894425 -0.728541606376256 -0.8164127113662575 -0.43329990097420307 1.7004205404467732
0.5429727025724927 0.6384577021647679 2.5235563798966134 2.4325740748238003 2.1544204891503016 0.21777184371736777 0.02687925101358972 0.10745484922514065
4.620234912425999 -0.04688673337336407 0.08515805798787528 0.5433806931891657 1.846856953397394 2.1874033602160714 0.3730340327087261 0.17604565598901464
0.1390119193850466 1.7640078078079822 0.24988561330179684 -0.1276329441155319 1.7596840353280738 1.3631073896362391 1.2367999524448676 -0.32230524115967807
0.16578080732801614 -0.1319500101957821 1.8338758296183408 -2.7575108658207337 -2.5873842526817605 2.0761799994672128 2.628957645121664 5.559365012153492
1.3157643961866416 0.2847224267778123 0.19743472343075405 3.1570446463124484 -2.248449090664979 -0.2652073811727981 0.7616910512582484 1.2988633028321361
1.9707555009990056 -1.051508711440737 -0.3743535229313463 -0.5146518844455561 2.35891356970232 -1.4734023749452387 -2.0320129819379655 3.434104012674592
2.5018062606268274 3.135563531960589 0.8653934950418315 -0.1931714454707067 -0.07180538672984492 1.7595287222085598 -1.7461743258547284 1.9823312981235808
2.2192083603645623 2.355190340815387 2.3398302455417372 1.5687509860365567 0.5212444924932267 0.9097524717440122 1.669643387997343 -1.6313463965661616
-0.36953251484053007 4.474038315619092 4.003089455253805 2.8310744159060444 0.08244037582041185 0.1161906901980413 -0.09124502162072237 4.527370040108023
3.0371497134362726 -1.3185634409967992 3.3024409971959066 0.8713704546677852 1.8132093487852463 0.8664129610034287 0.12569683178094987 0.007794845518744102
0.8312807187821319 -0.08835649386370094 0.2847009466193063 -0.837770030539548 0.11912996575283218 -0.8800708144254026 1.8078150849844796 2.082834963894902
1.9602170775837209 -0.9741548253726295 3.3397704101459187 0.6393620654424179 5.581395423722415 5.086634837235718 2.6640413175936213 0.7827260577212113

arr_2 f8 [10, 9, 1]
00000000: 3a47 eb8c 1969 2440 3117 fbb6 9938 1140
00000010: 104c 448a cc04 2440 ae7b 4604 b3bf 1940
00000020: 04ae 3f21 c3c9 1d40 dcd5 57f8 4308 1d40
00000030: c48d 4fb0 ea74 2c40 2453 074d 7670 1d40
00000040: 67cb 2fba 4e23 2040 119b 1de0 11e7 2140
00000050: 63b9 aece 8b8c 1e40 a9ca 7c54 8d26 2c40
00000060: 0ed0 f94d eb70 1c40 129f 65df d257 1e40
00000070: 90d8 6a7d a5e6 1d40 6587 d696 b848 0640
00000080: e367 2a76 ac29 2440 2ae7 0dd6 af1f 1640
00000090: 9c11 34f2 53e2 0740 1c6b ed6b 4a12 2940
000000a0: 6f14 fa92 a088 0640 d11c 6c2c fa57 20c0
000000b0: 269e ddd1 e0ad 12c0 f224 2b2b 8eda 0ac0
000000c0: 5ebc dfda 0bec ee3f 4096 8862 8734 b23f
000000d0: 5a81 a4e6 33d7 ec3f d6af ab0a 6483 2040
000000e0: 0ec7 7e5a ca55 0340 bd7e ad53 345f 1d40
000000f0: 8d6c 7453 bce6 2040 c58c df20 c2f9 2940
00000100: cce0 95f5 df2d 2540 77ae 0039 e74c fe3f
00000110: b59b fb49 0cfe 2440 5892 aa18 8751 1f40
00000120: 4a30 9b99 6b34 2240 bd15 54ab 7674 1c40
00000130: ba5f a5b8 1e6a 2040 a984 6873 bb39 1e40
00000140: 2fe6 0aa8 0528 1f40 3616 1d4b 569a 1940
00000150: d08b 4cac f071 2140 7ed0 ef0b 4a14 2040
00000160: 82a1 5872 abfc 1640 0ffc a176 ff11 2840
00000170: 68dc 9422 1cc2 eebf e426 15fb 56a0 3040
00000180: a1b4 5572 4973 0240 2e53 1a57 64eb 2140
00000190: 73ed 72ae b60f 1d40 3092 426c 04a6 1840
000001a0: ed50 2ac2 eb72 1d40 6850 4d09 c45d 2740
000001b0: 3ef4 8cf2 4b2c 2c40 7b5d 9275 543d 2b40
000001c0: 89ac 1aed b5e8 2740 07f6 28f6 48f4 2e40
000001d0: 28c2 dd37 401a 0e40 7955 c2e9 4c2a 0d40
000001e0: ced9 7bf0 6074 2640 42f0 25b3 2c77 0d40
000001f0: 50a3 17a4 17ca ed3f f2f1 c2f5 4043 2f40
00000200: c7c2 024d bc6d 1240 e31f c8cd 7076 2940
00000210: f4b7 8995 4f03 1dc0 d30b 6d11 db08 26c0
00000220: 0160 2976 0e9a fd3f b33a 0a3a 1587 3140
00000230: 3833 0524 1413 29c0 8211 448e ce41 ff3f
00000240: e2a7 4428 c07d 2140 1eb8 a4ad 589c 2b40
00000250: f67a 1044 afda 2d40 bcf6 5771 47d9 2740
00000260: ed34 ada6 0f5d 2840 e8a9 0054 e625 2d40
00000270: 6a41 c91d 6836 2040 e177 2c7a 55cf 2c40
00000280: 660b dac5 c702 2d40 5507 21fc 10ac 2040
00000290: 870a 4654 2233 2140 d485 7995 c709 2140
000002a0: eb57 db1f 111a 1b40 f6c0 2d6d bacf 1e40
000002b0: 8365 7ddd 19c9 3040 a7ee af70 aa87 0140
000002c0: b5be 5297 c201 1940 f302 5fab 55ac 3140
10.205273059578406 4.305273875308374 10.009373017155696 6.437206332017849 7.4470334239117655 7.258071785317465 14.22835303279033 7.359826282093113
8.068960016569418 8.951308253873806 7.637252072729413 14.075297012551646 7.1102726157878475 7.58576535279987 7.47524066891323 2.7855083259791393
10.081393902470102 5.53094419917924 2.985511676992429 12.535724041682947 2.816712520844298 -8.171830547520957 -4.669802931930041 -3.35671647763649
0.966314246643275 0.07111402659992283 0.9012698654878861 8.25662263246333 2.4168898649157944 7.342973048652934 8.450655563318174 12.98780920723801
10.589599298997562 1.893775198618554 10.496187507594962 7.829616914187305 9.102383423036503 7.113733937270294 8.207265634715316 7.556379130605969
7.789084077515823 6.400719808245006 8.722539314598095 8.039627430938932 5.746747767123795 12.035152156137 -0.9611950564784708 16.626327221550028
2.306292432060744 8.959749910319797 7.2653453118940545 6.162126246989416 7.362227472145816 11.68313626354957 14.086516933161075 13.619784998051491
11.95451298666582 15.47711915254605 3.7628177990484524 3.645654512637233 11.227302088850504 3.6831907268479265 0.9309194760254318 15.631354980513581
4.607163623136052 12.731329374961154 -7.253233276873278 -11.017296356736471 1.8501114478767706 17.527667644021403 -12.5372630363796 1.9535661275159275
8.745606668835482 13.805364061696363 14.927118422519452 11.924373189914483 12.181760033267404 14.574022889214532 8.106263094727826 14.404949014595276
14.505430395952953 8.336067084342782 8.599871285963003 8.519100829204866 6.775455949556981 7.702859598081195 16.785550921549213 2.191243057602907
6.2517188686612615 17.673182211586163
