Weights/glass/0/bweights.npz (npz, 744 bytes, 1 tensors)

arr_0 f8 [10, 1, 6]
0	0xc009bcf771403c7d	-3.217268833897434
1	0x400a7a22b6dbbdfb	3.3096365247545214
2	0x4001bb8d8fd39af3	2.216578601498776
3	0x3ff89800fbea0b26	1.5371103134536468
4	0xc00107b4a84a6bb4	-2.1287625453673744
5	0xbffba39f0f680e70	-1.727446613484883
6	0xc0022e0bf8ca3ddf	-2.2724837719649567
7	0x4008b1697592d047	3.086626928847213
8	0x3ffc94140131f8dd	1.7861518904388085
9	0x3ff8ea9fde3fabdc	1.5572813684072946
10	0xbfffa868928c97e6	-1.9786153530671924
11	0xc001834dffd56a19	-2.1891136157039566
12	0xc0079d66d72637fb	-2.951856308797685
13	0x4006a8514211e109	2.832186237497926
14	0x400436ba2b7943f4	2.5267222782499577
15	0x3ffb12a24b3257bb	1.6920493066186129
16	0xc0016c3420137137	-2.177833796113329
17	0xbffee718f109f198	-1.931420270498256
18	0xc003e3b74a55960f	-2.486189442383654
19	0x400a95d304e53995	3.3231563932851693
20	0x4001cd35664ae3bc	2.225199507866334
21	0x3ff5c2409d594e26	1.3599249025763895
22	0xbfff8f93d0a9383c	-1.972553076822364
23	0xc003ad7263cce3a4	-2.459690837564681
24	0xbffe5ce136e4b832	-1.8976757187151745
25	0x400a162f70fc8eaa	3.2608326747011533
26	0x4001e62a4fd0de84	2.237385390817339
27	0x3ff61201f99da4b5	1.379396414815614
28	0xc00469b499af2039	-2.551613999039571
29	0xc00382006515145e	-2.438477315622136
30	0xc0028ee595cc3374	-2.319773836416454
31	0x4003546214ebed94	2.4162027010440372
32	0x3ffff222618188db	1.9966148194148932
33	0x3fde7e09f00bf9af	0.4764427990156958
34	0xbfff100d0a379c67	-1.941418685828262
35	0xbfe46c4d158203ba	-0.6382203502727102
36	0xc001f7caa29d7a16	-2.2459919647510658
37	0x400d63e35f58e55a	3.6737735222820165
38	0x3ff403470c4f6461	1.2508001786102556
39	0x3ff98af5ff74a7d1	1.596426008104107
40	0xc002a95d1df94dc3	-2.332697137995383
41	0xbfff3d4a027ce93d	-1.9524631592926902
42	0xc0052429781fac6c	-2.642657221285438
43	0x400aebb9f34428ba	3.365100765721846
44	0x4002b9c7f24ab5fe	2.3407133988428077
45	0x3fe4b9d2a2ff8364	0.6476834472233404
46	0xc0026c07985de1c6	-2.302748861661004
47	0xbff6b120b4d704d1	-1.4182440818843143
48	0xc003b62f5a02172d	-2.4639575034988384
49	0x4009d7c7054d159b	3.230360070624284
50	0x40038db89c0a7b6d	2.444199770994081
51	0x3ffbf45d57f0509c	1.7471593318087235
52	0xc003442dc8ad64f8	-2.4082904508510374
53	0xc0047a1c073a8e37	-2.559623772119973
54	0xc005168acaa0f244	-2.636006911312764
55	0x40069db2f9fc98b0	2.827001526852733
56	0x4003c1ecaf6cf0b3	2.4696897225495262
57	0x3ffe338d147c2a48	1.8875857162662601
58	0xc004dbc378fb5d22	-2.6073064281187195
59	0xbfff37c5994b4072	-1.9511161792798046
