Weights/glass/0/weights.npz (npz, 4584 bytes, 1 tensors)

arr_0 f8 [10, 9, 6]
6.191711559102064 2.572311367795001 -7.755769815196774 -2.7710796651723513 -3.5180395221991243 5.506745188462631 -4.7229487863629345 -5.111710285847572
0.48504447045886473 -10.161147481978508 12.381028480906254 7.292753675478041 8.68112414507977 2.1014758357558865 6.992768990329212 -6.109672512939096
-3.8844272152197243 -7.50357566119882 -12.675953948378611 0.8360219670086265 -9.674960903597684 15.408513836212666 0.9130391790562175 5.353353042630149
4.800159859579108 -2.9776458422492094 -5.050766406321082 -3.857850223716182 2.8352982619394336 4.422301518447547 3.1584490465990855 1.7787176849444717
-5.0196417880498805 7.797531474145795 -10.993528472512674 3.476954066378912 0.24749813999936696 0.6927353731632306 6.892119685122658 3.3832310758125326
-0.9896998305735368 -10.140217190809748 -2.5629422048741346 3.9355596830182233 -0.19423801129344392 -1.5481472945043757 -6.785379894908624 7.431914388087455
1.8803566978131863 3.7359337695680095 2.353039637803151 3.4828329666856392 -8.186448039612545 -3.0540754650779243 4.72540359730218 1.9961363105425112
-7.199018099093635 -2.54041826745918 -3.027017354770325 6.270792926269798 -5.480463961296863 -3.791327534461395 -0.3691931616524793 -8.178896029254828
11.970007402384624 6.012893356934956 9.009441115858408 0.5805016244464214 6.822229228891463 -5.307138970241693 -3.5178626467976195 -7.309476770349936
-12.025494320749633 -0.9760862817202369 -8.040850546862192 12.54720660589416 2.137230483371484 6.518007232997769 4.5759027924378435 -1.3766426703835013
-5.278611542185032 -2.363887508485524 0.5492380490492892 4.065498047246612 -0.1413477768258218 3.301396703018082 -4.102377180947323 6.369517060931788
-9.656729301875183 4.428022507203943 0.8536593434103262 0.011757154562236506 7.188386080931112 2.6752067356715856 -0.6995591932574797 -9.9437828686035
2.690691001845037 1.987149449055458 -1.288655790962663 -1.535901021374707 -6.56111182910855 4.984594856070483 2.297982550348629 3.6684042222210467
2.7812885912166636 1.6192340202707634 -7.458347519833074 -2.696922297044566 6.117591995315062 3.1707274661711775 -10.281256968231405 -2.2237298353818935
-2.449220526786232 5.891766981704757 -5.507610989764339 -5.525135383656534 -1.0995247001164268 -6.957244782081242 12.589600704444218 6.662935223828499
8.953413883875 1.392481643501864 6.861613403212484 -5.493533379409565 -4.150473127586282 -7.2858088417864275 -10.691998252041378 0.027120402492919332
-8.880358516727735 12.750151559857887 1.6977602277854686 5.2573377515643696 4.355329370125608 -1.1095347826754132 -4.8093804046687065 -2.9899397159632892
1.0051724283777739 3.719850272483812 1.0565901942941403 2.379681458563385 -3.3823833753477324 5.814558750171648 -9.210646409063779 3.5406813928879415
0.5734333970233462 -0.3702735398917903 8.053506835203704 2.486811038891033 -1.330785436021032 -9.327025042490844 2.346216896384671 1.8234367806720662
-1.4732431416570395 -1.3778362112841946 -7.2531376318022405 6.21132997321188 1.9894218753502053 3.397926593926843 1.3760800922231242 1.7909950052635535
-5.378082473223058 -2.9647015263611998 3.802371019504496 4.557059102634628 -7.292919878370622 -3.247982898552074 -1.998403839160757 4.405755606735717
-5.853679046915425 -2.924563011829355 0.8370676442435465 -8.58400756375604 13.107665564886569 3.5805364860248634 10.266181239004265 -0.18803411459346414
6.673671049023529 -5.625420540584493 -3.7628968126157285 -7.08580723842688 -11.201240963208496 -0.36993971890393784 -10.469135775165567 13.939405512191383
2.5226001607515425 5.738323957266665 2.6553559358122127 -2.0678437271155943 -4.919519117799812 -2.690076463336777 -0.7531396405985358 7.9467201807181285
-1.873942957421569 6.849494157611426 -3.464000255538188 6.847647311577168 -9.228611953096122 1.0678957083728142 2.6077422538374004 -1.394398718418357
6.770246244364603 2.8955640969733025 -0.6750046584156398 -10.118481965626838 2.2434001048264585 0.20574808027965524 -1.7641356584848251 -2.6071028076209406
-7.121422767174602 9.320279713699124 2.1173950476536 3.68439846131494 1.9707134991747415 2.092480661501224 -7.700307328617146 -1.9530407738477922
3.373348363992032 3.518495600399856 -7.358423447981507 -2.499547219385426 -2.8931959182545284 6.085201734020923 -5.0459235138017995 -3.676025381429925
0.2767672522830135 -9.00888522940285 11.612721197115741 6.00436574788992 9.29468691616027 0.5293004990605905 6.50271077205153 -5.086353330718756
-3.3412189127860805 -7.621432361960569 -12.862704143024763 -0.8445668320448023 -9.604540128599846 13.545733302186383 2.9849590928830194 6.941131881531038
2.9776571391474453 -0.6373051792522001 -4.964185848029743 -2.2905862834698265 0.9001040422896069 4.185813296994441 0.9833529300154631 3.950291772361703
-2.8274867958313217 5.747357916960871 -10.901673936302648 3.2466401243014986 2.921373325337848 -1.4280312882340178 6.152922960208726 2.6767206274760715
00000000: 246f f208 50c4 1840 ed77 7efb 1794 0440
00000010: e34b be85 e805 1fc0 0035 c4d0 2b2b 06c0
00000020: af0b afe7 f124 0cc0 d068 ef35 e806 1640
00000030: 6072 c8af 4ce4 12c0 585e 612e 6472 14c0
00000040: 5b7e 6ef6 f70a df3f 63dc 39ec 8152 24c0
00000050: 81ac 402a 16c3 2840 12d9 979e c72b 1d40
00000060: 6344 cf4d bc5c 2140 143f 1f90 d2cf 0040
00000070: a2c9 276f 98f8 1b40 cd5f c1fd 4d70 18c0
00000080: 127d 6893 4e13 0fc0 5ca4 8f56 a903 1ec0
00000090: c3c6 cba2 165a 29c0 bf44 e123 b1c0 ea3f
000000a0: b30f be79 9459 23c0 6afe bcb9 28d1 2e40
000000b0: a96b c0f0 9d37 ed3f 8327 4861 d569 1540
000000c0: 5ddb 311b 5d33 1340 ef3e bcfb 37d2 07c0
000000d0: b989 db1b fc33 14c0 7bd1 fd93 e0dc 0ec0
000000e0: ec7b ebda b0ae 0640 2822 2bcf 6fb0 1140
000000f0: bacd 09ef 8044 0940 1274 daac a075 fc3f
00000100: 9f3c 15fa 1c14 14c0 8bf2 3b17 ac30 1f40
00000110: 6d2c 92c3 affc 25c0 4755 264b cdd0 0b40
00000120: 3f1e 8fe0 04ae cf3f fe96 905f e32a e63f
00000130: e8e0 9ed2 8791 1b40 e267 4b74 db10 0b40
00000140: 4f71 a5fa 9eab efbf cfba 318c ca47 24c0
00000150: c3c7 bbd7 e780 04c0 b927 10b7 067c 0f40
00000160: 229d 1289 cadc c8bf 4498 f418 36c5 f8bf
00000170: 1a46 8ea0 3a24 1bc0 a707 eec3 47ba 1d40
00000180: 4ac1 9ee7 f015 fe3f 6688 823e 31e3 0d40
00000190: 2373 1472 06d3 0240 8ac3 ca87 d7dc 0b40
000001a0: 1114 111e 765f 20c0 9534 101e bf6e 08c0
000001b0: 2541 5b33 d0e6 1240 0236 c2a0 2cf0 ff3f
000001c0: 50ad 8b66 cbcb 1cc0 6e2f 07d0 c652 04c0
000001d0: c64d f9df 5437 08c0 8744 a9bd 4a15 1940
000001e0: e0b4 a2be feeb 15c0 f07c c787 a354 0ec0
000001f0: 4412 cd5a dca0 d7bf 4711 a642 985b 20c0
00000200: 603d 6ccf a4f0 2740 347c 89ea 330d 1840
00000210: 00b3 4777 d504 2240 4eb6 8824 7893 e23f
00000220: d59d 7f75 f649 1b40 8e0f 62a3 823a 15c0
00000230: b586 de2b 9524 0cc0 4519 7e7a e73c 1dc0
00000240: f2b4 7397 0d0d 28c0 5001 424c 193c efbf
00000250: fa97 e55c ea14 20c0 f0f0 d876 2b18 2940
00000260: 24c2 b04b 0c19 0140 7a44 f37c 7012 1a40
00000270: 4fc8 2c76 b94d 1240 3534 f976 ba06 f6bf
00000280: 2fe4 1758 4c1d 15c0 2cf2 a2da 3de9 02c0
00000290: 5a56 4cac 5b93 e13f 1681 8beb 1143 1040
000002a0: 9923 6a17 af17 c2bf d9ad b4ac 4269 0a40
000002b0: 091a 5090 d568 10c0 7410 30ae 627a 1940
000002c0: f5c1 b3d2 3e50 23c0 4a92 3988 4bb6 1140
000002d0: efe8 3b66 2d51 eb3f d4e8 b592 2214 883f
000002e0: a27b e247 e8c0 1c40 adfc fdc9 d266 0540
000002f0: 4d06 15f6 c962 e6bf ad5a 1682 37e3 23c0
00000300: fc86 0401 8986 0540 5f52 7f38 5dcb ff3f
00000310: 39c5 df88 559e f4bf 6728 0bf3 0c93 f8bf
00000320: 0bae 6d19 943e 1ac0 bc87 4aa2 39f0 1340
00000330: 5235 e4ac 4462 0240 ea94 1750 e458 0d40
00000340: 9d1b a03b 1440 0640 f022 9aee 61e8 f93f
00000350: 068b 5f0d 59d5 1dc0 e146 4dff 4b93 05c0
00000360: 2b99 3809 6a78 1840 8cdf 9d5c a65d 0940
00000370: e9a6 d0e9 0090 24c0 6bd6 30de 32ca 01c0
00000380: fae8 79ee 0098 03c0 5a4c 185d 2b91 1740
00000390: 1983 e02c cb07 16c0 e11b 0b17 bd19 16c0
000003a0: e44e 4236 a797 f1bf ea38 e5f9 37d4 1bc0
000003b0: ad92 be24 e02d 2940 e1d6 c67d d8a6 1a40
000003c0: 4797 55dd 25e8 2140 f3ee f1d4 9a47 f63f
000003d0: 1c5f b2c8 4a72 1b40 9b31 70d0 60f9 15c0
000003e0: c1a3 a7a0 159a 10c0 7985 b112 ab24 1dc0
000003f0: 53d0 4a98 4d62 25c0 58b8 0b67 73c5 9b3f
00000400: 8e33 fc59 bec2 21c0 1a44 81dd 1380 2940
00000410: 0d9c eca0 062a fb3f 06fb 2b8c 8307 1540
00000420: b6fd 5f76 db6b 1140 8bd8 558b a7c0 f1bf
00000430: 264d 8037 ce3c 13c0 4297 8883 65eb 07c0
00000440: 3793 2baf 2f15 f03f 63ad 12dc 40c2 0d40
00000450: 2a48 9c1e cbe7 f03f 266b bb6e 9609 0340
00000460: 8838 dd03 1f0f 0bc0 a7a1 62b0 1b42 1740
00000470: c5e5 9bd8 d96b 22c0 5313 20c4 5053 0c40
00000480: 57c8 d4fe 9059 e23f 7533 1aca 8fb2 d7bf
00000490: ef9f 763f 651b 2040 3ef3 9a2f fde4 0340
000004a0: 4341 5bab e54a f5bf 3ff1 8cd3 6fa7 22c0
000004b0: b75b 3a5d 0dc5 0240 f6f5 b40b cc2c fd3f
000004c0: 8e92 8766 6792 f7bf d35c abfb 9d0b f6bf
000004d0: f9e8 e782 3603 1dc0 3670 6ee2 66d8 1840
000004e0: ca37 4908 acd4 ff3f e6fe 5823 f42e 0b40
000004f0: 5466 0c8f 6c04 f63f 3f80 ee60 eaa7 fc3f
00000500: 3ebc 460d 2883 15c0 28fb 106f b5b7 07c0
00000510: 6b3d 407f 416b 0e40 f304 8fb3 6d3a 1240
00000520: eccc 4730 f32b 1dc0 d0fc 3975 defb 09c0
00000530: 3a57 d64d 76f9 ffbf e864 d465 7e9f 1140
00000540: f920 0fd7 2a6a 17c0 cd2f d74a 8165 07c0
00000550: fe1a 9215 42c9 ea3f cde5 150a 032b 21c0
00000560: b52f e0f0 1f37 2a40 74e4 2c50 f0a4 0c40
00000570: 06aa 48e8 4888 2440 120a 5b7a 8011 c8bf
00000580: b445 cfd2 d6b1 1a40 683a 003e 6e80 16c0
00000590: ef41 e3a4 691a 0ec0 cf36 4bda dd57 1cc0
000005a0: 2b31 370e 0967 26c0 22c4 8ba4 17ad d7bf
000005b0: 7f70 7790 32f0 24c0 9716 61c2 f9e0 2b40
000005c0: 6c7f 3afe 482e 0440 2841 0932 0bf4 1640
000005d0: 666c bc40 2b3e 0540 109a e9a6 f18a 00c0
000005e0: e4fc 6b6b 96ad 13c0 992a 0ecf 4685 05c0
000005f0: 1624 b64d b819 e8bf 1d97 da03 71c9 1f40
00000600: 5f1f 4b9c abfb fdbf 2a56 e4cb e165 1b40
00000610: 2ffa 16c4 45b6 0bc0 a610 27a8 fd63 1b40
00000620: 890b 3ca0 0c75 22c0 f6ff 6fcf 1916 f13f
00000630: 1f08 85f8 a7dc 0440 fa0e d307 754f f6bf
00000640: b4a6 756e bb14 1b40 e0c6 5f82 1d2a 0740
00000650: d15e 915e a399 e5bf ee10 0fab a93c 24c0
00000660: b594 10c1 7bf2 0140 1209 02fe f355 ca3f
00000670: 5f65 ee4f e639 fcbf 7155 80b7 58db 04c0
00000680: da04 f83f 567c 1cc0 e9d1 dfb3 fba3 2240
00000690: 9b13 93d0 6cf0 0040 3c3e 86e6 a579 0d40
000006a0: 1cdc cbe0 0a88 ff3f 1948 4580 66bd 0040
000006b0: 343d 465d 1dcd 1ec0 8ee4 b6ae a73f ffbf
000006c0: 16e3 2a11 9efc 0a40 b9b2 7605 e125 0c40
000006d0: efcc 6c8e 066f 1dc0 8e8b d09c 12ff 03c0
000006e0: 5397 cee6 4325 07c0 bbba 941f 3f57 1840
000006f0: a495 d792 062f 14c0 440f c4fe 7f68 0dc0
00000700: 5f32 4afe 8db6 d13f c867 d39a 8c04 22c0
00000710: 2d5b be97 b639 2740 9fa3 6174 7804 1840
00000720: 56ef 1634 e196 2240 4a18 a799 07f0 e03f
00000730: a13b d59c c602 1a40 d659 ed01 6d58 14c0
00000740: 0b8b 39fb d0ba 0ac0 cc2f ddc3 587c 1ec0
00000750: 83d4 805b b4b9 29c0 6866 5d05 b106 ebbf
00000760: 75e9 a248 8635 23c0 0b75 fa5a 6a17 2b40
00000770: a6a4 9e3b 32e1 0740 5398 7113 b8c3 1b40
00000780: aeb6 fae7 3dd2 0740 2fb5 ced4 cd64 e4bf
00000790: 1037 f288 53db 13c0 4c5a c1e6 1e53 02c0
000007a0: 4e33 14fe a6cd ec3f 2203 47d7 45be 1040
000007b0: 3af3 5a90 a077 ef3f 739c 9f92 329a 0f40
000007c0: 25bd af65 b19e 06c0 b603 cf64 4bfd 1640
000007d0: a326 c834 a8cd 25c0 ed0c 1e75 1ef9 0940
000007e0: d4dc 5dfa f85e 0740 e413 0a56 37d9 f6bf
000007f0: af9d 23d6 979c 1840 7e4e 1c81 ec69 0540
